mlp/ONN/seed2/network.pth (torch, 473735 bytes, 3 tensors)

layers.0.0.weight f4 [128, 784]
0	0x3e1cf4c6	0.15327749
1	0x3d144a4d	0.03620367
2	0xbd823114	-0.06357017
3	0x3d730dd0	0.059339345
4	0x3e60119f	0.21881722
5	0xbac9b587	-0.0015389182
6	0x3c26bd9b	0.010177041
7	0x3d31c4a3	0.043400418
8	0x3e66c9a0	0.22537851
9	0xbdc01d47	-0.09380584
10	0xbbe4d418	-0.0069832914
11	0x3e6df513	0.2323802
12	0xbe5aaa7d	-0.21354099
13	0xbd5b9230	-0.053606212
14	0xbd58ec81	-0.052959923
15	0x3cf65b11	0.03007272
16	0x3bab84ea	0.0052343505
17	0xbe16d227	-0.14728604
18	0x3d8d909f	0.0691235
19	0x3aa22f27	0.0012373672
20	0x3e251de9	0.16124691
21	0x3d6514d2	0.05592806
22	0xbe6095d8	-0.21932161
23	0x3e43ea56	0.19132361
24	0xbd61cfc3	-0.055129778
25	0xbd815648	-0.06315285
26	0x3d488262	0.048952468
27	0x3c245c9b	0.0100318445
28	0x3d4077a7	0.04698911
29	0x3d067d7b	0.03283451
30	0xbe1a32bd	-0.15058418
31	0xbc8c3fd0	-0.017120272
32	0x3da362f4	0.07977858
33	0x3ce514f3	0.02796409
34	0x3d188617	0.037237253
35	0x3d64bf8d	0.05584674
36	0xbe442e1e	-0.19158217
37	0x3d9e4b5e	0.07729219
38	0xbe0745bf	-0.132102
39	0xbc7c39bb	-0.015394623
40	0xbcac00af	-0.02099642
41	0x3c503702	0.012708427
42	0x3c8f7725	0.017512867
43	0xbe5a8da2	-0.21343091
44	0xbcbf4fde	-0.023353513
45	0x3d8433b7	0.06455176
46	0xbe14bed6	-0.14525923
47	0xbe6c95a8	-0.23103964
48	0xbe1bf48f	-0.1523001
49	0xbe19b097	-0.1500877
50	0xbd8a75ba	-0.06760736
51	0x3da49752	0.080366746
52	0xbd900e4c	-0.07033977
53	0x3dd46db3	0.10372486
54	0xbbae4c3c	-0.0053191464
55	0xbe0430a3	-0.12909178
56	0xbd7cee1d	-0.06175052
57	0xbe39a5bd	-0.1812963
58	0xbde26930	-0.11055219
59	0x3e443291	0.19159915
60	0x3e87f1b1	0.26551583
61	0x3d2acdb3	0.041700076
62	0x3e3d3768	0.18478167
63	0x3b38a2b4	0.002817315
64	0x3c8910b5	0.0167316
65	0x3e99e36e	0.30056328
66	0xbe057873	-0.13034229
67	0x3e04d7b3	0.12972908
68	0xbd9066d6	-0.070508644
69	0x3e619f15	0.22033341
70	0xbe3c9da0	-0.18419504
71	0xbdab9134	-0.08377305
72	0xbe50d5b0	-0.20394015
73	0xbe62bf5b	-0.22143309
74	0xbe9ed0b1	-0.31018594
75	0xbe4afee6	-0.19823799
76	0xbdbd89b5	-0.09254781
77	0xbd5dc239	-0.054140303
78	0x3ebfcbee	0.37460274
79	0xbe0848ea	-0.13309065
80	0xbd488b46	-0.048960947
81	0x3ce47d36	0.027891736
82	0xbe49725a	-0.19672528
83	0x3d816edb	0.06319972
84	0x3da68fef	0.08132922
85	0x3c9a2c96	0.018820088
86	0xbd59a0df	-0.053131934
87	0x3e22218c	0.1583311
88	0x3cae94e4	0.021311231
89	0x3d37a334	0.044833377
90	0xbe6bf48e	-0.23042509
91	0xbe86a53a	-0.26297933
92	0xbd20749d	-0.03917371
93	0xbe49305c	-0.19647354
94	0xbe8f486f	-0.2798495
95	0xbd8a0ba6	-0.06740503
96	0xbdc94f83	-0.09829619
97	0xbe0239dd	-0.12717386
98	0x3e8c9e16	0.2746436
99	0xbca8a5bf	-0.020586846
100	0x3de91c23	0.1138232
101	0x3dc71135	0.09720079
102	0xbe0b78fc	-0.1362037
103	0xbdd0a015	-0.10186783
104	0xbbfd4526	-0.0077291904
105	0xbc9d294f	-0.019184737
106	0xbe7b9ebb	-0.2457227
107	0x3cfdff14	0.03100542
108	0x3c8cd676	0.017192107
109	0x3e5ff81d	0.21871991
110	0x3ddf6b51	0.10909141
111	0xbe03f8f0	-0.12887931
112	0x3cb642ce	0.022248652
113	0x3e35d0a4	0.17755371
114	0x3e1f3013	0.15545683
115	0xbe5535aa	-0.20821252
116	0x3d12345e	0.035694472
117	0x3dce2a1e	0.10066627
118	0xbcf79e98	-0.03022699
119	0x3dd1ed5b	0.1025035
120	0x3e27c45e	0.16383502
121	0xbdb9a810	-0.090652585
122	0xba1efed1	-0.0006065192
123	0xbb6c31d7	-0.003604045
124	0xbdb3f4c3	-0.08786919
125	0xb9ac5b1e	-0.00032874284
126	0xbc1d36d8	-0.009595595
127	0x3d8ef753	0.06980767
128	0xbdbc9f36	-0.092100546
129	0x3e0103b8	0.12599075
130	0x3dea54c1	0.11441947
131	0x3e524398	0.20533597
132	0x3e273cd9	0.16331805
133	0x3d6a2633	0.057165336
134	0x3d1869b2	0.037210174
135	0xbe55c2a5	-0.20875032
136	0x3e54d029	0.20782532
137	0xbd4a8346	-0.0494416
138	0x3c754bdd	0.0149717005
139	0xbca05919	-0.019573735
140	0xbd734720	-0.059394002
141	0x3cb433bf	0.02199733
142	0xbed45b13	-0.41475734
143	0xbe6cca31	-0.23124005
144	0x3b9c2247	0.0047648284
145	0xbe77ef67	-0.24212418
146	0x3c0bbeed	0.008529407
147	0xbe97743d	-0.2958087
148	0xbdc204d5	-0.09473578
149	0xbd61465d	-0.054998744
150	0x3d8aaf86	0.0677176
151	0x3d6820c5	0.056671876
152	0xbbddf7a2	-0.006773905
153	0x3e04a6c0	0.12954235
154	0x3d5ec57a	0.054387547
155	0x3cd73558	0.026270553
156	0xbdb64cd4	-0.089013726
157	0x3de2800a	0.11059578
158	0x3c34d23f	0.011036455
159	0xbe3e5918	-0.18588674
160	0xbe066849	-0.13125719
161	0x3eb3f6ca	0.35149223
162	0xbe55c16e	-0.20874569
163	0xbe5738dc	-0.21017784
164	0xbc490474	-0.012269128
165	0xbd9ceec9	-0.07662732
166	0xbd1b1246	-0.037859224
167	0xbdefc4ce	-0.117074594
168	0x3e22a828	0.15884459
169	0x3e50f9e1	0.20407821
170	0xbe40daa4	-0.18833405
171	0xbe5ed1c6	-0.2175971
172	0x3b986a56	0.004651348
173	0xbe1a53a3	-0.15070967
174	0x3d9546b8	0.07288879
175	0xbe21ff0c	-0.15819949
176	0xbd1b35fa	-0.037893273
177	0xbe05adda	-0.130546
178	0xbd5f66b3	-0.0545413
179	0x3de7b221	0.11313272
180	0x3cc80e60	0.024420917
181	0xbdbe2690	-0.09284699
182	0x3da08a30	0.07838857
183	0x3db569e4	0.08858088
184	0x3c8f0198	0.017456815
185	0xbadc2a67	-0.0016797305
186	0x3dca27db	0.09870883
187	0xbe0575c2	-0.13033202
188	0xbc11b9a5	-0.008894359
189	0xbd1db503	-0.038502704
190	0x3da97788	0.08274752
191	0x3e3ca0d4	0.18420726
192	0xbce9147f	-0.028452156
193	0x3cd2903a	0.025703538
194	0xbd491d35	-0.04910012
195	0xbe64279d	-0.22280736
196	0xbc9766ba	-0.018481601
197	0xbe0f96f5	-0.1402243
198	0x3cada745	0.021197924
199	0xbdf89b0e	-0.12138949
200	0xbd870db0	-0.065944076
201	0x3da480b2	0.08032359
202	0xbdc623a3	-0.09674766
203	0xbd1cd46a	-0.03828851
204	0x3d8117b1	0.06303347
205	0xbdd3a877	-0.103348665
206	0xbd53cc7a	-0.051708676
207	0xbe7cb706	-0.24679193
208	0x3d8c5e6f	0.06853949
209	0xbd2fe49d	-0.042942632
210	0x3e58cb6f	0.21171354
211	0x3cb8555d	0.022501642
212	0xbc1ab80c	-0.009443294
213	0x3d1feb1b	0.039042573
214	0x3d99892b	0.07496866
215	0x3e550b4b	0.20805089
216	0x3caa2eed	0.02077433
217	0x3d26c29d	0.04071294
218	0xbe441157	-0.1914724
219	0x3cadddf3	0.021223998
220	0x3d36ccb8	0.04462883
221	0x3e0e3c1d	0.13890119
222	0xbe9e7d0c	-0.30954778
223	0x3d160f7b	0.036635857
224	0xbccee896	-0.02525739
225	0xbe38b0ce	-0.18036196
226	0x3e2a4ab1	0.16630055
227	0xbde3832e	-0.11109005
228	0xbe22bb90	-0.15891862
229	0xbdc62163	-0.09674337
230	0x3d31efd7	0.04344162
231	0x3d58316e	0.052781515
232	0xba8b3b22	-0.0010622481
233	0xbe0a06d1	-0.13479163
234	0x3d75fc63	0.060055148
235	0xbd7ca2b7	-0.061678614
236	0xbd97e72b	-0.07417139
237	0xbe2c4af3	-0.16825466
238	0xbdcbead7	-0.099569015
239	0x3e45aece	0.19304964
240	0x3e10f116	0.14154467
241	0xbd52505d	-0.05134617
242	0xbdaed491	-0.085366376
243	0x3dd1fe91	0.10253633
244	0x3e2b5873	0.1673296
245	0x3e998240	0.29982185
246	0x3df4334f	0.11923849
247	0xbdcae554	-0.09907022
248	0x3e3deed8	0.18548143
249	0xbdd5a40a	-0.104316786
250	0xbc4e462f	-0.012589975
251	0x3d8860e7	0.06659108
252	0xbcf0f351	-0.029412897
253	0xbba15500	-0.004923463
254	0x3dbfcd7f	0.09365367
255	0x3d7efa17	0.062250223

layers.1.0.weight f4 [128, 128]
0	0x3e3bdc0a	0.18345657
1	0xbd6e048f	-0.058109816
2	0xbcfff0f3	-0.031242823
3	0x3de7c7a1	0.11317373
4	0xbdaec2ba	-0.08533235
5	0x3da15bca	0.078788355
6	0xbdca9990	-0.09892571
7	0xbdcceddf	-0.10006308
8	0xbd39125c	-0.045183524
9	0x3c9681ab	0.018372377
10	0xbd4207c7	-0.0473707
11	0xbe12955b	-0.14314787
12	0x3d673119	0.056443308
13	0x3d3978f7	0.045281377
14	0xbd5b1063	-0.053482424
15	0x3e6169ef	0.22013067
16	0x3e921bba	0.2853678
17	0xbc717f38	-0.014739804
18	0xbdf49790	-0.11942971
19	0xbd13a8da	-0.0360497
20	0xbd05291b	-0.032509904
21	0x3ce6ade9	0.028159099
22	0x3dc3a977	0.09553807
23	0x3d104060	0.035217643
24	0x3d2df19a	0.042466737
25	0x3c91b700	0.017787457
26	0xbcbff1f0	-0.023430794
27	0xbe0c11a0	-0.13678598
28	0x3da62714	0.08112922
29	0xbda7c4ed	-0.081918575
30	0x3d924d89	0.07143695
31	0xbe203745	-0.15646084
32	0x3d075e50	0.033048928
33	0x3aba55b2	0.0014216213
34	0xbdde4eb0	-0.10854852
35	0x3e118590	0.14211106
36	0xbd936fa2	-0.07199027
37	0x3d19d311	0.037554804
38	0x3ddc6513	0.10761466
39	0xbcc7c77d	-0.024387116
40	0xbc44dacb	-0.012015055
41	0xbe1bbcff	-0.15208815
42	0xbce7717e	-0.02825236
43	0x3d3c2571	0.045934144
44	0x3c87e071	0.016586514
45	0x3d470ce7	0.04859629
46	0xbdf83fc4	-0.12121537
47	0x3da5f876	0.08104031
48	0x3db14693	0.08656039
49	0x3db3d052	0.08779968
50	0xbdf7e088	-0.12103373
51	0xba485f0d	-0.0007643558
52	0xbd6181c0	-0.05505538
53	0x3da311f2	0.07962407
54	0x3d9babd5	0.07601134
55	0xbcb04d49	-0.021521227
56	0xbdd80b24	-0.10549
57	0x3db99c35	0.09062997
58	0xbe46a6de	-0.19399592
59	0x3d79f0cb	0.061020654
60	0x3e7fbf14	0.24975234
61	0xbd3d1527	-0.04616275
62	0xbd7a3fbf	-0.06109595
63	0x3d8e33da	0.06943484
64	0x3dbccc91	0.092187054
65	0xbc4641e6	-0.012100672
66	0x3dc7449a	0.097298816
67	0xbca92f57	-0.020652456
68	0xbb4e3bf4	-0.003146884
69	0x3dd362c8	0.103215754
70	0x3dae7795	0.08518902
71	0x3d55c705	0.052191753
72	0x3d66f7a2	0.056388505
73	0xbe1970cb	-0.14984433
74	0x3e209e89	0.15685476
75	0x3e066bd4	0.1312707
76	0xbc0eb7a9	-0.00871078
77	0xbe02ba8e	-0.12766477
78	0xbd96031f	-0.07324814
79	0xbcfe154b	-0.031016013
80	0x3cda6ff0	0.026664704
81	0xbc25d898	-0.010122441
82	0xbc4c7516	-0.012479087
83	0x3d62cad8	0.055369228
84	0xbc5d737c	-0.013516303
85	0x3e3332dd	0.17499872
86	0x3cfedd14	0.031111278
87	0x3d4ab120	0.049485326
88	0xbce20da3	-0.027594393
89	0x3cdb8624	0.026797362
90	0x3bd62c5b	0.0065360493
91	0x3db22114	0.086977154
92	0x3cf08c40	0.029363751
93	0xbc592698	-0.01325383
94	0xbd9f70b0	-0.07785165
95	0xbd090cb6	-0.033459388
96	0xbd84c552	-0.06482948
97	0xbd6895b2	-0.056783386
98	0x3db66196	0.08905332
99	0xbc8ca8ad	-0.017170275
100	0xbc207e04	-0.0097956695
101	0xbd006a96	-0.03135165
102	0x3c47a649	0.012185642
103	0x3be0c108	0.0068589486
104	0xbb7187d6	-0.0036854646
105	0x3d6004ec	0.054692194
106	0x3dca74f0	0.09885585
107	0xbc766af2	-0.015040146
108	0x3c12f9a4	0.008970652
109	0xbd4c3f11	-0.049864832
110	0x3c16f50c	0.009213697
111	0xbd296f90	-0.04136616
112	0xbd8bff0b	-0.06835755
113	0x3cf5b28b	0.029992362
114	0xbd4c68eb	-0.049904745
115	0xbe0631b6	-0.131049
116	0x3c9ef0ec	0.01940199
117	0x3cbed79d	0.023296172
118	0xbd1684d9	-0.036747787
119	0xbd1b94f8	-0.037983865
120	0xbd7f4a40	-0.06232667
121	0x3dd9a76c	0.10627636
122	0x3ab7ea42	0.0014031606
123	0xbdd2a47b	-0.102852784
124	0x3d970f5c	0.073759764
125	0x3d7f89be	0.06238722
126	0xbdb80c5d	-0.08986733
127	0xbe124847	-0.14285384
128	0x3d7d15fb	0.06178854
129	0xbdc15859	-0.09440679
130	0xbdab161a	-0.08353825
131	0x3d8332f0	0.064062
132	0x3cc23bc2	0.023710135
133	0xbe635afd	-0.22202678
134	0x3e0f111a	0.13971367
135	0x3e3c2a6a	0.18375555
136	0xbeac14ad	-0.33609524
137	0xbe87b9f3	-0.26509055
138	0xbe255f18	-0.16149557
139	0xbe614deb	-0.2200238
140	0x3e50951e	0.20369384
141	0x3e8f4e82	0.27989584
142	0x3e512e64	0.20427853
143	0x3d8f9251	0.070103295
144	0x3e3fd86f	0.18734907
145	0x3eac0ea7	0.3360493
146	0x3dea9321	0.11453844
147	0x3ea42008	0.32055688
148	0x3e2e1910	0.17001748
149	0xbe83fa7a	-0.25777036
150	0xbe2afa4e	-0.16697046
151	0x3d92b1fb	0.07162853
152	0x3dc0d63c	0.09415862
153	0x3d51eded	0.051252294
154	0x3ec0a300	0.3762436
155	0xbe28580e	-0.1643984
156	0xbe352c32	-0.1769264
157	0x3dd26f64	0.10275152
158	0x3dd9c668	0.10633546
159	0x3d3e241e	0.046421163
160	0xbee05a32	-0.43818814
161	0xbd7d8609	-0.061895404
162	0x3ebaeebf	0.36510274
163	0x3e9e1561	0.30875686
164	0x3dc6b7c4	0.09703019
165	0xbdbc8246	-0.09204535
166	0xbda2263d	-0.079174496
167	0x3e18042b	0.1484534
168	0x3d9a916d	0.07547269
169	0x3d4ef6a3	0.05052818
170	0x3e61b47c	0.22041506
171	0xbe61bf78	-0.22045696
172	0x3cdbef7a	0.02684759
173	0xbe3f8cdb	-0.18706076
174	0x3e96631a	0.29372483
175	0xbe7f73ef	-0.24946569
176	0xba6bfde0	-0.0009002369
177	0xbe80bfd6	-0.2514636
178	0xbc1b24dc	-0.009469237
179	0xbe20abcb	-0.15690534
180	0xbe5caed0	-0.2155106
181	0x3e981e47	0.297106
182	0x3d85da03	0.06535723
183	0xbe87ca22	-0.26521403
184	0xbdccab97	-0.09993666
185	0xbd89d92b	-0.06730875
186	0xbe165c67	-0.14683686
187	0x3e7c4a2d	0.24637671
188	0xbeb15938	-0.3463838
189	0x3e87e1d8	0.26539493
190	0xbe57cd3e	-0.21074387
191	0xbe0e2ad8	-0.13883531
192	0xbd424739	-0.047431204
193	0xbd64c4b3	-0.05585165
194	0x3e4c699c	0.19962162
195	0x3dbae70a	0.091260985
196	0x3e292c8d	0.16520901
197	0xbe88250a	-0.2659076
198	0x3dbd48ef	0.092424266
199	0xbe283c12	-0.16429165
200	0x3ebae479	0.36502436
201	0xbbade300	-0.0053066015
202	0x3e9cee53	0.30650577
203	0xbe2b5282	-0.16730693
204	0xbe34a46e	-0.1764085
205	0x3e10cce0	0.14140654
206	0x3ea9d9c5	0.33173957
207	0xbe0c63e8	-0.13709986
208	0x3e75bf6d	0.23998804
209	0x3e50eb1d	0.20402189
210	0x3c37c5ec	0.011216622
211	0xbc770d8a	-0.015078912
212	0x3d3ed060	0.04658544
213	0xbd7fd394	-0.062457636
214	0x3d044c48	0.03229931
215	0x3c834c57	0.016027613
216	0x3ed1e10e	0.40992016
217	0xbe0e109c	-0.13873523
218	0x3be30717	0.0069283354
219	0xbe51e67c	-0.20498079
220	0xbb502b51	-0.00317641
221	0x3dd617b4	0.1045374
222	0xbe96857a	-0.2939871
223	0xbe04e775	-0.12978919
224	0xbe985b00	-0.29756927
225	0x3ebac162	0.36475664
226	0xbe151ab2	-0.14560965
227	0x3ede876b	0.4346269
228	0xbe8e616d	-0.27808705
229	0x3e963c14	0.2934271
230	0xbc5a31c9	-0.013317534
231	0x3d7b93dd	0.06142031
232	0xbdfd0138	-0.12353748
233	0xbed1488a	-0.40875655
234	0x3e203c57	0.15648018
235	0xbd6a04d6	-0.05713352
236	0x3eb642d9	0.35597876
237	0xbcc60854	-0.024173893
238	0xbdafce0c	-0.08584222
239	0xbe7c9694	-0.24666816
240	0x3deba043	0.11505177
241	0x3e408cc2	0.18803695
242	0xbd864e71	-0.0655793
243	0x3e2e7cc9	0.1703979
244	0xbe039348	-0.12849152
245	0xbda569bc	-0.08076808
246	0x3e46f57d	0.19429584
247	0xbd0a1e12	-0.033720084
248	0x3e43ac34	0.19108659
249	0xbe963185	-0.29334655
250	0x3e34db2a	0.1766173
251	0x3df0c2cf	0.11755907
252	0x3e3d5c68	0.18492281
253	0xbcfe052c	-0.031008326
254	0x3ec6adb6	0.38804406
255	0xbe9ffe50	-0.31248713

layers.2.0.weight f4 [10, 128]
0	0xbca02030	-0.019546598
1	0x3b2630d5	0.0025358696
2	0xbc25ba64	-0.01011524
3	0xba9e8184	-0.0012093042
4	0x3c041bdc	0.008063283
5	0x3d65fa78	0.05614707
6	0xbe498054	-0.1967786
7	0x3bb8e2fa	0.005642292
8	0xbc011a94	-0.007879872
9	0xbc01ee63	-0.007930371
10	0x3bf9ac45	0.007619413
11	0xbc105d07	-0.008811242
12	0x3b57940f	0.0032894646
13	0x3cab799f	0.020932017
14	0xbaf000b6	-0.0018310759
15	0x3e783d65	0.2424217
16	0x3caa5ab0	0.020795196
17	0xbb95cf33	-0.004571819
18	0xbb091440	-0.002091661
19	0xba2e2f07	-0.0006644581
20	0xbdd94aa8	-0.10609943
21	0x3e22282c	0.15835637
22	0xbca0aecf	-0.019614605
23	0xbb607e1a	-0.003425485
24	0x3b309b4a	0.0026948028
25	0xba8e23f3	-0.0010844454
26	0xbdeb6540	-0.11493921
27	0x3d1ab744	0.037772432
28	0x3c652c02	0.013987543
29	0xbc2a1997	-0.010382078
30	0x3bbb9062	0.005723999
31	0x3be6c520	0.007042542
32	0xbc9130f7	-0.017723544
33	0xbbfd9676	-0.0077388836
34	0xbb63fc19	-0.0034787713
35	0x3d376c6a	0.044781126
36	0x3e8df9e2	0.27729708
37	0xba29bf98	-0.0006475388
38	0xbc09c4f9	-0.008408778
39	0x3c115992	0.008871453
40	0x3c2e253d	0.0106289955
41	0x3b3e818c	0.0029068915
42	0x3b93cb38	0.0045103095
43	0x39f55628	0.00046794233
44	0xbad64d7a	-0.0016349994
45	0x3bdfe008	0.0068321265
46	0x3b18be7c	0.0023306897
47	0x3c2b60c4	0.010460082
48	0xbc30893d	-0.010774908
49	0x3cebd906	0.028790008
50	0x3dc18749	0.09449632
51	0xbc186978	-0.009302489
52	0x3c05648f	0.008141651
53	0x3d9efa55	0.07762591
54	0x3c170874	0.009218324
55	0xb985b96a	-0.0002550588
56	0xba74a10c	-0.0009331859
57	0x3d8dc22c	0.06921801
58	0x3ce81ccd	0.028334046
59	0x3bc21359	0.0059227166
60	0x3bf665b2	0.0075194472
61	0xbb8a9175	-0.0042287656
62	0xbe25a018	-0.16174352
63	0x3b83e491	0.00402505
64	0x3be925f6	0.007115121
65	0x3b756ef5	0.0037450169
66	0x3d187aee	0.03722661
67	0x3c39b4db	0.011334623
68	0xbc8c1b69	-0.017102914
69	0xbc0ed6a7	-0.008718169
70	0x3b1ee6e5	0.002424651
71	0x3b7be79e	0.0038437615
72	0x3e94f3e6	0.2909233
73	0xbc9be0e5	-0.019028137
74	0x3ce24ee9	0.027625518
75	0x3c2c710c	0.010524999
76	0x3a17b2c0	0.00057868287
77	0x3d2cc2c8	0.042177945
78	0x3d029041	0.031875852
79	0xbbc87224	-0.0061171222
80	0x3c0df91e	0.008665351
81	0x3b245d47	0.0025080012
82	0xbc286cfb	-0.010279889
83	0x3ba2a96b	0.004964044
84	0x3cc6075f	0.024173437
85	0xbc6067c6	-0.0136966165
86	0xbe5e8c61	-0.21733238
87	0xbcb6814a	-0.022278447
88	0x3c1fe088	0.009758122
89	0xbc62685c	-0.0138188265
90	0xbc6b99e8	-0.014379956
91	0x3b980f0d	0.004640466
92	0x3e1e81c1	0.15479185
93	0x3cc2ed0b	0.023794672
94	0xbc3421cb	-0.010994385
95	0x3c8b477f	0.017001865
96	0xbc56615c	-0.013084736
97	0x3c34a159	0.011024796
98	0xbbb76864	-0.005597161
99	0x3c27bd00	0.010237932
100	0xbc49584e	-0.01228912
101	0x3c65d290	0.014027253
102	0xbc193660	-0.009351343
103	0x3bbca7dc	0.005757315
104	0x3c174d4e	0.0092347395
105	0x3c345097	0.011005542
106	0xbb6fc690	-0.0036586858
107	0x3c172d35	0.009227087
108	0x3be4a234	0.006977344
109	0x3c47592a	0.012167254
110	0xbba50960	-0.005036518
111	0xbb57cea6	-0.0032929569
112	0xbbe1a918	-0.0068866126
113	0x3c2c319f	0.0105098775
114	0x3a48cacd	0.0007659614
115	0xbb2d8a72	-0.0026480225
116	0x3c259f47	0.010108775
117	0x3ed50329	0.41603974
118	0xbba30cf6	-0.0049759103
119	0xbbc8ec64	-0.0061316956
120	0xbc4cfa92	-0.0125109125
121	0xbc22b326	-0.009930408
122	0xbda6b198	-0.08139342
123	0x3ae4b2ca	0.0017448303
124	0xbb926ab6	-0.0044682873
125	0xbac75ff2	-0.0015211089
126	0xbb5e24d6	-0.0033896468
127	0xbb1f885b	-0.0024342749
128	0x3d26aae3	0.040690314
129	0x3b8bfac6	0.004271838
130	0x3b8b9991	0.00426025
131	0xbbb1bc16	-0.005424033
132	0x3c180e0c	0.009280693
133	0x3ca8eadf	0.020619808
134	0xbc24d4bb	-0.0100604845
135	0x3aa4894e	0.0012553127
136	0x3b4b885e	0.0031056623
137	0xbb5f30d5	-0.0034056206
138	0xbc9ac467	-0.01889248
139	0xbcd78750	-0.02630964
140	0xbf02b100	-0.5105133
141	0x3b229ef1	0.0024813975
142	0x3e4d3798	0.20040739
143	0xbb4685dc	-0.0030292189
144	0x3c375cd6	0.011191567
145	0x3c979aa3	0.018506354
146	0x3bc5d27d	0.006037055
147	0x3c3391b0	0.010960028
148	0x3bd60f75	0.0065326043
149	0xbbf63fc8	-0.0075149275
150	0xbc8d4b49	-0.017247813
151	0xbc48865b	-0.012239064
152	0x3c56b958	0.013105713
153	0x3e594609	0.21218123
154	0xbb8da876	-0.0043230606
155	0xbda9ada3	-0.08285072
156	0xbcfcda99	-0.030865954
157	0x3af34e6c	0.00185628
158	0x3c5ce07b	0.013481255
159	0x390aa839	0.00013223373
160	0xbd88f9c0	-0.06688261
161	0x3b060bf7	0.002045391
162	0xbd0124fd	-0.031529415
163	0xbbed58ce	-0.0072432524
164	0xbc59bc8d	-0.013289583
165	0x3bb8f0ea	0.0056439536
166	0x3c9fbc46	0.019498955
167	0x3d6f8f42	0.05848623
168	0x3bf425fb	0.0074508167
169	0x3b951cae	0.004550538
170	0x3cd6e79f	0.026233492
171	0xbd27615a	-0.040864326
172	0xbbfa40f6	-0.0076371385
173	0x3b77dd86	0.0037821247
174	0xbbf346a4	-0.0074241925
175	0x3e355af5	0.17710479
176	0x3c345d3e	0.011008559
177	0x3c72794a	0.014799425
178	0xbc14db78	-0.009085529
179	0x3bb15987	0.005412284
180	0x3c7580a8	0.014984287
181	0x3c3778d3	0.01119824
182	0xbbe5aa9d	-0.007008864
183	0xbb829813	-0.003985414
184	0xbc6c1a9b	-0.01441064
185	0x3c335873	0.010946381
186	0x3c87292d	0.016499126
187	0xbc402f35	-0.011730005
188	0xb98c13db	-0.00026717674
189	0x3b097dff	0.002097964
190	0xbb2246a8	-0.0024761353
191	0x3d944f48	0.07241684
192	0x3c083a56	0.00831469
193	0x3c167cdc	0.009185042
194	0xbcae0957	-0.021244688
195	0x3d1dfe00	0.03857231
196	0xbba486d6	-0.0050209565
197	0xbccd4c28	-0.025060728
198	0x3bd0a3dd	0.0063671903
199	0xbc619e6c	-0.013770681
200	0xbbc69a56	-0.0060608787
201	0xbc977c83	-0.018491989
202	0x3d36b1ba	0.044603087
203	0xbc340021	-0.010986359
204	0x3ca9b915	0.020718137
205	0xbd314886	-0.043282054
206	0x3d2120b0	0.039337814
207	0x3c95f1f1	0.018303843
208	0x3cd022f3	0.02540729
209	0x3b1d5271	0.0024005438
210	0x3c60955b	0.013707484
211	0xbc0b7ce7	-0.008513666
212	0x3c47629d	0.012169507
213	0xbc1a32d6	-0.009411534
214	0xbac42ea6	-0.0014967516
215	0x3e17d824	0.14828545
216	0xbbf56923	-0.00748934
217	0x3ba5448c	0.005043572
218	0xbc467cc2	-0.0121147055
219	0x3b974d78	0.0046173893
220	0xbbb6ecdd	-0.0055824355
221	0xbcd93860	-0.02651614
222	0x3c539cef	0.012915834
223	0x3c302841	0.010751785
224	0x3d1c47b8	0.038154334
225	0x3df2fa86	0.1186419
226	0xbbdf9daa	-0.006824215
227	0xbe25ef66	-0.16204605
228	0x3cd54eb5	0.026038507
229	0x3cf5eb85	0.030019531
230	0xba889caa	-0.0010422666
231	0xbd919bd6	-0.071098015
232	0x3b66c393	0.0035211786
233	0x3ac03bd0	0.0014666263
234	0xbc874dc4	-0.016516574
235	0xbb96fcff	-0.004607796
236	0x3b9cb2dd	0.0047820644
237	0xbca48e86	-0.020087492
238	0xbbfcc0b0	-0.0077134
239	0x3c392bb4	0.011301924
240	0x3ed89fe1	0.42309478
241	0x3ca8589c	0.020550065
242	0xbb37e90b	-0.0028062488
243	0xbb45b8ba	-0.003016992
244	0x3b37b28d	0.0028030009
245	0xb955ea77	-0.00020400608
246	0x3d585a91	0.052820746
247	0x3c650a27	0.013979471
248	0x3c56b329	0.013104239
249	0x3c6a3bef	0.014296516
250	0x3c31113f	0.010807334
251	0x3b9b51bb	0.0047399676
252	0xbbc7d4d1	-0.0060983677
253	0x3a034f14	0.0005009037
254	0x3db840c9	0.08996732
255	0x3bdbe0ae	0.0067101335
