cnn/ANN/seed0/network.pth (torch, 739663 bytes, 4 tensors)

layers_conv.0.0.weight f4 [32, 1, 5, 5]
-0.059845768 -0.19337253 0.10097458 0.07970719 0.02401177 -0.33531517 -0.06453497 -0.18197018
0.28343725 0.32526433 -0.09571203 -0.16294046 0.036531113 0.09097812 0.19849393 -0.34770852
-0.1315152 0.20169434 0.070419446 0.20165642 -0.07379403 -0.12989925 -0.089688346 0.1299249
-0.013982472 -0.23536947 -0.020211067 0.28091025 0.2091435 0.12785996 -0.15194532 -0.110041484
0.17964949 0.18799552 0.06016802 0.039655868 -0.20718943 -0.32465866 -0.39702302 -0.28067702
0.22515236 -0.12159044 -0.40657616 -0.46794355 -0.090515785 0.19092172 0.34126085 0.36583045
0.37705904 0.17457032 -0.03748227 0.16131133 -0.20704885 -0.029388912 -0.013323215 0.049844984
-0.2518023 -0.08758889 0.15856849 -0.0013033953 -0.15841797 0.007377792 0.14641933 0.09736316
-0.038676374 0.13586938 0.09596842 0.13661566 -0.015155461 0.13518491 -0.10466839 0.012090621
-0.20841773 -0.04460715 -0.11372143 0.2736559 0.2568092 0.28294396 0.1715686 -0.10763632
0.08444691 0.14400181 0.34214073 -0.2431581 -0.2307289 0.31713212 0.1942384 -0.023114653
-0.37681013 -0.5119306 0.06517776 0.05153335 -0.17865331 -0.40841347 -0.31249645 0.11457826
-0.03950491 -0.28685609 -0.46167287 -0.23519927 0.14188255 0.23724504 0.2452176 -0.09949829
-0.253544 0.21035469 0.044108376 0.21497509 -0.14712611 -0.42716393 0.20386453 0.2194985
-0.00264411 -0.36308998 -0.5763784 0.15295823 0.33554202 -0.15590231 -0.49727365 -0.311861
0.113716766 0.18023339 -0.33688334 -0.16945677 -0.18166447 0.01947049 0.22469634 -0.027471088
0.08155714 -0.070328794 0.19602609 0.21234195 -0.11823846 -0.24011727 0.024352463 0.09008586
0.17877162 -0.099445075 -0.018036302 0.2620244 0.00757329 0.011129271 -0.088223435 -0.123381846
-0.19452186 -0.12176777 0.11109719 0.049550056 0.04872107 -0.4255305 0.14880316 -0.008452546
0.2186097 0.2798983 0.001903608 0.35111126 0.19308226 0.018172443 0.2742934 0.17986332
0.1597705 0.097289756 -0.09718582 -0.11540515 -0.0076149995 -0.16265966 -0.121632904 -0.09592207
-0.28956446 0.21767747 -0.40117067 -0.18332456 -0.066755876 -0.057158727 -0.19219741 0.0076152678
0.021366041 0.027089585 0.05015283 -0.5190903 -0.042542785 0.100112244 0.2929954 0.27012765
-0.46733692 -0.21692573 -0.10339969 0.18508694 0.24705653 0.07139166 -0.14690663 -0.2523611
0.080419384 0.19464935 0.065739445 -0.03184509 -0.1486498 -0.056464475 -0.015917828 -0.0017923545
-0.27289677 -0.03441406 0.1458836 0.1505728 0.029869858 -0.37229124 -0.051843207 -0.013077797
0.3073879 0.19740106 -0.29046354 -0.08227587 0.17078406 0.19267887 0.29973727 -0.27535158
-0.0870127 0.06947322 0.1604652 0.2687673 -0.31072214 0.08786965 0.16990623 -0.004875973
-0.038093366 0.094826356 0.16574077 0.14977194 0.2614443 0.34129053 0.12216516 0.27505642
0.33890244 0.2848654 0.2881927 0.03687425 -0.078874476 0.01065681 -0.39330542 -0.17290649
-0.0712849 -0.26776323 -0.3311738 -0.52853084 -0.25932443 -0.08720201 -0.19376212 -0.26083615
-0.008409846 0.07740072 0.19473766 -0.10866348 -0.25228438 -0.29356718 -0.16044173 -0.081475295
00000000: d620 75bd 7303 46be c3cb ce3d 863d a33d
00000010: 55b4 c43c 6eae abbe e92a 84bd 6456 3abe
00000020: b01e 913e 0c89 a63e ab04 c4bd ddd9 26be
00000030: a6a1 153d bd52 ba3d fe41 4b3e da06 b2be
00000040: ecab 06be f688 4e3e 1238 903d 057f 4e3e
00000050: 5321 97bd 4f04 05be 86ae b7bd 080b 053e
00000060: bd16 65bc b204 71be ae91 a5bc 78d3 8f3e
00000070: b729 563e b9ed 023e 8e97 1bbe 6e5d e1bd
00000080: 09f6 373e e681 403e be72 763d 316e 223d
00000090: 7729 54be a939 a6be 9a46 cbbe e6b4 8fbe
000000a0: 578e 663e 6904 f9bd c02a d0be 4c96 efbe
000000b0: 5760 b9bd fc80 433e beb9 ae3e 214e bb3e
000000c0: e20d c13e 90c2 323e 0287 19bd cc2e 253e
000000d0: 9d04 54be 04c1 f0bc 9d49 5abc 412a 4c3d
000000e0: 3bec 80be ce61 b3bd c75f 223e b0d6 aaba
000000f0: 5238 22be 68c1 f13b f3ee 153e 5666 c73d
00000100: 1e6b 1ebd 5821 0b3e 178b c43d fae4 0b3e
00000110: 9c4e 78bc ea6d 0a3e 615c d6bd bd17 463c
00000120: 756b 55be fdb5 36bd c8e6 e8bd a01c 8c3e
00000130: 7f7c 833e 08de 903e aeaf 2f3e 6e70 dcbd
00000140: 80f2 ac3d 3675 133e 122d af3e 70fe 78be
00000150: 3244 6cbe 245f a23e 6ee6 463e f15a bdbc
00000160: 42ed c0be e20d 03bf eb7b 853d a214 533d
00000170: e5f0 36be 921b d1be 89ff 9fbe 02a8 ea3d
00000180: e7cf 21bd cdde 92be 6360 ecbe 14d8 70be
00000190: a949 113e 5df0 723e 531a 7b3e c2c5 cbbd
000001a0: 85d0 81be 3867 573e fcaa 343d 6e22 5c3e
000001b0: 3aa8 16be 3bb5 dabe ddc1 503e 37c4 603e
000001c0: ce48 2dbb eee6 b9be 898d 13bf 15a1 1c3e
000001d0: 2acc ab3e dba4 1fbe a79a febe 3fac 9fbe
000001e0: 56e4 e83d 1a8f 383e f97b acbe 1386 2dbe
000001f0: 4006 3abe 9480 9f3c cc16 663e 0c0b e1bc
00000200: 6e07 a73d 8b08 90bd 10bb 483e 2b70 593e
00000210: 0127 f2bd 4de1 75be d17e c73c ef7e b83d
00000220: e80f 373e dca9 cbbd dec0 93bc 1028 863e
00000230: 5c29 f83b 8c57 363c 7dae b4bd 9faf fcbd
00000240: bd30 47be 6161 f9bd ec86 e33d 00f5 4a3d
00000250: bf8f 473d 22df d9be db5f 183e 8c7c 0abc
00000260: 39db 5f3e d44e 8f3e 7c82 f93a dbc4 b33e
00000270: 5bb7 453e 60de 943c 2f70 8c3e 172e 383e
00000280: e19a 233e da3f c73d 5c09 c7bd 8959 ecbd
00000290: 3f87 f9bb 4190 26be ac1a f9bd ca72 c4bd
000002a0: cb41 94be d8e6 5e3e 3e66 cdbe 6fb9 3bbe
000002b0: 4eb7 88bd 451f 6abd 66cf 44be 7f89 f93b
000002c0: d607 af3c faea dd3c 0e6d 4d3d 1ae3 04bf
000002d0: 5841 2ebd a607 cd3d 7e03 963e 2c4e 8a3e
000002e0: c946 efbe c721 5ebe 37c3 d3bd 6e87 3d3e
000002f0: 63fc 7c3e ca35 923d b16e 16be 7935 81be
00000300: ebb2 a43d 2952 473e 67a2 863d ff6f 02bd
00000310: a737 18be 4b47 67bd 1b66 82bc 70ed eaba
00000320: 20b9 8bbe c2f5 0cbd 8362 153e c22f 1a3e
00000330: a2b1 f43c f59c bebe 8b59 54bd 4244 56bc
00000340: f261 9d3e 8123 4a3e a3b7 94be 4080 a8bd
00000350: 04e2 2e3e 9c4d 453e 2a77 993e e2fa 8cbe
00000360: b733 b2bd fa47 8e3d fd50 243e de9b 893e
00000370: f916 9fbe 01f5 b33d e6fb 2d3e a0c6 9fbb
00000380: ca07 1cbd 5234 c23d f3b7 293e d15d 193e
00000390: 07dc 853e a2bd ae3e ba31 fa3d 32d4 8c3e
000003a0: 9f84 ad3e e1d9 913e fe8d 933e 7409 173d
000003b0: f188 a1bd e799 2e3c 545f c9be 660e 31be
000003c0: d1fd 91bd 4318 89be 9d8f a9be cc4d 07bf
000003d0: 2cc6 84be f896 b2bd 9469 46be 518c 85be
000003e0: 73c9 09bc 4584 9e3d 4f69 473e f58a debd
000003f0: 6b2b 81be 704e 96be d64a 24be 85dc a6bd

layers_conv.1.0.weight f4 [64, 32, 5, 5]
0.0077429255 0.14977759 0.043594472 -0.040330227 -0.060953382 0.110269226 0.13260396 -0.079091676
-0.1505233 0.091520034 0.17295043 -0.08567127 -0.0043807146 0.14064999 0.08453991 0.09483934
0.16636689 -0.07417354 -0.11137652 -0.014108772 0.15301704 0.007964298 -0.059415635 -0.09318046
-0.09779627 0.31592506 0.40952927 0.07515965 0.14934435 0.010633914 0.24282998 0.20813936
0.26013973 -0.02910926 -0.3192695 0.025513949 0.14004913 -0.040152587 -0.379809 -0.43715963
0.23089114 -0.11428457 -0.07373561 -0.2651889 -0.015818877 0.23936625 0.00020698798 -0.27984253
-0.09315923 0.12303731 -0.04823114 0.13656288 -0.09381919 0.08251443 0.035043404 0.20886141
0.061833255 -0.090946354 0.27098173 -0.117671855 -0.069892436 -0.0689601 0.031454865 0.09833152
0.06963722 -0.027115807 0.062467556 -0.014697531 0.10475843 0.0042316145 -0.15875311 0.17637712
-0.12713979 -0.1626441 -0.09816905 -0.17538248 -0.10447708 -0.10786849 0.10905152 0.1648553
-0.35893136 -0.066136554 -0.16548635 0.13351236 -0.101284795 -0.5537105 -0.29098302 0.10143581
-0.011645441 0.026657196 -0.37106675 -0.33239648 -0.26126054 0.01372997 0.08518477 -0.2777854
-0.20413914 -0.085139446 -0.06700595 -0.009210519 -0.063424304 -0.13556479 -0.3207118 0.07343605
-0.13382952 -0.14805372 -0.06968279 0.095612116 0.06940909 9.091558e-05 -0.20201254 -0.16083822
-0.15379559 0.10244304 0.3199067 -0.44301462 -0.22615354 -0.26230285 0.15500897 -0.062031005
-0.2642572 0.032065507 -0.09881295 0.109278336 -0.12236034 -0.016836511 -0.11506945 0.010144269
0.01038611 0.073861554 -0.13536522 -0.043732233 -0.14262512 0.0005021741 -0.0038843139 0.072286814
-0.023556698 0.04370883 0.13837214 0.24807616 -0.045061853 -0.11284672 0.056273255 -0.0564656
0.12486924 0.111996196 0.050696313 -0.12801406 0.03018994 -0.088325076 -0.021644088 0.12431354
0.18247119 -0.052583605 -0.34335864 0.05602937 0.06301128 -0.034667946 -0.15268394 -0.10396045
-0.07936016 0.10863173 -0.026030362 -0.060610063 -0.04223598 -0.007469806 0.2281268 0.065868944
-0.19565213 -0.031598613 0.06889538 0.07151139 0.16224128 0.14848875 0.24731329 0.10633213
-0.0026331518 -0.21723343 -0.03794771 0.1820519 0.13391101 -0.16197501 -0.24447271 0.08259431
0.06883348 0.19407912 0.04024557 -0.082368866 0.24039648 -0.08344151 0.2811005 0.09256488
-0.051341765 -0.23034433 -0.008657218 0.09164015 -0.11769606 -0.030976007 -0.1166994 0.023792906
-0.0049418123 -0.11246701 0.117850624 0.1031378 -0.092535146 -0.055124413 -0.08025638 0.020801185
-0.053015355 0.04805934 0.2295631 -0.0004640087 -0.13858323 0.08695425 0.052602638 0.2897919
-0.0035503926 -0.23922966 -0.14264634 0.19794229 -0.008231912 0.05586876 -0.13278295 0.09636571
-0.070538454 -0.080871195 -0.14734274 -0.14122848 -0.25931248 -0.2636398 -0.11927899 -0.076087326
-0.22973827 -0.16612421 -0.30473667 -0.23701942 -0.39711764 -0.3160009 -0.16711354 -0.33654484
-0.08054595 0.10223959 0.022888053 -0.039707668 -0.033638693 0.21777022 0.17772155 -0.047007795
-0.009999108 -0.066114195 0.2137472 -0.08765109 0.10675126 0.015034781 0.048920773 0.19317316
00000000: 5eb8 fd3b 4c5f 193e 1e90 323d 4f31 25bd
00000010: 41aa 79bd d5d4 e13d 55c9 073e d1fa a1bd
00000020: c822 1abe db6e bb3d eb19 313e 6b74 afbd
00000030: 198c 8fbb 8d06 103e 4323 ad3d 213b c23d
00000040: 155c 2a3e 4ce8 97bd 5f19 e4bd 7b28 67bc
00000050: 80b0 1c3e b07c 023c cf5d 73bd 66d5 bebd
00000060: 6949 c8bd eec0 a13e d2ad d13e 4ded 993d
00000070: baed 183e de39 2e3c 6ca8 783e 7c22 553e
00000080: 0931 853e 8b76 eebc 4b77 a3be a102 d13c
00000090: 0a69 0f3e 0a77 24bd 5376 c2be 63d3 dfbe
000000a0: ba6e 6c3e 070e eabd b202 97bd d7c6 87be
000000b0: 9796 81bc 6d1c 753e ea0a 5939 8547 8fbe
000000c0: 44ca bebd fcfa fb3d 048e 45bd 24d7 0b3e
000000d0: 4724 c0bd 53fd a83d ac89 0f3d c4df 553e
000000e0: de44 7d3d 1542 babd 1ebe 8a3e f1fd f0bd
000000f0: c423 8fbd f43a 8dbd d1d6 003d 0962 c93d
00000100: f59d 8e3d f821 debc fbdd 7f3d eacd 70bc
00000110: 968b d63d 5ba9 8a3b 2d90 22be 349c 343e
00000120: ef30 02be 2d8c 26be db0c c9bd 7797 33be
00000130: 14f8 d5bd 28ea dcbd 6756 df3d d4cf 283e
00000140: dac5 b7be 9a72 87bd 4175 29be 77b7 083e
00000150: 676e cfbd f9bf 0dbf bafb 94be 94bd cf3d
00000160: 85cc 3ebc 3160 da3c 76fc bdbe df2f aabe
00000170: f1c3 85be abf3 603c 5a75 ae3d e339 8ebe
00000180: da09 51be 975d aebd 6a3a 89bd b7e7 16bc
00000190: 9ae4 81bd 7fd1 0abe 5634 a4be a465 963d
000001a0: 9b0a 09be 659b 17be dab5 8ebd 49d0 c33d
000001b0: 5a26 8e3d eea9 be38 60dc 4ebe c6b2 24be
000001c0: 977c 1dbe a8cd d13d d0ca a33e d0d2 e2be
000001d0: cb94 67be 8f4c 86be acba 1e3e 3914 7ebd
000001e0: b84c 87be 1f57 033d 725e cabd 52cd df3d
000001f0: 0f98 fabd b9ec 89bc 88a9 ebbd 2634 263c
00000200: 812a 2a3c ba44 973d 2e9d 0abe 9220 33bd
00000210: 520c 12be 55a4 033a f98f 7ebb 1c0b 943d
00000220: faf9 c0bc 0808 333d 6db1 0d3e ad07 7e3e
00000230: c792 38bd 2e1c e7bd c97e 663d 7948 67bd
00000240: 72bb ff3d 435e e53d f0a6 4f3d 1e16 03be
00000250: e550 f73c c7e3 b4bd f14e b1bc 1998 fe3d
00000260: bad9 3a3e e861 57bd b4cc afbe 0d7f 653d
00000270: 0f0c 813d faff 0dbd 2e59 1cbe 37e9 d4bd
00000280: 9487 a2bd 507a de3d a03d d5bc 4242 78bd
00000290: a3ff 2cbd 46c5 f4bb 129a 693e 4ce6 863d
000002a0: 0859 48be 8c6d 01bd 0519 8d3d 9074 923d
000002b0: 9422 263e 6f0d 183e b23f 7d3e a9c4 d93d
000002c0: f590 2cbb 7172 5ebe 0f6f 1bbd d06b 3a3e
000002d0: f81f 093e c7dc 25be 0e57 7abe 3527 a93d
000002e0: 91f8 8c3d adbc 463e 8ad8 243d 02b1 a8bd
000002f0: 7f2a 763e 62e3 aabd 68ec 8f3e a892 bd3d
00000300: be4b 52bd 62df 6bbe 01d7 0dbc d5ad bb3d
00000310: a20a f1bd 65c1 fdbc 1800 efbd 57e9 c23c
00000320: edee a1bb 1b55 e6bd ab5b f13d e939 d33d
00000330: 1183 bdbd 23ca 61bd 755d a4bd 3f67 aa3c
00000340: a126 59bd dfd9 443d 9712 6b3e 3246 f3b9
00000350: c3e8 0dbe 1215 b23d dd75 573d 9b5f 943e
00000360: b4ad 68bb 9ff8 74be e211 12be 62b1 4a3e
00000370: 24df 06bc a4d6 643d 41f8 07be 635b c53d
00000380: 7776 90bd cc9f a5bd 04e1 16be 339e 10be
00000390: 9bc4 84be ccfb 86be 8b48 f4bd acd3 9bbd
000003a0: 8240 6bbe 771c 2abe 7206 9cbe 38b5 72be
000003b0: 0153 cbbe dfca a1be d01f 2bbe 9b4f acbe
000003c0: 46f5 a4bd fd62 d13d ba7f bb3c 82a4 22bd
000003d0: bac8 09bd 28ff 5e3e a3fc 353e 3f8b 40bd
000003e0: 4cd3 23bc e166 87bd 8ce0 5a3e 6a82 b3bd
000003f0: 68a0 da3d 7154 763c 2661 483d 2fcf 453e

layers_fc.0.0.weight f4 [128, 1024]
-0.04165992 -0.060876876 -0.09271902 -0.076533735 0.004228841 -0.015467112 0.078978986 0.00015847091
0.10394092 0.05756875 -0.013151634 0.122867994 -0.016937776 -0.018921105 0.04004215 0.07824861
0.025731713 0.0017154502 -0.04356639 -0.08850767 -0.047029894 0.003342738 0.12427095 0.017749809
0.014406417 -0.032298982 0.0075410292 -0.024449661 0.076281615 -0.039520748 -0.04761951 0.12966269
0.12016344 -0.011052416 0.05920555 -0.034664605 -0.012035611 0.029936938 0.05571234 -0.024666585
-0.038238984 0.07333532 -0.15203747 -0.0794539 0.08824847 -0.15517524 -0.35310656 0.08263089
0.10736676 0.13644463 0.18995301 0.074154034 -0.08396636 0.10756447 0.012921584 -0.07503478
-0.053704634 -0.08685876 -0.022294542 -0.006958408 0.034081567 -0.022191517 0.012230095 -0.0748739
0.11469486 0.099754 0.05871505 0.008650354 0.013736885 0.021425253 -0.012064499 -0.03783819
-0.046406224 0.027335204 -0.06527718 -0.14421917 0.057815243 0.00047195522 -0.26964477 -0.34956962
0.038750492 0.12141451 0.027913686 0.022349458 0.06154337 -0.04756194 0.13403279 0.08094934
-0.004452421 -0.07079765 -0.021723527 -0.009471449 0.03471571 -0.07241017 -0.12481364 -0.029153306
-0.08964023 -0.037973866 -0.026487457 -0.029886289 -0.0143599175 0.06453724 0.056957625 -0.047321554
0.12573843 0.0011772655 0.0035089217 0.0850981 0.16936575 -0.001849483 -0.041533753 0.10958358
0.05130497 0.019032342 0.13303071 0.01203002 -0.04967219 0.06824344 0.033989113 -0.04888437
0.124158934 -0.0010340235 0.03410442 0.027316019 0.06540207 0.0064931014 0.056684494 -0.13255727
-0.058099274 0.021663168 0.052582957 0.048825294 0.0666003 -0.007720247 -0.015982725 -0.010699564
0.00020726588 -0.044115763 -0.037973262 -0.045293096 -0.046311393 0.017558428 0.04054617 0.22820649
-0.07543752 -0.124871895 -0.04369324 0.06604482 -0.060095195 -0.09487115 -0.04726522 -0.04194325
-0.039898142 0.057728942 0.078150615 0.0066934503 0.10490107 -0.0037266708 -0.0084587615 0.12069876
-0.09792988 -0.20483287 0.009587612 0.043909986 0.05623453 -0.017031305 -0.00040997996 0.024531495
-0.11637284 0.05248313 0.04228797 0.06733124 -0.09887738 -0.14112183 -0.11267567 0.0032652584
-0.038338732 -0.15280505 -0.05746659 -0.113933414 -0.022406543 0.00791859 -0.011380255 0.0058758687
-0.10390716 0.02150447 0.029556904 0.11736734 -0.26437655 -0.031185908 0.063759305 -0.05156138
-0.111617394 7.189015e-05 0.0026304256 0.085938364 -0.17504443 -0.011586224 0.01346381 0.034702163
-0.054578315 -0.14700158 -0.051146325 0.022924498 -0.16321406 -0.14972275 0.026207821 -0.07342277
-0.009588133 0.11078699 0.055195235 0.046320286 -0.015629917 0.036804523 -0.029969912 0.05138578
0.15064558 -0.092704795 0.07830821 -0.030411214 0.02631449 0.041774344 0.04379392 -0.016870417
-0.048085745 -0.040486813 -0.033388875 -0.08216824 0.02578165 0.061289195 0.07773537 0.08161945
0.04713461 0.035940643 -0.00017683792 -0.003303548 0.026249165 -0.07876388 -0.09761611 0.16465676
-0.0043174797 -0.074410744 -0.092200264 0.03735782 0.038841017 0.001818337 -0.020750176 -0.026761621
0.028718753 0.11360089 -0.04554711 0.060541317 0.043119986 -0.08056074 -0.017169813 0.01087173
00000000: 98a3 2abd 085a 79bd 78e3 bdbd b8bd 9cbd
00000010: 1792 8a3b c569 7dbc bcbf a13d 362b 2639
00000020: fade d43d 36cd 6b3d f379 57bc 37a2 fb3d
00000030: 17c1 8abc 6f00 9bbc 3d03 243d cf40 a03d
00000040: 50cb d23c f5d8 e03a ac72 32bd 8243 b5bd
00000050: 6ba2 40bd d611 5b3b c581 fe3d 0c68 913c
00000060: e408 6c3c f04b 04bd bd1a f73b a84a c8bc
00000070: 8939 9c3d 82e0 21bd ad0c 43bd 4cc6 043e
00000080: 4018 f63d 3115 35bc 8581 723d 79fc 0dbd
00000090: 0331 45bc 4f3e f53c 9f32 643d 9411 cabc
000000a0: 7ba0 1cbd d430 963d b6af 1bbe bab8 a2bd
000000b0: 9dbb b43d 42e6 1ebe 62ca b4be 623a a93d
000000c0: 1be3 db3d 24b8 0b3e 0b83 423e 12de 973d
000000d0: 8ef6 abbd c34a dc3d 0db5 533c d6ab 99bd
000000e0: 64f9 5bbd 01e3 b1bd 0ba3 b6bc 5b03 e4bb
000000f0: 1d99 0b3d fcca b5bc bd60 483c 7d57 99bd
00000100: 24e5 ea3d d34b cc3d 317f 703d 37ba 0d3c
00000110: ac10 613c 0384 af3c 2daa 45bc 38fc 1abd
00000120: 7414 3ebd 14ee df3c 0bb0 85bd 31ae 13be
00000130: adcf 6c3d c270 f739 e10e 8abe cafa b2be
00000140: d6b8 1e3d 2ca8 f83d 3eab e43c 3616 b73c
00000150: e714 7c3d 4fd0 42bd e43f 093e c4c8 a53d
00000160: 9de5 91bb 5cfe 90bd 8af5 b1bc 232e 1bbc
00000170: 0f32 0e3d c94b 94bd 4b9e ffbd ead2 eebc
00000180: 4c95 b7bd 7c8a 1bbd 39fc d8bc 17d4 f4bc
00000190: dc45 6bbc 1a2c 843d 664c 693d 3fd4 41bd
000001a0: 93c1 003e 7a4e 9a3a f0f5 653b ea47 ae3d
000001b0: 376e 2d3e 5a6a f2ba 4c1f 2abd 5b6d e03d
000001c0: 2925 523d b7e9 9b3c 3439 083e 9019 453c
000001d0: 1175 4bbd 37c3 8b3d 2b38 0b3d fa3a 48bd
000001e0: 0a47 fe3d 1288 87ba 14b1 0b3d d8c5 df3c
000001f0: 85f1 853d 15c4 d43b 002e 683d 18bd 07be
00000200: 81f9 6dbd f576 b13c 3a61 573d 08fd 473d
00000210: bd65 883d 20fa fcbb 34ee 82bc 394d 2fbc
00000220: 8355 5939 bbb2 34bd da89 1bbd 4185 39bd
00000230: 04b1 3dbd b1d6 8f3c be13 263d f6ae 693e
00000240: fd7e 9abd d6bc ffbd aff7 32bd 8242 873d
00000250: 6126 76bd ce4b c2bd 2d99 41bd afcc 2bbd
00000260: 3c6c 23bd 2f75 6c3d 6e0d a03d bb54 db3b
00000270: 5fd6 d63d 293b 74bb 9e96 0abc e930 f73d
00000280: 768f c8bd b5bf 51be 5c15 1d3c f5da 333d
00000290: 2e56 663d 3c85 8bbc 94f2 d6b9 46f6 c83c
000002a0: e254 eebd 8df8 563d 2736 2d3d f6e4 893d
000002b0: 3980 cabd 3e82 10be 80c2 e6bd f2fd 553b
000002c0: 1309 1dbd ed78 1cbe 1662 6bbd ec55 e9bd
000002d0: ed8d b7bc f9bc 013c 4074 3abc 5c8a c03b
000002e0: 47cd d4bd 242a b03c 5221 f23c 4a5e f03d
000002f0: 5d5c 87be 9779 ffbc 3d94 823d 0732 53bd
00000300: a997 e4bd bbc3 9638 3863 2c3b 7400 b03d
00000310: d93e 33be 25d4 3dbc 5097 5c3c db23 0e3d
00000320: 838d 5fbd 9587 16be cf7e 51bd 28cc bb3c
00000330: 9621 27be ec50 19be c9b1 d63c ad5e 96bd
00000340: 8b17 1dbc 4ae4 e23d 6614 623d 57ba 3d3d
00000350: 500a 80bc 57c0 163d 7683 f5bc e579 523d
00000360: d642 1a3e 03dc bdbd 0e60 a03d f020 f9bc
00000370: 7c91 d73c 931b 2b3d 4161 333d d433 8abc
00000380: 8ff5 44bd 80d5 25bd c6c2 08bd d247 a8bd
00000390: 0a34 d33c 610a 7b3d b933 9f3d 1928 a73d
000003a0: 3910 413d 7f36 133d 916d 39b9 5780 58bb
000003b0: 7d08 d73c f54e a1bd f5ea c7bd c89b 283e
000003c0: a579 8dbb a964 98bd 7ed3 bcbd 8304 193d
000003d0: c217 1f3d 4455 ee3a 46fc a9bc 303b dbbc
000003e0: 9743 eb3c 95a7 e83d 9b8f 3abd 2cfa 773d
000003f0: 959e 303d 07fd a4bd b5a7 8cbc 571f 323c

layers_fc.1.0.weight f4 [10, 128]
-0.09450361 0.038235657 -0.041672632 0.20330319 0.026597567 0.18197763 0.062173292 -0.09551753
-0.11609218 -0.011102722 -0.038256984 0.07311725 0.03593593 0.023166293 0.08821526 -0.20046547
0.028355949 0.020601196 -0.24704961 0.040059015 0.05406985 0.06338464 -0.011442575 -0.014294472
0.0077489917 -0.10608157 -0.060245585 -0.16713576 -0.19594848 0.007731049 0.08114351 0.023099773
0.00080534327 0.0521184 -0.14321518 0.01036974 0.08828832 -0.17731583 0.08222008 -0.014512537
0.058763556 -0.18760185 0.019713005 -0.036252994 0.039295997 -0.17942856 0.033855807 0.012905075
0.089098334 -0.16753857 -0.14369565 -0.2847827 0.03565223 -0.0025970656 -0.16997235 -0.06944779
-0.08899244 0.15522693 -0.068968214 0.061868526 0.07653241 -0.16686796 0.051178187 0.051903192
-0.027928337 -0.121732995 0.068181954 -0.10264506 -0.08697136 -0.108925425 -0.026402503 0.05682357
-0.072216004 0.06572711 -0.01563558 -0.10444522 0.03840498 -0.0693169 0.048905 0.036965396
-0.01822114 -0.2622311 0.02874179 -0.09541545 -0.055410173 -0.016456043 0.023434194 -0.008179158
-0.06260277 0.014912668 0.074598685 -0.003829656 -0.01145925 -0.0658217 0.016639538 -0.11490619
0.003967157 0.056677606 -0.026670163 0.016385905 0.05814165 0.022598581 -0.10052724 -0.39047384
-0.081745036 0.06884631 0.06167461 -0.12122418 0.09000506 -0.21029845 -0.0908385 0.051514167
-0.02702904 -0.063620865 -0.2491143 -0.17363346 -0.11515215 -0.035645947 0.09380825 0.03839312
-0.1814022 0.045716856 0.0818559 0.058943465 -0.05467204 -0.19787869 -0.02900576 -0.032641158
-0.113447435 -0.20285103 0.06301061 0.04592576 0.120370835 0.23582369 0.046100754 0.010131518
-0.16521265 -0.02081347 -0.017335901 0.04256941 0.08575655 -0.19940808 -0.13745776 -0.048532456
0.045659687 -0.04430894 0.012874059 -0.069855146 0.048210647 -0.2485857 -0.21407922 0.07977408
-0.0034353076 -0.13800658 -0.09288272 0.045841098 -0.08411463 -0.036152016 -0.039996296 -0.21116132
0.016032457 -0.047928713 0.043289293 -0.27270946 0.12593062 -0.0022845254 -0.1630421 0.005987797
0.09667448 -0.035810232 0.10935845 0.071750365 -0.0696406 0.011589186 -0.12214549 0.014874656
0.064427145 -0.030556003 -0.054873496 0.027179647 -0.15144789 -0.01802963 0.049570177 -0.17559892
-0.029896064 -0.02444376 0.020762933 0.024470557 -0.10987187 0.108327135 0.013837619 -0.2006318
0.005357792 0.023643177 -0.12832773 -0.08349609 0.016557062 0.06794281 -0.0078622885 -0.039846696
0.048432734 -0.034274958 -0.0068164663 0.030949576 0.05284933 0.05530046 -0.1852081 -0.116733015
-0.036663707 0.08195956 -0.16174838 0.07896747 -0.08290971 -0.06409535 0.07247344 -0.0480566
-0.009569763 -0.22948918 -0.021586422 -0.012167291 -0.0017780577 0.035021465 0.07177168 -0.014752356
0.007815924 -0.048575222 0.048020042 -0.0058291103 0.004613639 0.087970674 0.046441708 -0.08366963
0.028344803 -0.008264207 -0.014241947 0.021717286 0.08527702 0.024882069 0.18034354 0.011526111
0.003988262 0.04994908 0.04508145 -0.0014515751 0.009255994 0.015078455 -0.246435 0.040345363
0.06988653 -0.2313324 0.042395324 0.070458196 0.093334295 -0.046876255 -0.22407642 0.2676502
00000000: 1c8b c1bd fe9c 1c3d ecb0 2abd b62e 503e
00000010: 24e3 d93c 5858 3a3e 6ca9 7e3d b29e c3bd
00000020: bdc1 edbd 31e8 35bc 5bb3 1cbd 7fbe 953d
00000030: 8e31 133d 3dc7 bd3c 34aa b43d d246 4dbe
00000040: bc4a e83c d7c3 a83c 93fa 7cbe ec14 243d
00000050: 5978 5d3d cecf 813d a379 3bbc 5c33 6abc
00000060: 41eb fd3b 4b41 d9bd 13c4 76bd a325 2bbe
00000070: b8a6 48be bd54 fd3b 922e a63d bc3b bd3c
00000080: ac1d 533a 1a7a 553d 00a7 12be d8e5 293c
00000090: 82d0 b43d 4892 35be 0063 a83d fec5 6dbc
000000a0: 0eb2 703d b31a 40be 2b7d a13c 057e 14bd
000000b0: d7f4 203d 1fbc 37be 63ac 0a3d cf6f 533c
000000c0: 3079 b63d 3b8f 2bbe f424 13be 0acf 91be
000000d0: 1308 123d 8833 2abb 3b0d 2ebe a53a 8ebd
000000e0: ab41 b6bd cff3 1e3e 353f 8dbd da69 7d3d
000000f0: 06bd 9c3d 6fdf 2abe 38a0 513d 7198 543d
00000100: f8c9 e4bc 264f f9bd fba2 8b3d 9337 d2bd
00000110: 0a1e b2bd 4b14 dfbd 104a d8bc d5bf 683d
00000120: fce5 93bd ef9b 863d 3016 80bc 60e7 d5bd
00000130: 8a4e 1d3d 05f6 8dbd 9c50 483d 0769 173d
00000140: 8044 95bc 2843 86be e773 eb3c 2d69 c3bd
00000150: c7f5 62bd d3ce 86bc 11f9 bf3c e001 06bc
00000160: e235 80bd 4354 743c 32c7 983d f7fa 7abb
00000170: 94bf 3bbc 87cd 86bd a44f 883c f053 ebbd
00000180: edfe 813b c726 683d 637b dabc bc3b 863c
00000190: f025 6e3d a920 b93c 3ae1 cdbd 30ec c7be
000001a0: f169 a7bd 4bff 8c3d 849e 7c3d 6244 f8bd
000001b0: 9354 b83d 7a58 57be 8909 babd 8500 533d
000001c0: 016c ddbc a84b 82bd d217 7fbe f8cc 31be
000001d0: e4d4 ebbd 7c01 12bd 8a1e c03d 1b42 1d3d
000001e0: 80c1 39be 9941 3b3d 11a4 a73d b46e 713d
000001f0: caef 5fbd b6a0 4abe 7d9d edbc bcb2 05bd
00000200: 2157 e8bd 2eb8 4fbe b50b 813d a61c 3c3d
00000210: fc84 f63d c47b 713e 25d4 3c3d abfe 253c
00000220: 812d 29be 0381 aabc 0504 8ebc 435d 2e3d
00000230: 21a1 af3d a231 4cbe bac1 0cbe f8c9 46bd
00000240: a705 3b3d 4b7d 35bd b8ed 523c 3710 8fbd
00000250: 8778 453d 408d 7ebe 9537 5bbe 9860 a33d
00000260: e622 61bb 9951 0dbe 4c39 bebd e0c3 3b3d
00000270: 4b44 acbd 2314 14bd 28d3 23bd ac3a 58be
00000280: 8056 833c e650 44bd 1d50 313d 93a0 8bbe
00000290: f5f3 003e fab7 15bb 82f4 26be 4835 c43b
000002a0: 45fd c53d c0ad 12bd 53f7 df3d dbf1 923d
000002b0: bb9f 8ebd 92e0 3d3c 6a27 fabd d4b4 733c
000002c0: 61f2 833d 9550 fabc 08c3 60bd daa7 de3c
000002d0: 2815 1bbe e0b2 93bc 190a 4b3d 34d0 33be
000002e0: 97e8 f4bc 483e c8bc 0717 aa3c 7a76 c83c
000002f0: 8104 e1bd 9eda dd3d 2eb7 623c 6c72 4dbe
00000300: 6b90 af3b 56af c13c 5868 03be ffff aabd
00000310: ada2 873c 9a25 8b3d d4d0 00bc 4a36 23bd
00000320: 6761 463d e663 0cbd aa5c dfbb f789 fd3c
00000330: 8a78 583d bc82 623d 31a7 3dbe b811 efbd
00000340: af2c 16bd 6ada a73d 5ea1 25be b2b9 a13d
00000350: 91cc a9bd 6c44 83bd f46c 943d ffd6 44bd
00000360: 7fca 1cbc 36ff 6abe 02d6 b0bc 5159 47bc
00000370: b70d e9ba ab72 0f3d 08fd 923d deb3 71bc
00000380: 5c0e 003c d0f6 46bd aab0 443d 1f02 bfbb
00000390: 022e 973b f829 b43d a939 3e3d fc5a abbd
000003a0: 5c33 e83c 9966 07bc 0e57 69bc 73e8 b13c
000003b0: b8a5 ae3d 7bd5 cb3c faab 383e 03d8 3c3c
000003c0: f7af 823b 6897 4c3d 54a7 383d c742 beba
000003d0: 74a6 173c a00b 773c 7559 7cbe 2e41 253d
000003e0: ab20 8f3d 67e2 6cbe b8a6 2d3d 634c 903d
000003f0: 0d26 bf3d 5101 40bd 4a74 65be 7209 893e
