mlp/ONN/seed1/network.pth (torch, 473735 bytes, 3 tensors)

layers.0.0.weight f4 [128, 784]
-0.09358826 -0.026407007 -0.1609396 -0.22777545 0.03434173 0.025306705 -0.08618327 -0.068374485
-0.023387633 0.10264814 -0.24900186 0.1972168 0.05471201 -0.19964175 0.044018447 0.0672969
0.013733782 0.1122419 -0.0019379102 0.09078252 0.00059903954 -0.0215324 -0.1710876 -0.06061099
-0.07041524 0.035549674 -0.20452188 0.017117389 -0.035779845 -0.11271429 -0.057496257 -0.13962999
0.11423567 0.05507035 -0.26886865 -0.15812305 -0.15188882 -0.15334198 0.031976327 0.2709025
-0.06546373 -0.10158283 0.21816507 0.20671968 0.40965948 0.15591772 0.051731054 -0.26695263
-0.21438429 -0.16160807 -0.2338881 -0.20436917 -0.07332926 0.03961819 -0.00543207 -0.09349797
0.111111425 -0.14140712 0.05068775 -0.35703307 -0.042515516 0.070536286 -0.083403334 0.18174505
0.15707959 0.035439733 -0.13131532 -0.1242483 0.004161074 0.11013927 -0.07163905 -0.28464794
-0.123828754 -0.10915624 -0.3334261 -0.19840378 0.03665513 0.11454462 0.07616395 -0.17206131
-0.0689947 -0.17165403 0.027382854 0.057474714 -0.0964561 -0.021585472 0.22061189 -0.27966863
-0.060305107 -0.021213008 -0.06387927 -0.032739636 0.010141616 0.36156675 0.32359895 0.21213482
0.33883962 0.23400049 0.13457498 0.08637879 -0.10941129 -0.038833797 -0.23543483 0.13208112
0.05407853 -0.08627041 -0.14607985 -0.16760458 -0.18207641 -0.08302036 -0.15913293 -0.05584049
0.043643374 -0.08073474 0.4345636 -0.16175698 -0.029529102 -0.19028237 -0.031005554 -0.033576027
-0.082589984 0.2060099 0.12628219 0.116505735 0.18288417 0.183184 0.32445875 0.12848645
-0.050744172 -0.0010658714 -0.078198545 -0.15321568 -0.01710552 -0.0859205 -0.05893499 -0.21675816
0.24121103 0.29906753 0.12114953 -0.007401818 0.023259921 0.17900327 -0.049535036 0.20233898
-0.0022667907 -0.022945995 -0.13008153 -0.04345984 0.19695508 -0.1112501 -0.1541662 0.05464418
-0.033221196 0.053276528 0.17175211 0.08525935 0.03133125 0.0153899975 -0.043330956 0.11418534
0.0069813062 0.035307426 -0.014156677 0.13012068 0.07886935 0.33577478 -0.11984045 0.11697022
0.038701896 -0.029051868 0.12917674 -0.10695988 -0.030070856 0.0015404591 -0.06692115 -0.15797059
0.031476118 -0.10835927 0.07236202 -0.1661235 -0.16948166 -0.24843884 0.0028719748 0.26681516
0.10668961 -0.17561395 -0.034378402 0.048085958 -0.06544271 -0.063420124 0.014308321 0.07859804
0.07076814 0.02639416 -0.09734236 -0.12859602 -0.018597703 0.079423 0.17267439 -0.13336033
0.0025146569 0.15328485 0.042591713 0.07788954 -0.15020134 -0.16790712 0.13657914 -0.1738585
0.02727748 -0.13915981 0.26871702 0.15422352 0.19159791 -0.0442212 -0.318936 -0.07701925
-0.11860047 -0.14710078 0.004151572 0.14217092 0.24249132 0.2509422 0.30926234 -0.08728515
-0.19696762 0.0024589556 0.17530547 -0.04119218 0.10558736 0.025135562 0.23735571 0.090445526
-0.16258745 -0.1354058 0.072970845 -0.03765926 -0.21061389 0.01126537 0.09620806 0.40681365
0.1547777 -0.1841843 -0.2097932 0.0048599895 0.04090527 -0.19668105 -0.0043310504 0.084759966
0.093639486 0.12967193 0.09027265 -0.21179242 0.015901325 -0.01591358 -0.08261604 0.049744695
00000000: 34ab bfbd 8253 d8bc 5acd 24be f83d 69be
00000010: eaa9 0c3d 0250 cf3c db80 b0bd ec07 8cbd
00000020: 6c97 bfbc 3039 d23d 58fa 7ebe 33f3 493e
00000030: b319 603d e36e 4cbe b04c 343d f5d2 893d
00000040: a803 613c 15df e53d 7a01 feba 30ec b93d
00000050: dd08 1d3a b764 b0bc 9631 2fbe 3b43 78bd
00000060: de35 90bd 899c 113d 2f6e 51be c439 8c3c
00000070: e38d 12bd c0d6 e6bd 3281 6bbd 2afb 0ebe
00000080: 64f4 e93d 7391 613d 27a9 89be 02eb 21be
00000090: be88 1bbe ae05 1dbe 9cf9 023d bcb3 8a3e
000000a0: d911 86bd a90a d0bd aa66 5f3e 53ae 533e
000000b0: e3be d13e e5a8 1f3e f1e3 533d 04ae 88be
000000c0: 8e87 5bbe 967c 25be 5d80 6fbe 2746 51be
000000d0: a72d 96bd af46 223d 81ff b1bb dd7b bfbd
000000e0: 638e e33d 07cd 10be f59d 4f3d 0acd b6be
000000f0: c024 2ebd 5475 903d 5ecf aabd 601b 3a3e
00000100: 79d9 203e 4129 113d 8677 06be e575 febd
00000110: 9e59 883b b390 e13d 7fb7 92bd 60bd 91be
00000120: ee99 fdbd 4f8d dfbd d3b6 aabe 5c2a 4bbe
00000130: b123 163d 5f96 ea3d d8fb 9b3d d730 30be
00000140: 184d 8dbd 13c6 2fbe 0252 e03c 9b6a 6b3d
00000150: c78a c5bd 04d4 b0bc 15e8 613e ba30 8fbe
00000160: 7d02 77bd e7c6 adbc 22d3 82bd ff19 06bd
00000170: 0529 263c 471f b93e c3ae a53e df39 593e
00000180: 637c ad3e d39d 6f3e 06ce 093e 5de7 b03d
00000190: 0713 e0bd 3010 1fbd d415 71be 4640 073e
000001a0: 7381 5d3d 8aae b0bd f595 15be 89a0 2bbe
000001b0: 3d72 3abe 9406 aabd bef3 22be ffb8 64bd
000001c0: 65c3 323d 4158 a5bd 1f7f de3e 9fa3 25be
000001d0: 04e7 f1bc 62d9 42be 5cff fdbc 0487 09bd
000001e0: f024 a9bd 42f4 523e 1e50 013e 8f9a ee3d
000001f0: fd45 3b3e 9694 3b3e 751f a63e f491 033e
00000200: 1fd9 4fbd b6b4 8bba 8f26 a0bd 92e4 1cbe
00000210: e020 8cbc 16f7 afbd d165 71bd daf5 5dbe
00000220: 0600 773e 611f 993e 3f1d f83d f38a f2bb
00000230: 978b be3c a24c 373e 40e5 4abd f331 4f3e
00000240: 708e 14bb 3df9 bbbc 1834 05be f202 32bd
00000250: 98ae 493e 18d7 e3bd bfdd 1dbe 93d2 5f3d
00000260: f312 08bd 7d38 5a3d c9df 2f3e 749c ae3d
00000270: 3255 003d 5426 7c3c cd7b 31bd 01da e93d
00000280: 71c3 e43b 859e 103d 68f1 67bc 5b3e 053e
00000290: 4186 a13d acea ab3e e96e f5bd 158e ef3d
000002a0: e185 1e3d 2ffe edbc e846 043e c80d dbbd
000002b0: 2857 f6bc 3be9 c93a f50d 89bd 0bc3 21be
000002c0: 1aed 003d 77eb ddbd 8a32 943d 471c 2abe
000002d0: 9a8c 2dbe c066 7ebe be37 3c3b ff9b 883e
000002e0: 1580 da3d 25d4 33be 5ed0 0cbd c8f5 443d
000002f0: d406 86bd 69e2 81bd 736d 6a3c 02f8 a03d
00000300: e3ee 903d 9138 d83c 6e5b c7bd adae 03be
00000310: 365a 98bc 87a8 a23d 8ed1 303e 9c8f 08be
00000320: f1cc 243b b4f6 1c3e a674 2e3d 8d84 9f3d
00000330: 61ce 19be d8ef 2bbe 67db 0b3e f607 32be
00000340: 0675 df3c e97f 0ebe 4795 893e c5ec 1d3e
00000350: 3e32 443e 4a21 35bd 944b a3be 45bc 9dbd
00000360: cee4 f2bd 96a1 16be e909 883b 4195 113e
00000370: a54f 783e 7f7b 803e a257 9e3e 8fc2 b2bd
00000380: e1b1 49be 6e26 213b 4783 333e 22b9 28bd
00000390: 303e d83d 18e9 cd3c 600d 733e 813b b93d
000003a0: 537d 26be d1a7 0abe bd71 953d 9940 1abd
000003b0: 2bab 57be 6392 383c bb08 c53d e149 d03e
000003c0: 0c7e 1e3e cf9a 3cbe 07d4 56be 8c40 9f3b
000003d0: 498c 273d c266 49be 7ceb 8dbb a296 ad3d
000003e0: 0fc6 bf3d b8c8 043e dee0 b83d 1de0 58be
000003f0: 7f43 823c 325d 82bc 9932 a9bd 18c1 4b3d

layers.1.0.weight f4 [128, 128]
0.14956142 0.03855504 0.07575001 -0.10128267 -0.12914504 -0.064947814 0.08072061 -0.10727473
0.16659537 0.10270229 -0.03523498 0.1682649 -0.12335383 0.05381824 0.07844964 -0.19910057
0.11987113 -0.006362219 -0.027965369 -0.05948434 -0.07855658 0.25395533 -0.032380927 -0.12921748
0.022551347 0.107980706 -0.14919345 -0.11335914 -0.033906497 -0.05285252 0.017314782 -0.074341066
0.03389795 0.029343568 0.047332544 0.0054513095 0.15519835 0.08065642 0.010924259 0.09674517
-0.098431855 0.022080423 -0.023540076 -0.11586426 0.004166583 -0.057784412 -0.104768574 -0.01717222
0.09722088 0.117648676 0.022044515 -0.019956695 0.010376186 0.063918985 0.10394132 0.009672563
0.087390706 0.088486336 0.08231786 -0.019241618 0.050597534 -0.04564135 0.2020057 0.018110046
0.0008563121 0.15961553 -0.06391052 -0.08291009 0.07193506 0.06839957 -0.014639731 0.06354486
0.07275334 0.017251708 0.023508012 0.117498465 -0.09749198 0.005779944 0.073590495 0.01010127
-0.0041687023 0.109747484 -0.04361606 -0.113287315 -0.10031615 -0.1726907 -0.02716007 -0.09054585
0.051369634 -0.1470747 -0.010180296 0.057551928 -0.015198776 0.004755871 -0.12080671 0.050661054
-0.10354109 -0.1287513 0.027785568 0.037520528 0.049386438 -0.07939407 0.027982116 -0.0017173215
0.07375672 0.19825119 0.09247238 0.06357746 -0.028729158 0.032916263 -0.10826623 -0.031842805
0.023133578 -0.017865162 0.06523981 -0.082304545 0.038031936 -0.06774476 0.07038998 0.026032446
-0.078927614 0.0085649295 0.1423866 0.07482299 0.14200333 -0.08611234 0.056421597 0.23738045
-0.17495011 -0.046421245 -0.024217103 0.054790363 0.10788684 0.03622125 -0.17931738 0.2398955
-0.15842909 0.0029695132 -0.18155439 0.030790523 0.008650952 0.16496937 -0.045182418 -0.05031823
0.021987982 -0.07506173 -0.05418347 0.024461564 0.18871798 0.23450863 -0.043536454 -0.013994107
0.1473278 0.15202722 0.0020490985 0.035281472 -0.061813254 -0.00069639867 -0.0019333342 0.14705287
0.011731638 0.038817167 0.06653739 -0.1416809 -0.2027206 0.041354436 -0.0014317817 -0.06064026
0.14632909 0.21601407 0.035180323 -0.12481646 0.1772661 -0.0525051 -0.11212592 0.046856485
-0.15418714 -0.07740704 0.09471205 0.07874667 -0.12476941 -0.034223747 0.14070743 -0.044269692
-0.12210896 -0.21581128 -0.08052942 -0.14872824 -0.10032841 0.10749646 -0.23494826 0.010935009
-0.06490043 0.14337474 0.07557315 -0.008448542 -0.14065063 0.06118583 -0.19403353 0.010949694
0.059679948 0.17798857 0.17230508 -0.10360507 0.037555754 -0.06858517 0.03921415 0.12500654
-0.09666807 -0.09140063 0.19452332 0.04227461 0.041168436 -0.018688817 0.0780891 0.01235349
-0.011861179 0.029742759 0.1018596 -0.116122454 0.005936988 0.07521659 0.05449326 -0.12937997
0.15676461 -0.025422538 -0.10334897 -0.1383223 -0.09743311 -0.038967207 -0.027671997 0.20309573
-0.0010095004 -0.17195499 0.1666506 -0.026225144 -0.0299616 -0.04768454 0.014412021 0.00357811
-0.0047291256 0.11801844 -0.20048523 -0.04843836 0.09685232 0.18105504 0.11459546 0.10690738
0.04233736 0.038269565 0.008264844 0.16921462 -0.050066303 -0.010027279 -0.025597116 0.038725413
00000000: a126 193e e4eb 1d3d d222 9b3d 4a6d cfbd
00000010: 993e 04be 5c03 85bd d950 a53d dbb2 dbbd
00000020: fa97 2a3e 9455 d23d 8e52 10bd a24d 2c3e
00000030: efa0 fcbd 8470 5c3d 34aa a03d 05e1 4bbe
00000040: ff7e f53d 297a d0bb a117 e5bc daa5 73bd
00000050: 46e2 a0bd 6f06 823e dda1 04bd 9651 04be
00000060: 9abd b83c fd24 dd3d 2bc6 18be d628 e8bd
00000070: 8ae1 0abd e27b 58bd bbd7 8d3c 2140 98bd
00000080: 94d8 0a3d ec61 f03c c5df 413d e6a0 b23b
00000090: 51ec 1e3e 312f a53d aafb 323c 5522 c63d
000000a0: a496 c9bd 01e2 b43c 1ed7 c0bc 3e4a edbd
000000b0: d587 883b 59af 6cbd e890 d6bd c1ac 8cbc
000000c0: be1b c73d caf1 f03d b396 b43c 397c a3bc
000000d0: e100 2a3c f5e7 823d 30df d43d ab79 1e3c
000000e0: e6f9 b23d 5338 b53d 4496 a83d 99a0 9dbc
000000f0: 5c3f 4f3d 6df2 3abd 95da 4e3e 855b 943c
00000100: 227a 603a 4172 233e 85e3 82bd c4cc a9bd
00000110: b052 933d 1315 8c3d 7bdb 6fbc cf23 823d
00000120: b4ff 943d 7453 8d3c e093 c03c 09a3 f03d
00000130: e0a9 c7bd af65 bd3b 9db6 963d cc7f 253c
00000140: 9c99 88bb 4ac3 e03d c1a6 32bd 2e03 e8bd
00000150: 8e72 cdbd d5d5 30be cc7e debc 1a70 b9bd
00000160: f768 523d c09a 16be 42cb 26bc 92bb 6b3d
00000170: 4904 79bc 23d7 9b3b 8269 f7bd f781 4f3d
00000180: 5a0d d4bd 61d7 03be 8f9e e33c 20af 193d
00000190: 6f49 4a3d 5c99 a2bd c03a e53c bf17 e1ba
000001a0: c30d 973d 5c02 4b3e 2962 bd3d e634 823d
000001b0: 6959 ebbc 34d3 063d afba ddbd 9a6d 02bd
000001c0: a182 bd3c f659 92bc 739c 853d 498f a8bd
000001d0: 60c7 1b3d c4bd 8abd 9f28 903d ff41 d53c
000001e0: cda4 a1bd eb53 0c3c cbcd 113e cc3c 993d
000001f0: 5269 113e ab5b b0bd 551a 673d dc13 733e
00000200: 1f26 33be 3424 3ebd f262 c6bc dc6b 603d
00000210: c7f3 dc3d bc5c 143d fa9e 37be 2aa7 753e
00000220: 3c3b 22be 2a9c 423b 65e9 39be 683c fc3c
00000230: b9bc 0d3c bbed 283e 3311 39bd 7d1a 4ebd
00000240: 2420 b43c f7b9 99bd 7cef 5dbd 9e63 c83c
00000250: 493f 413e 0823 703e 4853 32bd 8a47 65bc
00000260: 19dd 163e 06ad 1b3e 2b4a 063b 4e83 103d
00000270: e52f 7dbd 868e 36ba ee67 fdba 0795 163e
00000280: 0e36 403c c0fe 1e3d c144 883d cc14 11be
00000290: fd95 4fbe 4563 293d 9faa bbba ec61 78bd
000002a0: 4bd7 153e cb32 5d3e 3e19 103d c69f ffbd
000002b0: 3f85 353e 960f 57bd 46a2 e5bd 96ec 3f3d
000002c0: 3ce3 1dbe 9587 9ebd 64f8 c13d ef45 a13d
000002d0: 1b87 ffbd 332e 0cbd 9c15 103e 2354 35bd
000002e0: 4314 fabd a2fd 5cbe 9cec a4bd 374c 18be
000002f0: fb78 cdbd 1b27 dc3d 4796 70be c128 333c
00000300: 84ea 84bd d4d0 123e 18c6 9a3d c16b 0abc
00000310: b806 10be fe9d 7a3d bab0 46be 5866 333c
00000320: f672 743d a342 363e be70 303e e52e d4bd
00000330: 10d4 193d 6276 8cbd 049f 203d b701 003e
00000340: e9f9 c5bd 4130 bbbd 1f31 473e 2428 2d3d
00000350: 3ca0 283d 4a19 99bc 2eed 9f3d 4b66 4a3c
00000360: 6455 42bc 16a7 f33c c49b d03d 9cd1 edbd
00000370: 118b c23b 280b 9a3d 5334 5f3d 2f7c 04be
00000380: e786 203e ed42 d0bc a0a8 d3bd 5ca4 0dbe
00000390: 038b c7bd 149c 1fbd 62b0 e2bc 54f8 4f3e
000003a0: 3651 84ba f814 30be 74a6 2a3e 1dd6 d6bc
000003b0: 0872 f5bc dd50 43bd 6620 6c3c b97e 6a3b
000003c0: c8f6 9abb a7b3 f13d 004c 4dbe 4d67 46bd
000003d0: 825a c63d 7e66 393e 06b1 ea3d 42f2 da3d
000003e0: f169 2d3d 8cc0 1c3d 4569 073c 9946 2d3e
000003f0: 5312 4dbd 7549 24bc 0bb1 d1bc 8a9e 1e3d

layers.2.0.weight f4 [10, 128]
0.023018317 0.0013725965 -0.013823571 -0.032232217 -0.020010091 -0.0019837648 0.013495718 0.0031108889
-0.053318594 -0.015880145 -0.08701417 0.0036795542 -0.0010554567 0.0026562326 0.004744235 -0.0005834193
0.006270756 -0.0002002641 0.0045426814 0.036627278 -0.0029483628 -0.026934981 -0.00017414958 0.014130686
-0.019458639 -0.011614745 0.37363565 0.020676652 0.016110452 -0.020241829 0.010133974 0.034112692
0.00086755387 0.03339084 -0.011742443 0.0047596036 0.0050311214 0.0012429424 0.010864273 0.0060947244
-0.022974145 -0.0019063923 -0.0037289716 0.021841848 -0.027346795 -0.014644896 -0.046104975 0.005860241
-0.008196083 -0.025899755 0.0059985886 0.0086884005 0.018121174 -0.012460782 0.022242403 0.022908231
0.0067378827 -0.34161633 -0.007535897 -0.014435513 0.039495517 0.05000607 0.012920004 -0.0015483716
-0.0023974658 -0.006330153 0.011721823 0.025632707 0.12885343 -0.00079205143 0.0006427103 -0.1076886
0.01235582 0.007306687 0.034975603 0.015004826 -0.0107643455 -0.031439334 -0.021444308 -0.000742428
-0.011052212 0.0058076945 -0.0010135871 -0.11710913 0.025295714 -0.013580221 0.15109718 0.0071651256
-0.008387634 0.019326283 -0.0055177812 -0.0022354436 0.001482656 -0.0092289485 -0.008332431 -0.0013453942
-0.015043184 -0.103475384 -0.007762949 -0.055863705 0.18456744 -0.009904201 -0.0020194314 0.024112538
-0.005453677 0.009779391 -0.005641281 -0.0038075347 0.041734867 0.01725168 -0.436541 -0.041639727
-0.1611518 -0.0038792547 0.023750732 -0.01059757 0.010529483 -0.002400912 -0.00073949934 -0.01993518
-0.2217762 -0.007626507 -0.0012383936 -0.007785436 -0.00669707 -0.0027909032 0.024527324 0.0068921708
0.019336306 0.0015262341 0.0067934142 -0.006650622 0.003038833 0.0031881512 -0.011422881 -0.001687127
-0.018650617 -0.00796548 0.15242651 -0.004438922 -0.007100909 0.0049742153 -0.00811011 0.16042365
0.0024294928 0.004757852 -0.003774166 -0.0006176171 0.38633895 -0.023650141 -0.02152959 -0.004058881
-0.012336377 0.0066437386 -0.0065924204 0.0038481837 0.012248885 0.005744338 0.0035446866 -0.045236867
0.003705833 0.022094814 0.005125015 0.0037009155 0.014408074 -0.024203416 0.00187711 -0.013337646
0.01704661 -0.16058618 -0.012124637 5.3850985e-05 0.011072226 -0.008718268 0.0044008493 0.009320303
-0.00622705 -0.23410632 -0.013047522 0.014417938 9.3363014e-05 -0.005035506 0.0013450831 0.017646896
0.008416383 0.0077801337 0.07767192 0.0011647728 -0.003402449 0.0011368471 -0.19737412 0.020348255
0.030337702 0.011463617 0.0022707104 -0.0033739938 -0.0012164353 -0.0017187053 0.008697052 0.008999102
0.22218035 0.0033045334 -0.0013306407 -0.002062502 0.0063588507 -0.0033226751 0.015673451 0.009729585
-0.020937484 0.01754266 0.0011599504 -0.0016765958 0.01214179 0.009859336 0.008837002 -0.0040367665
-0.05882093 0.004675436 5.9583912e-05 -0.10707821 -0.036091533 0.012693195 -0.0076907994 -0.12105917
0.006148594 0.00030738994 0.0044731214 0.011299538 -0.00056958635 -0.0170991 0.0035772128 -0.004192419
0.009358084 -0.009097876 0.01069449 0.42931166 0.0026531043 -0.0030736625 -0.0005132149 -0.0075381114
-0.005040193 0.0014884276 -0.0050899033 -0.029850313 -0.009799222 0.00040848285 -0.0032471328 0.13928635
2.1748037e-05 -0.008216516 0.0031063175 -0.003570434 0.0025050761 -0.01587622 0.12000119 -0.011717791
00000000: e990 bc3c b2e8 b33a 427c 62bc ee05 04bd
00000010: 34ec a3bc 0d02 02bb 251d 5d3c 0ee0 4b3b
00000020: 9964 5abd 1417 82bc 7c34 b2bd ad24 713b
00000030: 4057 8aba 3014 2e3b 8775 9b3b 9bf0 18ba
00000040: ea7a cd3b fcfd 51b9 c6da 943b 7c06 163d
00000050: 5239 41bb c0a6 dcbc ec9b 36b9 6584 673c
00000060: b967 9fbc c54b 3ebc 2c4d bf3e 1562 a93c
00000070: 11fa 833c 31d2 a5bc f808 263c c0b9 0b3d
00000080: 8e6c 633a d5c4 083d 6063 40bc 73f6 9b3b
00000090: 1bdc a43b 3aea a23a 1000 323c 41b6 c73b
000000a0: 4634 bcbc e9df f9ba c361 74bb aded b23c
000000b0: 6306 e0bc 25f1 6fbc 92d8 3cbd 4407 c03b
000000c0: dd48 06bc b92b d4bc cf8f c43b cb59 0e3c
000000d0: db72 943c 4f28 4cbc b335 b63c 0baa bb3c
000000e0: 75c9 dc3b 56e8 aebe b0ef f6bb ee82 6cbc
000000f0: 0dc6 213d 2ad3 4c3d 6dae 533c bbf2 caba
00000100: cd1e 1dbb 2c6d cfbb e40c 403c affb d13c
00000110: 27f2 033e aca1 4fba 8f7b 283a d78b dcbd
00000120: 1170 4a3c ef6c ef3b 9442 0f3d cdd6 753c
00000130: f05c 30bc 88c6 00bd f9ab afbc 809f 42ba
00000140: 5614 35bc 794e be3b 57da 84ba e9d6 efbd
00000150: f538 cf3c 937f 5ebc 38b9 1a3e 6ec9 ea3b
00000160: 496c 09bc 2752 9e3c 81ce b4bb 8580 12bb
00000170: ae55 c23a 0435 17bc c084 08bc f057 b0ba
00000180: b077 76bc e7ea d3bd 5660 febb 57d1 64bd
00000190: 3fff 3c3e 3b45 22bc 7058 04bb a887 c53c
000001a0: c2b4 b2bb bd39 203c 7fda b8bb d587 79bb
000001b0: 2ef2 2a3d 6553 8d3c 4d82 dfbe 6b8e 2abd
000001c0: fa04 25be 183b 7ebb e590 c23c 6ea1 2dbc
000001d0: da83 2c3c 9f58 1dbb f6da 41ba 1a4f a3bc
000001e0: 4d19 63be c7e7 f9bb 9851 a2ba f91c ffbb
000001f0: 1873 dbbb 96e7 36bb 87ed c83c b8d7 e13b
00000200: 2c67 9e3c eb0b c83a 4a9b de3b 76ed d9bb
00000210: 2827 473b 4df0 503b 0927 3bbc 9722 ddba
00000220: 2ec9 98bc a581 02bc b215 1c3e 6074 91bb
00000230: beae e8bb befe a23b 44e0 04bc 1946 243e
00000240: 2038 1f3b c1e7 9b3b 0058 77bb 95e7 21ba
00000250: 38ce c53e f1bd c1bc d35e b0bc 5d00 85bb
00000260: 841e 4abc b8b3 d93b 3b05 d8bb cf31 7c3b
00000270: 8caf 483c 003b bc3b f94d 683b 4b4a 39bd
00000280: 90dd 723b 2f00 b53c beef a73b 0f8b 723b
00000290: d80f 6c3c 3e46 c6bc 5c09 f63a 2486 5abc
000002a0: 55a5 8b3c b470 24be 6aa6 46bc 0ede 6138
000002b0: 4868 353c 11d7 0ebc 0035 903b 2fb4 183c
000002c0: 480c ccbb 91b9 6fbe 46c5 55bc 3739 6c3c
000002d0: e3cb c338 e300 a5bb 804d b03a 3990 903c
000002e0: dee4 093c 7ef0 fe3b 7512 9f3d 4aab 983a
000002f0: 9ffb 5ebb 4202 953a 711c 4abe 62b1 a63c
00000300: c686 f83c e5d1 3b3c 33d0 143b 391e 5dbb
00000310: cc70 9fba 2e46 e1ba 147e 0e3c f870 133c
00000320: 3f83 633e df90 583b e568 aeba 0b2b 07bb
00000330: e85d d03b 3dc1 59bb 9c65 803c d668 1f3c
00000340: 1685 abbc a0b5 8f3c 7a09 983a 38c1 dbba
00000350: 5cee 463c 0d89 213c 13c9 103c da46 84bb
00000360: 37ee 70bd 6634 993b bde9 7938 d24b dbbd
00000370: b7d4 13bd 1ef7 4f3c 1a03 fcbb dfed f7bd
00000380: 257a c93b 2e29 a139 4393 923b b321 393c
00000390: 4b50 15ba 6913 8cbc ac6f 6a3b 8f60 89bb
000003a0: a652 193c 420f 15bc f137 2f3c bdce db3e
000003b0: b4df 2d3b 806f 49bb 4589 06ba 4302 f7bb
000003c0: 3428 a5bb 5817 c33a 34c9 a6bb a588 f4bc
000003d0: eb8c 20bc a429 d639 d9cd 54bb 15a1 0e3e
000003e0: 8e6f b637 919e 06bc 5c93 4b3b f1fd 69bb
000003f0: 342c 243b d90e 82bc 2fc3 f53d fafb 3fbc
