mlp/ANN/seed1/network.pth (torch, 473735 bytes, 3 tensors)

layers.0.0.weight f4 [128, 784]
000000 5b d5 be 3d 4f 23 2d bd 55 bc 8e 3d 84 1b ba bc
       0.09318038 -0.04227 0.06969515 -0.022718199
000010 8e 00 a1 bd c4 75 08 3d 25 bf 58 3c 79 f8 8b bd
       -0.07861434 0.033315435 0.013229166 -0.06834502
000020 3d 84 89 bd d8 2a 5b 3d c7 73 35 3b a7 a0 65 bd
       -0.067146756 0.053507656 0.0027687417 -0.056061413
000030 ac 49 64 3e 88 a6 cf 3c c6 a3 ca bd cc 27 e4 3c
       0.22293729 0.025347963 -0.098945186 0.027851008
000040 cb 7a 90 3d 90 d4 74 3e bf 0f 3f bd 0b 3b 6a be
       0.07054671 0.23909211 -0.046645876 -0.22874086
000050 5d 53 d7 3c 7b b8 5d 3d 60 38 32 3c 9f 7a 2c 3d
       0.026284868 0.054131012 0.010877699 0.042109128
000060 7b c8 13 3e f5 84 59 3e e5 90 42 bd 88 76 ec 3d
       0.14431946 0.21242125 -0.047501463 0.115460455
000070 b7 0a c0 3d 69 c3 bf 3d 63 d9 f2 bc 18 d8 f3 3c
       0.09377044 0.093634434 -0.029644674 0.029766127
000080 8e 54 38 be 8d ba d2 3c da fd 78 3e e9 3c 7f 3d
       -0.18001005 0.02572372 0.24315587 0.062313948
000090 06 49 49 bd c7 51 6f 3e f5 d3 21 3d c7 5b 23 3e
       -0.049141906 0.2337104 0.03950878 0.15952979
0000a0 c8 a3 1a 3e bb 8b c6 3b 10 18 67 be 2f 6c 8d 3e
       0.1510154 0.0060591376 -0.22567773 0.276216
0000b0 e3 f0 03 bd 55 25 ef 3c c0 b0 c8 3d 1e 28 ea 3d
       -0.03221215 0.029192606 0.097993374 0.11433433
0000c0 e2 a7 7b 3e 3a f0 8d 3e df 5d 1e 3e c5 33 b9 3d
       0.24575761 0.2772234 0.15465496 0.090430774
0000d0 b2 3e af 3c c0 70 ae 3d 3b ff 3a 3d b3 02 cc 3d
       0.0213922 0.08517599 0.045653563 0.09961452
0000e0 c3 81 bd bc 90 ce 5f 3d 24 ba 39 3d f5 3a 2d 3e
       -0.023133164 0.054640353 0.045343533 0.16917022
0000f0 e8 e7 ab 3e 10 c0 7a 3e f6 22 65 bc e0 77 5d 3d
       0.33575368 0.24487329 -0.013985386 0.0540694
000100 7d dc 43 bd c0 9c 29 3e 21 d7 40 be 7e d4 9a 3e
       -0.047817696 0.16563702 -0.18832065 0.30240244
000110 e2 aa 97 bd e5 aa 69 be 10 32 35 be c0 26 01 be
       -0.0740564 -0.22819097 -0.17694879 -0.12612438
000120 0e 6f 3c 3d 49 fa 08 3d 19 64 97 3e 20 4b cf 3d
       0.046004348 0.033441816 0.29568556 0.10121751
000130 6d ef 25 3e 2b e8 1a 3e d5 ea 6b 3e 75 bc 3d 3e
       0.16204615 0.15127628 0.230388 0.18528922
000140 b2 fc f2 3d d0 31 84 be 6b 9f c0 3d c0 4d ae 3d
       0.11864604 -0.25819254 0.094054066 0.085109234
000150 ce 0a bc bc 27 9e e4 bd 57 0a 45 be 21 28 2c 3e
       -0.02295437 -0.11162978 -0.19242226 0.16812183
000160 8b 5a 9e 3d 5d 90 69 3d da 12 2f bd 49 d6 5b be
       0.077321135 0.05702244 -0.042742588 -0.21468462
000170 78 8a 8a bd bf 87 b5 3a 67 7d 2b 3e 92 9e 0f 3e
       -0.06764692 0.001384966 0.16747056 0.14025334
000180 ea 91 f4 bd 44 96 07 3e f9 e3 b4 3d 99 e6 90 3d
       -0.119418934 0.13240916 0.08832545 0.07075233
000190 7e 66 bd 3d e4 96 30 bd a8 b4 aa 3d 35 9f c6 3d
       0.092480645 -0.04311265 0.08335239 0.09698335
0001a0 7d 39 94 3d f8 ab c6 3d 7b 67 74 3c a1 ef 9f 3e
       0.072375275 0.09700769 0.01491725 0.3123751
0001b0 1a 4b b9 3d ce 70 79 bd 04 31 06 3d 6b 92 23 3d
       0.090475276 -0.060898595 0.03276159 0.039934557
0001c0 2f 8d c1 3d 86 ff b4 bd e4 61 e8 3c c3 cb 48 be
       0.09450757 -0.088378 0.02836699 -0.19608979
0001d0 5a 2a 96 bc 52 cf a6 bd 20 9a 73 be 7a 88 83 bd
       -0.018330742 -0.08145012 -0.23789263 -0.06422515
0001e0 db 23 b9 bd c7 72 3a 3e 89 18 42 3e e1 09 dd 3c
       -0.09040042 0.18207847 0.18954672 0.02698225
0001f0 1b 01 83 be 4c 75 6f be 1a 9f 3f 3e 92 5f 84 3d
       -0.2558678 -0.23384589 0.18713036 0.06463541
000200 b3 9c 19 be 18 9b 1a 3d 69 2e 08 3d b3 cc 01 3e
       -0.15001182 0.037745565 0.033247385 0.12675743
000210 25 11 db 3d 9c b0 a3 bb 29 8f 98 3d a1 d0 75 3e
       0.106966294 -0.0049954187 0.07449181 0.24005367
000220 9d 0d 40 3d 1e a5 70 be 24 6c 6d 3d 24 2b 5f 3e
       0.046887983 -0.23500487 0.05796446 0.217938
000230 ff 45 de 3c 73 70 62 be 6f 3f 51 3c 5a a7 50 be
       0.027132986 -0.22113208 0.012771471 -0.2037634
000240 a7 70 85 3d 56 d1 ae be 4f 75 72 be 29 13 6b 3e
       0.06515627 -0.34144086 -0.23677562 0.22956528
000250 11 83 00 3e 8a 76 06 3e 08 79 e3 3d e8 7f 4b be
       0.12549998 0.13131157 0.11107069 -0.19873011
000260 f3 97 9a be 36 70 b1 3b 72 e2 72 3d 7a 10 1c 3d
       -0.30194053 0.005414988 0.059297986 0.03810165
000270 a9 07 49 3d e1 49 26 3c a6 d5 0a 3d 85 89 80 be
       0.04907957 0.01014945 0.033895157 -0.2510492
000280 8c dd 84 3d 11 c9 86 3d 64 07 c9 3d a6 ad 13 be
       0.06487569 0.06581319 0.09815863 -0.1442171
000290 e3 5b 83 3e 86 17 ab 3d c1 ff b8 3c 62 81 32 3c
       0.25656042 0.08354096 0.02258289 0.010895105
0002a0 28 77 f8 3c c4 b8 e4 3d fe ac b0 bd fe c7 00 be
       0.030330256 0.11168054 -0.08626746 -0.12576291
0002b0 cc d1 0d 3e f8 5c 5c 3e 08 42 f1 3e 25 4e a5 3e
       0.13849562 0.2151984 0.4712069 0.32286182
0002c0 cd d8 7c 3e 16 8f e3 3d a0 d0 65 be 44 b3 6f bd
       0.24692078 0.11111276 -0.22442865 -0.05852057
0002d0 be 4e 32 be 49 47 3b 3e 11 55 07 be 4d ca 7b be
       -0.1741285 0.18288912 -0.13216044 -0.2458889
0002e0 ae bc 2c be 26 e5 fc bd ed e1 32 be 0b 5f ba 3d
       -0.1686885 -0.12348394 -0.17468996 0.09100159
0002f0 0d f6 da bd f5 ad 1a bd ba 25 2d 3e c3 73 3e bc
       -0.10691462 -0.037763555 0.16908923 -0.011624279
000300 03 6f 8d 3e 2c 37 35 3e 04 65 c6 bd d9 63 82 3d
       0.27623758 0.17696828 -0.09687236 0.06366701
000310 21 06 2b 3d fa a3 01 3e 1b c3 88 be ae c4 d4 bb
       0.04175389 0.12660208 -0.26711354 -0.0064931726
000320 78 ad 69 3e a6 19 dc 3e 83 56 86 3e 16 d4 3b 3e
       0.2282008 0.42988318 0.26237878 0.18342623
000330 ee 60 c9 3d c8 cc 0f be dd 57 23 bd 24 ed 0b bc
       0.09832941 -0.14042962 -0.039878715 -0.008540425
000340 f6 47 9b 3d ed 1b b5 3d 48 cb 05 be be ee 70 be
       0.07582085 0.08843217 -0.13065827 -0.23528573
000350 fc 92 59 be 28 a6 4a be dc 8a 2b be 67 18 aa 3d
       -0.21247476 -0.19789946 -0.1675219 0.08305436
000360 93 fb 0a be d9 9b 32 bd 7d 9f 9d bd 7d f7 f2 bd
       -0.1357253 -0.04360566 -0.076964356 -0.11863611
000370 7c 89 10 bd 42 1e 2b bd 5c da a1 bd 95 e3 0c 3e
       -0.035287365 -0.041776903 -0.07902977 0.1375869
000380 d9 29 95 3e 76 08 6c be f1 a2 91 3d fb a6 03 3e
       0.2913349 -0.23050103 0.07111157 0.12856667
000390 55 e0 2c 3d 81 04 c3 3c a2 b0 af 3d 80 05 1c be
       0.042206127 0.023805859 0.08578612 -0.15236473
0003a0 0d 60 fe bd c8 81 01 3e 9f ab f9 bd c7 50 18 3e
       -0.12420664 0.12647164 -0.12190937 0.14874564
0003b0 53 c8 11 3e f3 67 d2 bd 80 e8 a4 bd 15 b1 7d be
       0.14236574 -0.10273733 -0.08052158 -0.24774583
0003c0 ec d6 16 bd 99 81 9d bd 85 aa 2e 3c eb eb d3 3d
       -0.03682606 -0.076907344 0.010660772 0.10347732
0003d0 3f 4f d4 bd 20 03 ee bc 8f 95 9a bd 99 82 24 bd
       -0.103666775 -0.029054224 -0.07548057 -0.04016361
0003e0 db 85 e7 bd e5 17 07 3d a6 47 3a bc 5e 92 8e 3d
       -0.11304828 0.032981772 -0.011369621 0.06961511
0003f0 fb 6c b2 bd 2c 02 93 be ac 00 5a 3e 36 cb 9c 3e
       -0.087121926 -0.28712595 0.21289319 0.30623788

layers.1.0.weight f4 [128, 128]
000000 a5 6a a0 3e 90 6f 57 3d e5 8f ce bd 10 a5 17 3e
       0.31331363 0.05259663 -0.100860395 0.1480906
000010 f9 09 6a be 46 d9 e9 bb 28 15 5f bd db 18 eb 3e
       -0.22855367 -0.0071364967 -0.054463536 0.459174
000020 39 58 40 be 05 bd 6c be 29 e4 ad 3c 13 a4 a3 bc
       -0.18783654 -0.2311898 0.02122696 -0.019975698
000030 5a 2e 20 3e db 61 12 3c 2b d5 12 be 8f 66 f7 3e
       0.15642682 0.008934463 -0.1433913 0.48320433
000040 18 78 81 3d ed 9a ef 3d d5 ac 97 3b d7 8e 2f 3e
       0.06321734 0.116994716 0.0046287575 0.17144333
000050 d9 f0 dc 3b 88 02 10 3e 6f d0 9e bc 81 6c d4 bd
       0.0067425785 0.14063466 -0.019386498 -0.10372258
000060 bc 40 89 be 2d 89 21 3d d4 81 15 3e f9 a4 39 bd
       -0.268072 0.03943746 0.14600307 -0.045323346
000070 d7 1f a8 bd ab c8 bd bd c4 2d e3 3d a9 b3 94 3c
       -0.08209198 -0.0926679 0.110927135 0.018152075
000080 79 a3 a7 bd 1c c7 33 3e d2 f1 01 3b 16 90 15 3e
       -0.08185477 0.17556423 0.0019827974 0.14605746
000090 88 12 61 3c bf f4 80 bd cc ab 37 be c4 e8 53 be
       0.013737328 -0.062966816 -0.17936629 -0.20694262
0000a0 9d b5 dc bd 18 25 c5 39 9c bb bd 3d ce c1 fd bd
       -0.107768275 0.00037602405 0.09264299 -0.12390481
0000b0 6a 91 81 3c 87 7e e9 bd b1 fa 0b 3e 41 2a 53 be
       0.01581641 -0.11401086 0.1366985 -0.20621587
0000c0 d0 1f 63 bd b3 ff c1 bd fb 7e be 3d 03 7f 68 3d
       -0.05545026 -0.09472599 0.09301563 0.056761753
0000d0 4c 1c 9b 3c c3 9b 80 bd 70 b7 82 bd 7f 86 d0 bc
       0.018934391 -0.06279709 -0.06382644 -0.025454758
0000e0 cb 97 89 bb 48 ec 1b be 9b bc 82 3c f5 c1 01 3e
       -0.0041990033 -0.15226853 0.015959075 0.12671645
0000f0 7c ae 7f be 4a 3a 41 be ff b6 ca be 2b b1 7f be
       -0.24968904 -0.18869892 -0.3959274 -0.24969928
000100 6b 8f f3 ba 0d c0 c6 3e eb 51 68 bd 32 a7 07 be
       -0.0018582171 0.38818398 -0.056718748 -0.13247374
000110 4f 75 94 be ff d2 22 3e ef ef ff 3d cf b6 62 3e
       -0.2899575 0.15900801 0.124969356 0.22140048
000120 8e e8 b7 bd 0f d7 e7 3d e2 97 fa be 3d c8 f6 bd
       -0.08979903 0.11320316 -0.48944002 -0.12049911
000130 96 7e d7 3d a0 7a c0 3d e9 df 2a bd 81 7d 2b bd
       0.10522191 0.09398389 -0.041717444 -0.041867737
000140 c4 87 35 bd 54 4f 69 3e 01 03 cd 3d 48 80 58 3d
       -0.04431893 0.22784168 0.100103386 0.052856714
000150 f2 0d d0 3d ae 8f 7d 3e a3 ca 37 3e 52 55 27 be
       0.1015891 0.2476184 0.17948394 -0.16341141
000160 59 d8 eb bd f2 ab db bc c5 51 8d 3c 76 f8 dc 3d
       -0.115158744 -0.026815388 0.017250905 0.10789578
000170 02 be a0 3d fa 55 30 3d db 41 92 be ee 14 04 3d
       0.07848741 0.043050744 -0.2856587 0.032246523
000180 52 34 8b 3c b4 b9 55 3e d0 04 50 bd bd e8 3c be
       0.016992722 0.20871621 -0.05078584 -0.18448158
000190 ee db 95 3e 59 d1 83 3d 0e a1 c2 3e ff 3a 1c ba
       0.29269356 0.06436414 0.380135 -0.0005959719
0001a0 13 c2 18 be 8d 6f 55 3d 72 6a a0 be 62 55 f2 3b
       -0.14917783 0.052108336 -0.3133121 0.0073954323
0001b0 d4 53 87 be e0 5b 00 be 56 08 8e bd 4b f2 a7 3e
       -0.26431143 -0.12535048 -0.06935184 0.32802042
0001c0 b1 62 89 3c df 1c 4f be 4e ba b2 be f0 fb ea 3e
       0.016770693 -0.20225857 -0.34907764 0.45895338
0001d0 bb 6b 6e 3c 9b 92 32 3e d1 50 46 3e df 80 f3 3d
       0.014552052 0.17438738 0.19366767 0.118898146
0001e0 18 72 49 3d fd 60 88 bd 7f c0 6c 3d 84 47 b4 3d
       0.049181074 -0.06659124 0.057800766 0.08802703
0001f0 34 82 bb 3c 63 eb 47 be 54 4c a1 3d c8 14 96 3d
       0.022889234 -0.19523387 0.078758866 0.073281825
000200 76 94 7a bd 08 34 97 3e 31 53 3c be 72 9a f8 3d
       -0.06117674 0.29531884 -0.1839111 0.12138833
000210 a4 fd a6 3d 78 4e ea bd e0 26 c2 3e 8c e4 a1 3e
       0.08153847 -0.11440748 0.37920284 0.3161968
000220 c7 54 8f bc 80 6f d9 3d 25 16 d2 3e 82 1c cd bd
       -0.01749648 0.1061697 0.4103252 -0.10015203
000230 75 db 5a 3e e5 15 07 3e 04 b6 ad be 67 9f 3e 3d
       0.21372779 0.13191946 -0.3392793 0.046538737
000240 ae c3 82 be 8e 53 cc be 72 86 3e be 09 26 a0 3d
       -0.25539917 -0.39907497 -0.18605974 0.07819755
000250 f4 e3 7c bd 60 fb 78 3e df 18 9e be ab 40 84 3e
       -0.06174083 0.24314642 -0.3087835 0.25830588
000260 34 64 82 3e 99 59 31 3e e1 3b 5c 3e 26 e9 da 3d
       0.25467074 0.17319335 0.21507217 0.10689001
000270 51 39 63 3e 33 25 3c be f1 9d 49 bd 22 90 ca bd
       0.22189833 -0.18373565 -0.04922289 -0.098907724
000280 73 1c 6f bd 80 3d b1 be d8 a6 5f 3d 52 0a 94 3e
       -0.05837674 -0.34617233 0.054602474 0.28914124
000290 68 a7 0c be 60 8a 1b bc 3b 25 a6 3e 6a 3a 4a 3d
       -0.13735735 -0.00949344 0.3245028 0.049372114
0002a0 89 e7 8e 3c a4 11 46 bc fb f2 a8 be ff c1 dc 3c
       0.017444389 -0.012089167 -0.3299788 0.026947973
0002b0 05 c4 3f 3e 1a ef bb 3d 1b 8c 30 be 23 a7 8f 3e
       0.1872712 0.091764644 -0.17240946 0.28057203
0002c0 19 ac 5d bd 73 f1 1a bd d5 04 1d be a5 3b 0d 3d
       -0.054119203 -0.03782792 -0.15333875 0.03448071
0002d0 4f de 09 3e 4f f0 9f 3d 3b 8e 6b 3e c3 fd 0b 3d
       0.1346371 0.07809507 0.23003475 0.034177553
0002e0 de 8d 23 3d a7 10 bb 3d a9 5e 95 3e cc 28 82 3d
       0.039930217 0.091340356 0.29173782 0.06355438
0002f0 36 10 fb 3d d5 eb 3d 3e f4 ff 85 be c1 64 71 be
       0.12258951 0.18546994 -0.2617184 -0.23573591
000300 09 b7 30 3d 6b de 73 3e b2 84 24 3e 2c b9 53 be
       0.043143306 0.23815314 0.16066244 -0.20676106
000310 4d b6 a4 3d 3a 57 09 3e 7d e6 5c 3e 5e 6d 6f 3e
       0.080425836 0.1341218 0.215723 0.23381564
000320 a6 45 25 3e d5 e8 66 bd 6a df 29 bd 46 82 2f 3d
       0.1613985 -0.05637439 -0.04147283 0.042848848
000330 50 f7 d8 3d 4b 6e dd 3d f8 87 80 3e 7c 3d 8d bc
       0.10594046 0.10812052 0.25103736 -0.017241232
000340 b8 1f d9 3c a4 28 7f 3c 22 14 17 be ed d5 89 bd
       0.026504382 0.015573654 -0.14753774 -0.06730256
000350 8e 4b 86 bd bc df a8 3d d7 61 5c be 67 d8 bf be
       -0.0655738 0.08245799 -0.21521698 -0.3746979
000360 38 70 d2 bc f9 fc b1 3d 53 04 70 3e 99 4a 56 3b
       -0.025688276 0.08690829 0.2343915 0.0032698272
000370 86 39 1e be 74 6b f3 bc f0 6f 36 3d 01 2d 7f 3d
       -0.15451631 -0.029714324 0.044540346 0.06229878
000380 3c 8a 84 bd fa ad c7 bd e8 7d a0 3d 92 9b 97 be
       -0.064716786 -0.0974998 0.07836515 -0.29610878
000390 bf 25 86 bd 28 ae c6 3e 82 d1 d1 3d 14 74 ce bd
       -0.06550168 0.38804746 0.102450386 -0.10080734
0003a0 f4 df c2 bd 93 6f b8 3d 40 b9 82 3c e7 fc 10 3e
       -0.09515372 0.09005656 0.015957475 0.14158975
0003b0 84 4c d3 3d 0e 6c 5d be ed 78 44 3d 04 ec 25 be
       0.103173286 -0.21623251 0.047966886 -0.16203314
0003c0 32 e1 cc 3d 1b 47 c7 bb 07 72 57 bd 25 59 a0 be
       0.1000389 -0.0060814745 -0.05259898 -0.31318012
0003d0 47 89 cf 3d 39 76 7a be a5 c9 ca 3d 18 c5 9f bd
       0.101336055 -0.24459161 0.09901742 -0.078012645
0003e0 e8 41 ce 3d d6 0f 76 3e 54 d6 07 be 56 40 79 bc
       0.10071164 0.24029478 -0.13265353 -0.015213093
0003f0 3c 93 9f be d8 09 3b 3e 8b 45 6e bc 02 77 16 bd
       -0.31167018 0.18265474 -0.0145429475 -0.03673459

layers.2.0.weight f4 [10, 128]
000000 7f 0d ed 3d 97 9f 38 be 73 ce 7e be b6 25 0f 3e
       0.1157484 -0.18029629 -0.24883442 0.1397923
000010 c4 50 29 3e 2e 40 02 bf 69 d0 18 3e 5e 5e 08 be
       0.16534716 -0.5087918 0.14923252 -0.13317248
000020 c2 d4 10 3e a4 3b e6 bd 08 17 01 3d b0 a3 52 bb
       0.1414366 -0.11241844 0.031516105 -0.0032141022
000030 7a 65 07 3e 80 33 e7 be 98 cd ea 3e bc 87 59 bc
       0.13222304 -0.4515648 0.4585998 -0.0132769905
000040 a9 11 a7 be fe be 9f be b2 3d ee 3d a5 6b d9 be
       -0.3263066 -0.31200403 0.11632861 -0.4246494
000050 59 44 bb be 5f 5c a6 be 9a c0 5c be 59 25 09 3d
       -0.36575583 -0.3249235 -0.21557847 0.033482883
000060 76 68 89 ba 0d 0d 82 be fd 7d 59 3d e6 26 27 be
       -0.0010483402 -0.25400582 0.053098667 -0.16323432
000070 51 8b 4e 3d 3b 41 e8 3d 44 ab f5 be bf fa 3d 3e
       0.05042583 0.11340567 -0.47982228 0.18552683
000080 71 e9 43 bd 24 d5 de 3d 21 02 c4 be e3 24 a0 3e
       -0.04783005 0.10880497 -0.38282874 0.31278142
000090 c6 10 9b be d3 6d e1 bc 41 79 0e 3e e9 49 04 be
       -0.30286235 -0.027518189 0.13913442 -0.1291882
0000a0 e7 1d 7c be 31 f5 89 be d3 7e 56 be a8 eb e1 be
       -0.24620782 -0.2694488 -0.20946817 -0.44125104
0000b0 48 0d 96 be 4a d6 96 3b 8b 08 aa bd c9 84 d3 bb
       -0.29307008 0.004603182 -0.08302411 -0.006455038
0000c0 81 55 1a bc b8 a5 b0 3d 19 14 83 bd f7 92 01 3e
       -0.0094198 0.08625358 -0.06400318 0.12653719
0000d0 6e 0e 21 3e a0 3f 8b bd 93 4c ef be 31 5b ef bd
       0.1572816 -0.06799245 -0.4673811 -0.11687315
0000e0 b5 77 41 bd 18 79 cb bd ff 27 ce be d3 0c 57 3e
       -0.047233302 -0.09935206 -0.4026489 0.21000986
0000f0 e8 2b e4 be 1d ab 1b 3e a2 32 73 3c 70 e6 09 3f
       -0.44564748 0.15201993 0.014843615 0.53867245
000100 12 a0 22 be a0 4d c4 3e 2e 06 70 3e 31 ec b4 be
       -0.15881374 0.38340473 0.23439857 -0.3533645
000110 f3 80 f7 3d 0c 65 7c 3e ec 6f db bd f8 47 15 be
       0.12085142 0.24647921 -0.10714707 -0.14578235
000120 43 9c 72 bd 0b 44 17 3e ef ff c6 be 77 49 48 be
       -0.059231054 0.1477205 -0.38867137 -0.19559275
000130 2c 16 91 be 00 c4 3c bb ef 7a 26 be 3a 68 3f 3e
       -0.28337228 -0.0028803349 -0.16257833 0.18692103
000140 d1 bc f5 3e df 98 3e bc d2 6c 30 be b7 23 59 3e
       0.47995618 -0.011633127 -0.17229012 0.2120503
000150 b5 10 a3 bd 16 63 f7 3d 2c 54 21 bd 55 36 18 3e
       -0.07962171 0.12079446 -0.039386913 0.14864476
000160 7a 61 41 be 9d 0b d0 be df 7c ac 3d 7a fc 9e bc
       -0.1888484 -0.4063386 0.08422255 -0.0194075
000170 61 31 a4 be b0 05 34 3e e5 1b 1c bf bc 97 7a be
       -0.32068923 0.17580295 -0.60980064 -0.24471945
000180 34 c9 1e 3e 9f e5 22 3c 92 04 1c 3e 06 27 08 bd
       0.1550644 0.009942441 0.15236118 -0.03324034
000190 91 91 8b 3e 20 c9 b4 bd 7a 98 28 3e e0 5e c7 3b
       0.27259496 -0.08827424 0.16464415 0.006084308
0001a0 ee 75 e5 3d 52 2d f4 bc bf 7c 70 be ef 00 35 3e
       0.11204134 -0.029806767 -0.23485087 0.17676137
0001b0 72 94 a8 3e d9 20 71 bd c7 ea 46 3e 97 03 bf 3e
       0.32925755 -0.058869217 0.19425498 0.37307426
0001c0 f1 db a6 be 0c 3b a9 be 23 f2 d0 3d ab 04 14 bd
       -0.32589677 -0.33052862 0.10202434 -0.036137264
0001d0 32 f4 0b bf d9 bb 86 be 91 64 54 bd 1d b3 73 bd
       -0.5466949 -0.2631519 -0.05185372 -0.059496988
0001e0 40 a3 0a bf 30 54 90 bc 42 a8 22 be 38 1a ca bc
       -0.5415535 -0.017618269 -0.15884498 -0.024670705
0001f0 ab a1 5a bd 50 1f 32 3c 1f bd b5 bc 40 ea 10 bf
       -0.053376835 0.010871723 -0.022184907 -0.5660744
000200 e7 d7 49 be 38 fc 8c be a3 d1 30 3d 6d 6a 1d bf
       -0.19711266 -0.27536178 0.043168675 -0.6149052
000210 b2 5c 53 3d 60 52 b9 39 1f 61 64 3d 2e 4b 39 be
       0.051602073 0.00035347324 0.055756684 -0.18095085
000220 0d 07 43 3d 16 d9 fa 3e 06 c6 f6 be 9e 0c 9e be
       0.047614146 0.48993748 -0.48197955 -0.30869
000230 b6 e6 68 be e2 12 42 bd 92 f7 05 be 5c 62 73 3e
       -0.22744259 -0.04738129 -0.13082722 0.2376799
000240 87 2a a4 3d 81 3b 81 be f7 95 1f bf db 65 41 3c
       0.08015924 -0.2524071 -0.62338203 0.011804069
000250 8a fb 94 3e 0c cc 12 bc a3 ee 2e 3e fb 3e eb 3e
       0.2909816 -0.008959781 0.1708322 0.45946488
000260 3c 09 46 be 66 16 62 3e ad 63 c8 be 30 16 e3 3d
       -0.1933946 0.22078857 -0.39138547 0.11088216
000270 80 4c ac be a8 fe 91 3e 0f 52 df be 91 48 97 be
       -0.33652115 0.285146 -0.43617293 -0.2954755
000280 6e 4a df be f8 18 3e 3e 06 bb e3 3c b1 89 3d be
       -0.43611473 0.18564212 0.02779914 -0.18509556
000290 f1 f1 b8 bd 81 e6 8f 3e 73 65 2e 3e dc 69 8d bd
       -0.09030522 0.28105548 0.17030887 -0.06904957
0002a0 3f dd 9e 3d 2b 64 36 3c d3 ec 3f 3e bf 9a d4 be
       0.07757043 0.01113228 0.18742685 -0.41524312
0002b0 30 24 4c 3e 8a 1f c3 bd 29 ce df be 7b d4 5b 3e
       0.1993568 -0.095275 -0.43711975 0.21467774
0002c0 82 7f bc be c7 3d 84 be e2 fd 3e 3e f9 8e 32 3e
       -0.3681603 -0.25828382 0.18651536 0.17437352
0002d0 ec b6 17 3e 9b 16 61 bd 95 ce 15 3e f8 08 11 3d
       0.14815873 -0.0549532 0.14629586 0.035408944
0002e0 38 84 2c bf 73 f8 b2 3d d4 cb 71 bd c3 26 b5 3d
       -0.6738925 0.08738794 -0.059032276 0.08845284
0002f0 d1 02 14 3a 66 1b 3b bd 69 98 3f be 9d 48 1e 3e
       0.00056461716 -0.045680426 -0.18710484 0.15457387
000300 e9 4b 1e 3e 3f 0e c0 bc 52 37 31 3e 4b 55 f1 3d
       0.15458645 -0.023444293 0.1730626 0.117838465
000310 0b 94 04 be bd b1 bb be 47 6e 96 3e 6a b6 47 bf
       -0.12947099 -0.3665904 0.2938101 -0.78012717
000320 46 82 42 3e fc ba 2e be dd 5a 20 3f e0 38 00 3e
       0.18995008 -0.17063516 0.62638646 0.12521696
000330 3b a2 09 3d 89 22 be 3d f3 08 94 3d 76 63 e3 be
       0.03360198 0.09283931 0.072282694 -0.4441182
000340 e2 29 95 3d d8 97 a1 be e0 70 38 3d 46 23 fb be
       0.07283379 -0.3156116 0.04502952 -0.4905035
000350 44 24 ad be 0d ab 24 be 2b 37 bc 3c 34 86 88 3e
       -0.3381673 -0.16080876 0.022975525 0.2666489
000360 0b e9 58 3c c2 e5 03 be 67 a3 33 be 3f 3e c2 3d
       0.0132391555 -0.12880614 -0.17542802 0.09484529
000370 27 92 4b bc 1f 5c 57 3e e4 d1 53 be af 6a 1c 3d
       -0.012424982 0.21031235 -0.20685536 0.03818768
000380 a2 8f 22 3e 96 56 1d bc 50 18 a6 be 6f 3d 87 3d
       0.15875104 -0.009603163 -0.32440424 0.066035144
000390 be b8 c8 bd 8c 37 a0 be 1c 09 44 3e 77 e8 09 bb
       -0.09800862 -0.3129238 0.191441 -0.00210431
0003a0 e1 9c be be 80 a2 3b 3e 36 a9 26 3e 04 d7 ad be
       -0.37229064 0.18323708 0.16275486 -0.33953106
0003b0 97 79 4e be 44 77 9e 3c 5b 72 c7 3e 25 cb fb be
       -0.2016357 0.01934398 0.38954434 -0.49178424
0003c0 87 d0 94 bc 7e 5c e2 bd 72 f8 8e 3c f1 4a a6 3e
       -0.01816584 -0.11052798 0.017452452 0.3247905
0003d0 a7 0c d5 bd 15 fa 98 3d 32 84 21 bd e6 56 97 3b
       -0.10402804 0.07469574 -0.039432712 0.0046185134
0003e0 df f7 81 be 8f 44 9b be fe ec 11 bf 82 a5 89 3e
       -0.25384423 -0.30325744 -0.57002246 0.26884085
0003f0 04 a7 60 be 22 14 5a 3e 33 c8 7e be ab 98 e2 3e
       -0.21938711 0.21296743 -0.24881057 0.442571
