cnn/ANN/seed1/network.pth (torch, 739663 bytes, 4 tensors)

layers_conv.0.0.weight f4 [32, 1, 5, 5]
-0.010305108 0.030584073 0.033478606 -0.061348174 -0.041824806 -0.06622596 0.11875029 -0.16073714
-0.10081477 -0.082343124 -0.013677652 0.09562188 -0.08194539 0.056722697 -0.07428225 -0.10399281
0.031924777 0.15031569 0.24161284 0.047702678 0.018434796 0.037889503 -0.01809885 0.31461033
-0.024946798 -0.0030332853 0.078557216 -0.25610137 0.16691747 -0.089528345 -0.23796207 -0.25553945
-0.25440744 0.008149956 0.12472819 -0.40274265 0.02311122 -0.2575707 0.19249174 0.1703181
-0.2538612 -0.15862687 -0.007650667 0.17268018 0.35317984 0.03510557 -0.1776972 -0.019726789
0.10277886 0.1456397 -0.029048253 0.12807362 -0.057837073 -0.15605325 0.00044945665 -0.2769204
-0.04486871 -0.010972769 -0.1013482 -0.04902207 -0.14341468 0.12028991 0.09310731 0.0798632
0.1573053 -0.005880672 0.17934287 0.15953422 0.26290458 -0.04642778 -0.012978144 0.014665455
0.04366692 -0.1314982 -0.0861112 -0.15116552 0.06368532 0.011290277 -0.027410798 -0.33655053
0.14818868 -0.05778387 0.04918154 -0.1896362 -0.14772993 0.08075546 0.077271335 -0.13297085
-0.1375954 -0.11871093 -0.014451345 0.06719525 0.17672978 -0.21455377 -0.09970903 0.2077864
0.028009905 0.22025545 -0.11011266 -0.1867999 -0.25748283 -0.19201256 -0.18130146 -0.27747914
-0.0462649 -0.390179 0.06452494 0.066620454 0.26227924 0.21674833 -0.04614876 0.1928836
0.448745 0.07534926 0.17776257 -0.1683584 -0.03132646 -0.029176699 -0.02362619 0.02338328
-0.27113965 -0.29628205 -0.18325187 -0.047445633 -0.0332603 -0.61141616 -0.28941008 -0.053327095
0.2825086 0.18366508 -0.16690464 0.086945936 0.32255808 0.19484459 0.1991519 0.27143675
0.25885445 -0.088407174 -0.16723895 -0.13998684 0.13028145 -0.017066613 -0.2730327 -0.30007145
0.06994697 -0.12009345 -0.100532584 -0.3231446 0.017385634 0.07039989 0.06923099 0.19389653
0.06663238 -0.43268347 -0.0875592 0.060323827 0.25316525 0.19725844 -0.0029140355 -0.11673088
-0.27700627 0.3879476 0.2947213 0.15269876 -0.20377617 -0.39292547 -0.24440278 0.15162574
0.08425398 -0.090927795 -0.32776037 -0.3166347 0.013535078 0.10255216 0.006916726 -0.08302087
-0.4282684 -0.5314305 -0.37021178 -0.40788397 0.12208001 -0.17217523 -0.26950946 -0.2855267
-0.2878158 0.37029526 0.30491862 0.2762011 0.18486993 0.069182575 0.2706675 0.20125033
0.41127196 0.19441111 0.301051 0.027938187 -0.020583933 0.07847591 -0.04094179 0.13457993
-0.03668193 0.07200411 0.12519819 0.24392648 -0.05352981 0.13527451 0.2588438 0.32990932
0.3064098 -0.2836277 -0.05705792 0.042619452 0.032949824 0.06416795 -0.14919594 0.030786995
-0.44458187 -0.294748 0.044123963 0.14583331 -0.111571655 -0.40618926 -0.1758592 0.17117752
-0.047004852 -0.03638692 0.08759057 -0.11292504 0.06361596 -0.016063241 0.017504364 0.06937576
-0.024317162 -0.046433426 -0.20935442 0.1139065 0.062190257 0.1965333 0.01943945 -0.40654317
-0.27875865 0.20753993 0.33622563 0.4450104 -0.36553615 -0.48933378 -0.37118468 0.13308391
0.19320811 0.0011295464 0.270159 0.10765906 -0.42341244 -0.16745548 0.26550686 0.254581
00000000: c1d6 28bc 738b fa3c dd20 093d 3948 7bbd
00000010: 7d50 2bbd 7aa1 87bd 5a33 f33d 4798 24be
00000020: f977 cebd 83a3 a8bd 3b18 60bc 67d5 c33d
00000030: fcd2 a7bd 0f56 683d 4b21 98bd 2ffa d4bd
00000040: 8ec3 023d 5bec 193e 5b69 773e e263 433d
00000050: 9204 973c 0632 1b3d 0a44 94bc 9b14 a13e
00000060: 3a5d ccbc 15ca 46bb 9be2 a03d b81f 83be
00000070: 6aec 2a3e a35a b7bd 54ac 73be 11d6 82be
00000080: b141 82be 6587 053c 7e71 ff3d 4934 cebe
00000090: be53 bd3c 4fe0 83be 8e1c 453e de67 2e3e
000000a0: 18fa 81be 156f 22be 72b2 fabb 13d3 303e
000000b0: fdd3 b43e dcca 0f3d 41f6 35be 139a a1bc
000000c0: b97d d23d 9322 153e 9af6 edbc bb25 033e
000000d0: 91e6 6cbd 6ccc 1fbe 0da5 eb39 83c8 8dbe
000000e0: 41c8 37bd 21c7 33bc a58f cfbd 5ecb 48bd
000000f0: 4cdb 12be 8e5a f63d 0caf be3d 518f a33d
00000100: a414 213e a7b2 c0bb a8a5 373e f05c 233e
00000110: 6e9b 863e 0e2b 3ebd 48a2 54bc 6047 703c
00000120: 16dc 323d 77a7 06be 125b b0bd 22cb 1abe
00000130: 736d 823d dbfa 383c 9c8c e0bc 5a50 acbe
00000140: c6be 173e c7ae 6cbd 9572 493d fe2f 42be
00000150: 8446 17be 1e63 a53d 6f40 9e3d 8329 08be
00000160: cfe5 0cbe b71e f3bd 56c5 6cbc aa9d 893d
00000170: a7f8 343e fcb3 5bbe 3f34 ccbd f5c5 543e
00000180: 0775 e53c a58a 613e bf82 e1bd 7948 3fbe
00000190: cad4 83be f19e 44be 17a7 39be bf11 8ebe
000001a0: 4480 3dbd 8bc5 c7be a725 843d 4e70 883d
000001b0: 7749 863e 46f3 5d3e 7b06 3dbd 4783 453e
000001c0: e8c1 e53e b650 9a3d 6407 363e 2566 2cbe
000001d0: 2d50 00bd f903 efbc b68b c1bc 4b8e bf3c
000001e0: d1d2 8abe 48b2 97be 61a6 3bbe 5a56 42bd
000001f0: f43b 08bd c585 1cbf 8f2d 94be 836d 5abd
00000200: f8a4 903e b312 3c3e 0de9 2abe b610 b23d
00000210: 5526 a53e 5785 473e 7aee 4b3e c2f9 8a3e
00000220: 9288 843e d20e b5bd b040 2bbe b658 0fbe
00000230: 8068 053e 48cf 8bbc f1ca 8bbe f7a2 99be
00000240: 5b40 8f3d 8ef3 f5bd 07e4 cdbd 3673 a5be
00000250: 516c 8e3c d12d 903d fac8 8d3d d08c 463e
00000260: 8f76 883d b088 ddbe 3d52 b3bd 1e16 773d
00000270: e09e 813e 1efe 493e 67f9 3ebb 9a10 efbd
00000280: c4d3 8dbe 11a1 c63e b6e5 963e 105d 1c3e
00000290: b3aa 50be 872d c9be b944 7abe c743 1b3e
000002a0: 5a8d ac3d 5a38 babd 35d0 a7be f21d a2be
000002b0: 3bc2 5d3c de06 d23d b4a5 e23b d906 aabd
000002c0: ff45 dbbe d40b 08bf 668c bdbe 2bd6 d0be
000002d0: 1605 fa3d b44e 30be 25fd 89be 8e30 92be
000002e0: 985c 93be 5797 bd3e 4b1e 9c3e 3b6a 8d3e
000002f0: 8b4e 3d3e 98af 8d3d ee94 8a3e 9114 4e3e
00000300: 3d92 d23e b513 473e 5b23 9a3e a0de e43c
00000310: a39f a8bc fab7 a03d 94b2 27bd 52cf 093e
00000320: cb3f 16bd e476 933d f433 003e ddc7 793e
00000330: 1342 5bbd 6785 0a3e 2d87 843e e0e9 a83e
00000340: bfe1 9c3e a637 91be 91b5 69bd bc91 2e3d
00000350: 65f6 063d 7c6a 833d d2c6 18be 0235 fc3c
00000360: 3ca0 e3be 36e9 96be 54bb 343d 5455 153e
00000370: ae7f e4bd 0af8 cfbe 6f14 34be 2949 2f3e
00000380: 2988 40bd 730a 15bd af62 b33d 3e45 e7bd
00000390: 1649 823d 0f97 83bc 5065 8f3c e114 8e3d
000003a0: c934 c7bc fa30 3ebd 0161 56be d047 e93d
000003b0: 36bb 7e3d 0740 493e 7b3f 9f3c 6d26 d0be
000003c0: 74b9 8ebe 5985 543e c425 ac3e 67d8 e33e
000003d0: 8e27 bbbe f589 fabe eb0b bebe 2647 083e
000003e0: 59d8 453e 4a0d 943a 4852 8a3e 5a7c dc3d
000003f0: 84c9 d8be 7379 2bbe 84f0 873e 7158 823e

layers_conv.1.0.weight f4 [64, 32, 5, 5]
0.011113797 0.12881818 -0.13325721 -0.18731932 -0.104868315 0.06737139 -0.285698 -0.46045998
-0.3364684 -0.25659338 -0.075920865 -0.29941115 -0.3322683 -0.043500107 0.067125894 -0.28213528
0.066118434 0.10339023 -0.023159003 0.119942784 0.14732042 0.009670518 0.16093595 0.22269918
0.088770136 -0.00013309086 0.0026432201 0.03995565 0.27764726 -0.020872934 0.10481196 -0.20530559
-0.33008498 -0.08197976 0.12974362 -0.19459715 -0.36979592 -0.1027018 0.07494256 0.061133508
0.15629774 0.003682199 0.18808506 -0.11034229 0.0029770758 0.062916785 0.16962826 0.10926499
0.13781038 -0.00026521363 -0.11341623 -0.003065241 0.02138036 -0.054480642 -0.052642245 -0.011580108
-0.061990377 -0.32372743 -0.37984958 -0.21563092 0.04964858 -0.26537153 -0.5038447 0.029643629
-0.109812684 -0.018609956 0.10511427 -0.101240925 0.16005723 0.36583224 -0.016442502 -0.021346347
-0.013091949 0.100023836 -0.008256191 -0.005398203 0.07185524 0.29208577 -0.0029090887 -0.20172977
-0.266101 -0.20297955 -0.08660378 -0.3596131 0.012926053 -0.16456828 -0.09478826 -0.32756972
-0.21458243 0.0679781 0.035065323 -0.13321102 -0.10923151 -0.09804351 0.08583336 0.11179583
-0.07074738 0.19697082 -0.14082691 0.01272898 0.14762428 0.18894583 0.112405606 -0.12634237
0.05006374 0.096112914 -0.032849796 -0.30367142 -0.035169948 -0.03871311 -0.036652252 -0.112055816
-0.27085164 -0.179222 0.0028955617 0.016443687 -0.08500047 -0.10519749 -0.033854164 -0.09297806
0.023046585 0.09012284 -0.09123046 0.25989652 0.013226372 -0.015491232 0.0007556708 -0.024126967
-0.11097439 0.11188061 -0.11020828 0.15182345 -0.022920912 -0.02810816 -0.099948175 0.061810706
0.0011912413 -0.39356318 -0.2876708 -0.09129423 -0.019963525 -0.270048 -0.40964442 -0.13247278
-0.13276522 0.03956874 0.000887182 0.041453406 -0.009538736 0.10799563 0.0007609734 -0.044549603
-0.0005594625 -0.2811528 -0.33809426 0.1304361 0.019860215 0.06704278 -0.05917826 -0.23135705
-0.0845339 -0.029305499 -0.21279013 -0.5926633 -0.21650207 -0.1581307 -0.096398465 -0.09819125
-0.2803451 -0.16155382 -0.037012544 0.121140026 0.06852919 0.13248965 0.07024665 -0.16762967
-0.03656911 -0.11422021 -0.25980538 -0.5196835 -0.17516656 -0.27491042 -0.3270801 -0.22372343
-0.27784798 -0.2512645 -0.29534924 -0.16566223 -0.11694966 -0.15863222 0.03673593 0.13827808
0.28129357 0.37036178 0.06365174 0.121133596 0.1502397 0.11101544 0.0062271673 0.051117625
0.20367861 0.13070302 -0.04605616 -0.102236174 -0.24167791 0.1907649 0.2871672 0.040893823
-0.21672638 -0.011800446 0.052276958 0.042316724 -0.25493306 -0.2495945 -0.4492844 -0.16001917
-0.17218027 -0.43834564 -0.2868078 0.073022515 -0.029674223 0.13506924 -0.010172087 0.161493
0.075843655 0.013059911 -0.0016301126 -0.011793043 -0.0014799396 -0.20558651 -0.19189687 -0.015777968
-0.15013464 -0.2736901 -0.31345302 -0.26437557 -0.13865945 -0.27582288 -0.3932299 -0.08248626
-0.27144596 0.041998636 -0.061478507 -0.28139105 -0.124489106 -0.09819275 -0.060011975 -0.12367881
-0.24411236 -0.035029788 0.23727645 0.1963164 -0.0011089246 0.26824528 -0.11460662 -0.09041215
00000000: a516 363c eae8 033e 9474 08be a3d0 3fbe
00000010: 33c5 d6bd 03fa 893d 0247 92be 69c1 ebbe
00000020: 9645 acbe 3560 83be 667c 9bbd 6b4c 99be
00000030: 121f aabe 2b2d 32bd 4d79 893d 0974 90be
00000040: 1a69 873d 42be d33d f3b7 bdbc 90a4 f53d
00000050: 2adb 163e 1871 1e3c 65cc 243e 410b 643e
00000060: 1ecd b53d 4e8e 0bb9 e039 2d3b 89a8 233d
00000070: c827 8e3e b7fd aabc a7a7 d63d a13b 52be
00000080: e600 a9be 01e5 a7bd 83db 043e 7a44 47be
00000090: e455 bdbe 5255 d2bd 7c7b 993d 2167 7a3d
000000a0: 840c 203e 0c51 713b 5f99 403e 23fb e1bd
000000b0: 0b1b 433b 84da 803d 08b3 2d3e 53c6 df3d
000000c0: 2a1e 0d3e 5f0c 8bb9 c546 e8bd 36e2 48bb
000000d0: dd25 af3c 1827 5fbd 659f 57bd 7eba 3dbc
000000e0: 9fe9 7dbd 9abf a5be a57b c2be 5ace 5cbe
000000f0: 4f5c 4b3d c7de 87be f7fb 00bf 32d7 f23c
00000100: 79e5 e0bd e873 98bc 2646 d73d 6757 cfbd
00000110: 0be6 233e 5d4e bb3e 6db2 86bc 89de aebc
00000120: 9d7f 56bc 4cd9 cc3d fa44 07bc 69e3 b0bb
00000130: d728 933d 448c 953e 69a6 3ebb 4092 4ebe
00000140: 643e 88be dfd9 4fbe 535d b1bd 351f b8be
00000150: ccc7 533c 9684 28be 5920 c2bd 38b7 a7be
00000160: 7fbb 5bbe 1a38 8b3d a8a0 0f3d 7868 08be
00000170: c5b4 dfbd 09cb c8bd 67c9 af3d 36f5 e43d
00000180: 01e4 90bd b8b2 493e ee34 10be 368d 503c
00000190: d22a 173e 047b 413e e934 e63d e55f 01be
000001a0: a30f 4d3d d9d6 c43d 828d 06bd d27a 9bbe
000001b0: 5d0e 10bd a391 1ebd ac20 16bd 857d e5bd
000001c0: 11ad 8abe f985 37be 77c3 3d3b e9b4 863c
000001d0: ba14 aebd c871 d7bd aaaa 0abd 486b bebd
000001e0: 31cc bc3c 5392 b83d 09d7 babd 2811 853e
000001f0: 6db3 583c f0ce 7dbc 3518 463a eba5 c5bc
00000200: 8a46 e3bd a921 e53d e1b4 e1bd 9b77 1b3e
00000210: a3c4 bbbc 1543 e6bc a1b1 ccbd 392d 7d3d
00000220: 6d23 9c3a 1d81 c9be 9649 93be 78f8 babd
00000230: 8c8a a3bc bb43 8abe eabc d1be f2a6 07be
00000240: 9bf3 07be d512 223d c791 683a 0ccb 293d
00000250: 5c48 1cbc d02c dd3d 0f7c 473a a579 36bd
00000260: e5a8 12ba 43f3 8fbe b11a adbe 0a91 053e
00000270: e4b1 a23c ba4d 893d e764 72bd dde8 6cbe
00000280: 1c20 adbd 1612 f0bc a8e5 59be c8b8 17bf
00000290: b8b2 5dbe 04ed 21be 8f6c c5bd 7e18 c9bd
000002a0: 6589 8fbe 5d6e 25be 779a 17bd 4318 f83d
000002b0: 0859 8c3d 5eab 073e 7add 8f3d 1da7 2bbe
000002c0: 7ec9 15bd 49ec e9bd 3605 85be fa09 05bf
000002d0: dd5e 33be 0fc1 8cbe 0b77 a7be c117 65be
000002e0: 1742 8ebe bea5 80be 0438 97be 5ca3 29be
000002f0: 4e83 efbd 7c70 22be 6a78 163d c598 0d3e
00000300: b605 903e 0fa0 bd3e d85b 823d e414 f83d
00000310: 70d8 193e 105c e33d 440d cc3b b760 513d
00000320: 2091 503e 03d7 053e 62a5 3cbd 3361 d1bd
00000330: 6a7a 77be e057 433e 9407 933e 4880 273d
00000340: 85ed 5dbe a856 41bc 5d20 563d 4d54 2d3d
00000350: 9686 82be b395 7fbe 9b08 e6be 11dc 23be
00000360: 0650 30be d76e e0be 79d8 92be d48c 953d
00000370: 5b17 f3bc 974f 0a3e d3a8 26bc 6c5e 253e
00000380: eb53 9b3d 3df9 553c 81a9 d5ba 9c37 41bc
00000390: 88fa c1ba 4585 52be 9d80 44be cc40 81bc
000003a0: e5bc 19be 1c21 8cbe ea7c a0be 3c5c 87be
000003b0: befc 0dbe a838 8dbe 6e55 c9be 8eee a8bd
000003c0: f7fa 8abe c306 2c3d e3d0 7bbd 7d12 90be
000003d0: 25f4 febd 4819 c9bd 1ecf 75bd 514b fdbd
000003e0: 97f8 79be 657b 0fbd 99f8 723e 2b07 493e
000003f0: 5659 91ba 7257 893e e0b6 eabd 012a b9bd

layers_fc.0.0.weight f4 [128, 1024]
-0.039637856 -0.03777508 -0.06519691 -0.0045317155 0.037776023 -0.016377963 -0.083008744 -0.053930998
-0.019578679 -0.0739363 -0.015719078 0.120945826 -0.024476226 0.013978231 0.11954609 -0.11838561
-0.075344376 0.04765594 -0.08881894 -0.060752537 0.15517853 0.082568355 -0.07882934 0.031982172
0.08041655 0.07065998 0.008395353 -0.05348679 -0.021251634 -0.098480076 -0.017289916 0.10448795
0.015235532 0.050706875 -0.02466551 -0.034027692 0.05135806 0.008694861 -0.087155715 0.09452728
0.16709791 0.053183127 -0.052736383 0.12165371 0.041278534 0.08217775 -0.04096513 0.009801599
0.06570755 0.077625796 -0.022761248 -0.060068086 0.10085397 0.08275445 0.05131179 0.02450768
-0.0052778544 -0.04283525 -0.016416728 -0.052104086 0.017314823 0.002972147 -0.004373925 0.05285702
0.047427375 0.066008285 0.009996436 0.013641622 0.012093585 0.052775756 0.10048876 0.017674878
-0.012407634 -0.0047105425 0.03584363 0.0057201516 0.0495521 0.030324217 -0.025442066 0.056498084
0.2441426 -0.07290595 -0.059616607 -0.0935561 0.17798245 0.06113031 -0.041071396 -0.077237315
0.011387154 0.18105784 0.017712072 -0.0025927036 -0.01943613 -0.03994359 -0.017445108 0.017110271
0.120430045 0.13746187 -0.0532714 -0.0016798794 0.09048229 -0.021237103 -0.08162219 -0.016202135
0.32438457 -0.05227409 0.049965702 0.0005568037 0.32916385 -0.0102363825 -0.05656601 0.022830436
0.104960516 -0.022114705 -0.0206728 0.056698255 0.2761752 -0.05016131 0.0112368325 -0.017988764
-0.002121913 0.14634873 0.060870003 0.038142376 -0.021025885 -0.08251178 -0.06490561 0.028855793
0.083050676 0.21312612 -0.009099526 -0.0986412 -0.0033284633 0.03331042 -0.09111225 -0.122064225
0.013479995 -0.06811373 -0.0033064564 0.06349205 0.07677203 -0.028366247 -0.05123958 0.018850807
0.010307344 0.045274664 0.02920967 0.054416902 -0.007188399 0.060051497 0.00017651104 0.15207666
-0.12743701 -0.00974779 -0.044826087 0.15224265 -0.040956315 0.05992269 -0.007052759 0.010206935
-0.09499046 -0.026240647 -0.00916019 0.09375733 -0.053861868 0.036094453 0.008065843 -0.004781578
0.023527453 0.07043961 0.12872617 0.014360448 0.091662936 -0.076417215 -0.029710742 0.045307823
-0.07611951 0.029943727 -0.02227676 0.12009662 -0.03738421 0.029820621 -0.01663933 0.21882425
-0.04071069 -0.040915325 -0.011526433 0.019203119 0.02191493 0.038052026 -0.028541848 0.08917553
-0.014426353 0.00844316 -0.049858265 -0.029266072 0.117112316 -0.069940165 -0.042207517 0.011675472
0.11300959 0.039481826 0.012853928 -0.03693791 -0.030804658 -0.008738525 -0.031136954 -0.018690616
0.046596773 0.07643724 0.04549551 -0.029036468 0.18855287 0.0052489387 -0.028698873 0.10452983
0.051446963 -0.03385511 0.028138688 0.08370007 -0.009682901 -0.0082160765 0.030218776 0.044714905
-0.046291474 -0.022353906 -0.016582016 0.022738311 0.004824355 0.03222477 0.06008134 0.039316043
0.28129655 0.11171989 0.0058820294 -0.07590573 -0.14936538 0.116804816 -0.028950911 -0.01876214
-0.026015038 -0.053252935 -0.09157521 -0.018636076 -0.06823588 0.018153183 -0.068814926 0.1420688
-0.023204405 -0.0028638977 0.04081327 -0.0052570333 0.09221234 0.1494727 0.09488125 -0.012642789
00000000: 4e5b 22bd 0bba 1abd f585 85bd c97e 94bb
00000010: 08bb 1a3d 142b 86bc 7d00 aabd c0e6 5cbd
00000020: 7763 a0bc ea6b 97bd 4cc5 80bc 72b2 f73d
00000030: 5e82 c8bc f304 653c 95d4 f43d 2874 f2bd
00000040: 274e 9abd e032 433d b4e6 b5bd a7d7 78bd
00000050: 1fe7 1e3e 9919 a93d 4771 a1bd bdff 023d
00000060: 6fb1 a43d 2eb6 903d aa8c 093c f714 5bbd
00000070: e817 aebc ecaf c9bd 95a3 8dbc c7fd d53d
00000080: 749e 793c 03b2 4f3d 530f cabc 9f60 0bbd
00000090: d45c 523d e474 0e3c b27e b2bd 8597 c13d
000000a0: b71b 2b3e 8dd6 593d 1b02 58bd 9525 f93d
000000b0: ae13 293d cf4c a83d 0dcb 27bd e396 203c
000000c0: ae91 863d 46fa 9e3d cc75 babc f409 76bd
000000d0: 878c ce3d 2a7b a93d 502c 523d 55c4 c83c
000000e0: daf1 acbb 0474 2fbd 607c 86bc 186b 55bd
000000f0: d1d7 8d3c 5ac8 423b 2453 8fbb 9a80 583d
00000100: 3543 423d 5a2f 873d 17c8 233c 1c81 5f3c
00000110: 2c24 463c 642b 583d 0dcd cd3d e8ca 903c
00000120: 6449 4bbc e55a 9abb c5d0 123d 1c70 bb3b
00000130: 25f7 4a3d 7e6a f83c e16b d0bc 896a 673d
00000140: 8500 7a3e b74f 95bd 8b30 74bd 579a bfbd
00000150: 0841 363e c763 7a3d 7b3a 28bd 992e 9ebd
00000160: 3091 3a3c 3a67 393e e818 913c 59ea 29bb
00000170: 8538 9fbc e49b 23bd 0be9 8ebc d72a 8c3c
00000180: 07a4 f63d cec2 0c3e 1d33 5abd 662f dcba
00000190: c74e b93d 6ff9 adbc 8929 a7bd 57ba 84bc
000001a0: bc15 a63e 5b1d 56bd d6a8 4c3d 77f6 113a
000001b0: 2a88 a83e 80b6 27bc c3b1 67bd e506 bb3c
000001c0: 8af5 d63d e629 b5bc 015a a9bc 6e3c 683d
000001d0: d666 8d3e f275 4dbd b11a 383c 2c5d 93bc
000001e0: cb0f 0bbb 71dc 153e d352 793d 2e3b 1c3d
000001f0: 7a3e acbc f0fb a8bd 3ced 84bd fc62 ec3c
00000200: 7916 aa3d bc3d 5a3e 2e16 15bc 6604 cabd
00000210: 5922 5abb 8270 083d 0f99 babd cffc f9bd
00000220: 32db 5c3c 367f 8bbd 22b1 58bb 1f08 823d
00000230: a73a 9d3d 5560 e8bc 98e0 51bd 026d 9a3c
00000240: 22e0 283c ed71 393d 1e49 ef3c 42e4 5e3d
00000250: a98c ebbb 8ff8 753d d215 3939 fcb9 1b3e
00000260: d97e 02be 32b5 1fbc 8f9b 37bd 7fe5 1b3e
00000270: cfc1 27bd 7f71 753d d51a e7bb fd3a 273c
00000280: 5c8a c2bd a0f6 d6bc 9f14 16bc d803 c03d
00000290: 439e 5cbd c7d7 133d 9926 043c c9ae 9cbb
000002a0: a5bc c03c a442 903d cbd0 033e 1648 6b3c
000002b0: c7b9 bb3d a180 9cbd f163 f3bc b294 393d
000002c0: 8ce4 9bbd 8c4c f53c c07d b6bc 37f5 f53d
000002d0: 2f20 19bd 604a f43c 344f 88bc 7713 603e
000002e0: 41c0 26bd d496 27bd 5dd9 3cbc dc4f 9d3c
000002f0: f086 b33c 71dc 1b3d 98d0 e9bc a9a1 b63d
00000300: 835c 6cbc 2e55 0a3c 2e38 4cbd 67bf efbc
00000310: 95d8 ef3d ca3c 8fbd cae1 2cbd 7b4a 3f3c
00000320: 9271 e73d b2b7 213d 4899 523c 354c 17bd
00000330: 0d5a fcbc 082c 0fbc ed12 ffbc 101d 99bc
00000340: 42dc 3e3d 218b 9c3d 8059 3a3d e3dd edbc
00000350: 0114 413e 4aff ab3b e619 ebbc bc13 d63d
00000360: 0dba 523d a8ab 0abd 1b83 e63c f16a ab3d
00000370: 08a5 1ebc b99c 06bc 5e8d f73c fa26 373d
00000380: 219c 3dbd 8a1f b7bc 02d7 87bc b245 ba3c
00000390: 9f15 9e3b 1ffe 033d da17 763d dc09 213d
000003a0: 1a06 903e 66cd e43d 0abe c03b 7774 9bbd
000003b0: 3df3 18be 5d37 ef3d 762a edbc 0fb3 99bc
000003c0: 7d1d d5bc c01f 5abd c98b bbbd afaa 98bc
000003d0: 41bf 8bbd fcb5 943c d7ee 8cbd 7c7a 113e
000003e0: 2a17 bebc 3bb0 3bbb d12b 273d 3143 acbb
000003f0: d3d9 bc3d 5f0f 193e 1a51 c23d b323 4fbc

layers_fc.1.0.weight f4 [10, 128]
-0.12221448 -0.0089539075 0.07725686 -0.17957188 0.033404063 0.0041179117 -0.014441171 0.035310104
-0.15623493 -0.14719193 0.028022584 0.0018169922 0.017362172 -0.04949726 -0.23973739 -0.025300412
-0.015863264 -0.089391306 0.008266706 -0.12758249 0.13362588 0.011609413 0.051427756 -0.0069835703
-0.06875743 0.107899494 0.013601567 -0.042575218 -0.14105424 -0.3245516 -0.18056253 -0.010956406
-0.050206013 -0.13577099 -0.05688296 0.11774104 -0.0004485984 0.003932138 -0.022814188 0.042102512
-0.016087908 -0.22593153 0.0029964347 0.00057766505 0.06066844 0.039422147 0.071629465 -0.014775295
-0.0011696566 -0.1546204 -0.12280288 0.15181969 0.06466847 -0.13082592 0.01735721 0.1112135
-0.061225306 0.048058152 0.033757746 -0.15104173 0.14966047 -0.101238854 0.0141759645 0.03912
0.13221976 -0.012157098 -0.14769964 -0.0006574256 -0.094069526 0.08879284 0.010214074 -0.44417232
-0.25826582 0.04795014 -0.0002559614 -0.21597622 -0.23356369 -0.0053817374 0.10120963 -0.20573875
0.08925814 0.08424064 -0.10381397 0.070837826 0.020013742 0.06434679 -0.2222702 0.09374772
0.007659662 0.10268854 0.02930132 -0.12631853 -0.29598087 -0.3973987 0.06336793 -0.20914935
-0.003587216 0.08087292 -0.13654338 -0.05046636 -0.2823934 0.035920415 -0.046412293 -0.11273621
-0.12629813 0.080899425 0.05386202 0.045227345 0.021145873 0.039413117 -0.011761864 0.092889205
0.17721726 0.10908599 -0.17911649 0.0010521258 0.06769176 0.05249317 -0.06286457 -0.26272115
-0.008469177 -0.116798975 0.037532516 0.0028899065 -0.011004177 -0.25244644 -0.31199953 -0.0069640824
-0.011286866 -0.0003756626 -0.11690539 -0.0776839 -0.057553805 -0.010044749 -0.071265765 -0.10628741
-0.037138816 -0.1645709 -0.024655199 -0.2613212 0.005043075 0.21252115 0.053672753 -0.04709358
0.15818994 -0.13321021 0.047725618 -0.12347914 0.070106536 -0.13579948 0.007335933 -0.0803644
-0.08286529 -0.24159117 0.027855266 -0.02776672 -0.047108624 0.08015116 0.021309758 -0.01714236
-0.14446305 -0.00022376108 0.007184878 0.16361392 -0.011390538 0.002900754 -0.06092784 -0.07839389
0.0372869 0.043429334 -0.024293283 0.11522191 0.12692192 -0.093466215 0.069682084 0.0021837505
0.0062842667 0.07485481 -0.0022730522 0.03289865 0.06950629 0.13542125 -0.1759675 -0.056258082
-0.22984529 -0.47463554 -0.038408615 0.064370826 0.20683047 -0.005567895 0.04040659 0.030419428
0.06868417 0.002264343 0.046663538 -0.0015126931 -0.00035555914 -0.20258778 0.0011124724 0.03815397
0.12386515 -0.19144048 0.012763522 0.12025979 -0.112857886 -0.17925702 0.10252327 -0.15491417
-0.003455182 -0.055246092 0.010439747 -0.20368591 -0.15178132 -0.30377936 -0.085302055 -0.04188792
0.031045182 -0.04478455 -0.059047446 0.17214985 0.02059782 -0.130355 0.09005632 0.10794292
-0.054009456 -0.06830923 -0.03542309 0.011255814 -0.046677776 -0.12009382 -0.17666396 0.13267791
-0.11194272 0.07109118 -0.18833432 -0.0370201 -0.19715284 0.031204563 0.007665691 -0.13784486
0.011308605 0.074328735 0.020931013 -0.2535011 -0.013178126 -0.27421692 0.014054193 0.077463195
-0.026838955 0.035388123 -0.1325673 -0.13478658 -0.054068808 0.07071948 0.048353676 0.004955041
00000000: 964b fabd 69b3 12bc d838 9e3d b1e1 37be
00000010: b3d2 083d 8cef 863b a99a 6cbc 54a1 103d
00000020: 0dfc 1fbe 7bb9 16be 9e8f e53c 2428 ee3a
00000030: 1d3b 8e3c a4bd 4abd b87d 75be cf42 cfbc
00000040: adf3 81bc ca12 b7bd 1471 073c fca4 02be
00000050: 39d5 083e 6835 3e3c e9a5 523d 6fd6 e4bb
00000060: b2d0 8cbd 69fa dc3d 1bd9 5e3c 5a63 2ebd
00000070: 8670 10be a12b a6be 62e5 38be 7f82 33bc
00000080: d2a4 4dbd 8d07 0bbe 1bfe 68bd 3722 f13d
00000090: dc31 ebb9 2ad9 803b d2e4 babc af73 2c3d
000000a0: caca 83bc 985a 67be d55f 443b 726e 173a
000000b0: 787f 783d 1e79 213d 78b2 923d 1414 72bc
000000c0: 2a4f 99ba cf54 1ebe 1480 fbbd 9f76 1b3e
000000d0: e770 843d 3bf7 05be b530 8e3c e7c3 e33d
000000e0: 63c7 7abd a0d8 443d 9045 0a3d afaa 1abe
000000f0: 9840 193e 5156 cfbd 4e42 683c 4b3c 203d
00000100: 9e64 073e 912e 47bc 933e 17be 1657 2cba
00000110: 86a7 c0bd 05d9 b53d ee58 273c 8e6a e3be
00000120: 6b3b 84be 5e67 443d 8f32 86b9 df28 5dbe
00000130: 522b 6fbe 4959 b0bb ff46 cf3d 2ead 52be
00000140: f9cc b63d 5b86 ac3d 6b9c d4bd 6c13 913d
00000150: dcf3 a33c 40c8 833d cd9a 63be cefe bf3d
00000160: e7fd fa3b 5f4e d23d 5209 f03c a559 01be
00000170: ce8a 97be d877 cbbe 0cc7 813d 3f2b 56be
00000180: 7f17 6bbb b4a0 a53d 07d2 0bbe d0b5 4ebd
00000190: de95 90be 4921 133d d11a 3ebd 3ee2 e6bd
000001a0: 4c54 01be 99ae a53d 6c9e 5c3d 4f40 393d
000001b0: 1c3a ad3c a66f 213d d5b4 40bc b23c be3d
000001c0: 7178 353e 7a68 df3d 506a 37be 7ce7 893a
000001d0: faa1 8a3d 1403 573d 24bf 80bd 6383 86be
000001e0: 4ec2 0abc 4d34 efbd b2bb 193d 9664 3d3b
000001f0: dd4a 34bc a940 81be 67be 9fbe f532 e4bb
00000200: 8cec 38bc 95f4 c4b9 186c efbd bd18 9fbd
00000210: 8abd 6bbd bb92 24bc c9f3 91bd 37ad d9bd
00000220: df1e 18bd 4685 28be b3f9 c9bc e4cb 85be
00000230: 6140 a53b 259f 593e f6d7 5b3d 33e5 40bd
00000240: 8bfc 213e 4268 08be f07b 433d a2e2 fcbd
00000250: 0494 8f3d 050f 0bbe 4462 f03b 1796 a4bd
00000260: 47b5 a9bd ad63 77be ba30 e43c 0877 e3bc
00000270: f9f4 40bd 4b26 a43d cd91 ae3c 226e 8cbc
00000280: 1fee 13be 68a1 6ab9 206f eb3b 688a 273e
00000290: 619f 3abc 941a 3e3b 798f 79bd fa8c a0bd
000002a0: 26ba 183d f5e2 313d b502 c7bc 77f9 eb3d
000002b0: d2f7 013e 376b bfbd 7bb5 8e3d 411d 0f3b
000002c0: 40ec cd3b 7b4d 993d 7df7 14bb bcc0 063d
000002d0: 5059 8e3d deab 0a3e d330 34be e06e 66bd
000002e0: 905c 6bbe 6e03 f3be 5a52 1dbd dad4 833d
000002f0: 5ecb 533e e372 b6bb 6181 253d 2a32 f93c
00000300: 49aa 8c3d 5f65 143b 4422 3f3d 8f45 c6ba
00000310: 576a bab9 2c73 4fbe 61d0 913a 5647 1c3d
00000320: 03ad fd3d f908 44be 171e 513c c44a f63d
00000330: 0922 e7bd 278f 37be b8f7 d13d d2a1 1ebe
00000340: 5670 62bb ba49 62bd 790b 2b3c 0a93 50be
00000350: 906c 1bbe f888 9bbe d8b2 aebd ab92 2bbd
00000360: 7752 fe3c 0170 37bd bcdb 71bd 0d48 303e
00000370: c2bc a83c c87b 05be 736f b83d 2d11 dd3d
00000380: 0539 5dbd b6e5 8bbd cd17 11bd 4e6a 383c
00000390: 3231 3fbd c0f3 f5bd 66e7 34be b8dc 073e
000003a0: 3a42 e5bd 4198 913d b6da 40be 63a2 17bd
000003b0: 6fe2 49be b6a0 ff3c 7a30 fb3b 3427 0dbe
000003c0: ba47 393c aa39 983d 8477 ab3c e5ca 81be
000003d0: 11e9 57bc 2966 8cbe 8f43 663c 06a5 9e3d
000003e0: 5edd dbbc 23f3 103d b9bf 07be 7e05 0abe
000003f0: 4177 5dbd 60d5 903d 810e 463d e65d a23b
