mlp/ANN/seed2/network.pth (torch, 473735 bytes, 3 tensors)

layers.0.0.weight f4 [128, 784]
0	0x3d0eb044	0.03483607
1	0x3e307afc	0.17234415
2	0x3c306587	0.0107663935
3	0xbdc29efc	-0.0950298
4	0x3cddd655	0.02707974
5	0xbc07b02f	-0.008281752
6	0xbde5cb10	-0.11220372
7	0xbd3ad9fb	-0.04561804
8	0xbcb7a83c	-0.022419088
9	0x3dc04489	0.09388072
10	0xbdf78c4b	-0.12087306
11	0xbda2ebeb	-0.07955154
12	0x3d97ffed	0.07421861
13	0xbe1ed785	-0.15511902
14	0xbe82e489	-0.25564983
15	0x3de76cf9	0.11300082
16	0xbe051abb	-0.12998478
17	0x3ddbff9f	0.10742115
18	0xbd306ce6	-0.043072604
19	0xbd5ed483	-0.054401886
20	0xbd2a147c	-0.04152344
21	0xbdea7ed7	-0.11449974
22	0xbd41a4e1	-0.04727638
23	0x3c28f1e1	0.010311575
24	0xbe0b543b	-0.1360635
25	0xbdb85f83	-0.090025924
26	0x3da35377	0.07974904
27	0xbe4ebbf3	-0.20188884
28	0xbddeaf22	-0.10873248
29	0x3dd8c7c3	0.105849765
30	0x3d41bb3e	0.04729771
31	0x3e7d731f	0.24750946
32	0x3d80a55e	0.06281541
33	0xbca9b36f	-0.020715443
34	0xbdd784d2	-0.1052338
35	0x3dbf45f4	0.093395144
36	0xbde0dab2	-0.10979213
37	0xbd220650	-0.0395568
38	0xbdae6b23	-0.085165285
39	0xbdb3e05f	-0.0878303
40	0x3e1cd1e3	0.1531444
41	0x3e084dd2	0.13310936
42	0xbd89309d	-0.066987254
43	0x3d9f0deb	0.077663265
44	0x3e22a639	0.15883721
45	0xbcabc07a	-0.020965803
46	0x3d11743c	0.03551124
47	0xbe0b78e8	-0.13620341
48	0xbd8912ab	-0.06693014
49	0x3ddb8165	0.107180394
50	0x3d93d1c2	0.072177425
51	0xbd992c44	-0.07479146
52	0x3d96a4e8	0.07355672
53	0xbd764117	-0.06012067
54	0xbdf1f1ed	-0.11813722
55	0x3cfa1a28	0.03053005
56	0xbded4280	-0.115849495
57	0xbb112f87	-0.0022153573
58	0xbd983ad7	-0.07433098
59	0xbe1ce42a	-0.15321413
60	0xbe65730b	-0.22407167
61	0xbd6f39d8	-0.058404773
62	0xbe03d494	-0.12874061
63	0x3c906612	0.017626796
64	0xbda19c9b	-0.07891198
65	0x3d34f085	0.04417469
66	0xbe5ce1e8	-0.21570551
67	0xbd2f8dff	-0.042860027
68	0xbe4a1258	-0.1973356
69	0xbe876d42	-0.26450545
70	0xbe3a58d0	-0.18197942
71	0x3e38a5c3	0.18031983
72	0xbe90daa5	-0.28291813
73	0xbe56cb87	-0.20976077
74	0x3d30bde9	0.043149862
75	0xbd9d0f76	-0.076689646
76	0x3dd525a4	0.1040757
77	0xbb823b71	-0.003974371
78	0x3e549cc5	0.20762928
79	0x3e3fddcc	0.18736953
80	0xbc7f66ad	-0.015588445
81	0x3e32124d	0.17389794
82	0xbe2f578f	-0.17123245
83	0xbc8803fd	-0.016603464
84	0x3e035748	0.12826264
85	0x3e5dc530	0.21657252
86	0xbdb7ef22	-0.08981158
87	0xbc489e50	-0.012244776
88	0x3df4204d	0.119202234
89	0x3e6cc51a	0.23122063
90	0x3e07f799	0.13278045
91	0x3e0d7f98	0.13818204
92	0x3e05f7ae	0.13082764
93	0x3df0d61e	0.117595896
94	0x3e8504af	0.25980136
95	0xbc053f62	-0.008132787
96	0xbd58c9eb	-0.05292694
97	0xbdcb42da	-0.0992486
98	0xbd084f59	-0.033278797
99	0x3c346349	0.01101
100	0x3d740922	0.059579022
101	0xbea4483f	-0.3208637
102	0xbb922b58	-0.0044607334
103	0xbddc1e88	-0.10748011
104	0x3b056cf7	0.0020359138
105	0x3c8bb8bf	0.017055867
106	0xbd9b44aa	-0.07581456
107	0xbd4608fd	-0.048348416
108	0x3e8eb3ff	0.278717
109	0xbd648ec2	-0.055800207
110	0x3ba2a169	0.0049630892
111	0x3b56b965	0.0032764312
112	0x3d7aae92	0.06120164
113	0x3d61f743	0.055167448
114	0xbe91e48c	-0.2849468
115	0x3e193174	0.14960271
116	0xbcda7cda	-0.026670862
117	0x3c315e9f	0.010825782
118	0x3c2d7b15	0.010588427
119	0x3c9d1ebe	0.019179698
120	0x3c0c9bce	0.008582069
121	0xbe002d83	-0.12517361
122	0xbdb68ea4	-0.08913925
123	0x3e6f9171	0.23395325
124	0xbe1702f3	-0.14747219
125	0xbe456e47	-0.19280349
126	0x3d84a7ac	0.06477293
127	0xbe581b1a	-0.21104088
128	0xbd231aa4	-0.03982033
129	0x3d914303	0.070928596
130	0x3d290db0	0.04127282
131	0x3dbb248f	0.091378324
132	0x3e434d05	0.1907235
133	0xbb93a54a	-0.004505788
134	0x3e8b5b43	0.27218065
135	0x3db73aed	0.08946786
136	0xbbdc6866	-0.0067263125
137	0xbd7112b9	-0.058855746
138	0x3e0c02de	0.13672969
139	0xbdeabbdd	-0.11461613
140	0x3e06fd87	0.1318265
141	0xbc1ed019	-0.009693169
142	0xbdca7e0a	-0.09887321
143	0x3e23877a	0.15969649
144	0x3d4c3e93	0.049864363
145	0xbc4a4a45	-0.012346809
146	0x3dd29b0f	0.10283481
147	0xbcc4dd53	-0.024031317
148	0xbd432968	-0.04764691
149	0x3d5492f6	0.051897965
150	0x3cf8327a	0.030297507
151	0x3db758c8	0.089524806
152	0x3ea34cb3	0.31894454
153	0xbdd0ca9b	-0.10194894
154	0xbdb60c7b	-0.08889099
155	0x3db618e2	0.08891465
156	0x3e1dc9d4	0.15409023
157	0x3d610207	0.054933574
158	0x3d6abc53	0.057308506
159	0x3e517e43	0.20458321
160	0x3d2f7f92	0.04284627
161	0x3e81ae6f	0.25328395
162	0x3d0755c5	0.03304078
163	0xbd8ac369	-0.06775553
164	0xbcc55853	-0.024089968
165	0x3da9afb3	0.08285465
166	0x3dc18765	0.094496526
167	0xbde3a6dc	-0.1111581
168	0xbe16b30f	-0.14716743
169	0x3df2e8f8	0.118608415
170	0x3ecdb1a6	0.40174598
171	0xbd9b6c95	-0.0758907
172	0xbdbc00e5	-0.09179858
173	0x3c5c2817	0.013437293
174	0x3d0b82a0	0.03406012
175	0xbcbd37c8	-0.023097888
176	0x3e166906	0.14688501
177	0x3e21aad5	0.15787823
178	0x3ec9b4ee	0.3939585
179	0xbd8c931e	-0.06863998
180	0x3c7c463f	0.015397607
181	0x3e39e0e5	0.18152197
182	0x3c8a59a9	0.016888456
183	0x3cde239d	0.027116591
184	0xbe2cd8aa	-0.16879526
185	0x3db05c13	0.08611312
186	0x3e24b6f4	0.16085416
187	0xbc954f04	-0.018226154
188	0x3e1b5e7c	0.15172762
189	0xbcb3dfba	-0.021957267
190	0x3d40f659	0.047109935
191	0x3dd4971a	0.10380383
192	0x3df4d90f	0.11955463
193	0x3d9aca9a	0.075581744
194	0x3e3a676c	0.18203515
195	0x3dd22628	0.10261184
196	0x3cfa641d	0.030565316
197	0x3ddc9cb7	0.107720785
198	0x3ea02eca	0.31285697
199	0xbdf7366d	-0.12070928
200	0xbe67417c	-0.22583574
201	0x3e83b3fd	0.25723258
202	0x3e267278	0.16254604
203	0x3dc25ea7	0.0949071
204	0x3e4be498	0.1991142
205	0xbc8045d7	-0.015658302
206	0x3e1f0edc	0.15533012
207	0x3e054e86	0.13018236
208	0xbe38ae38	-0.18035209
209	0xbd08f961	-0.03344095
210	0x3e658603	0.22414403
211	0x3c2936aa	0.010327974
212	0x3e2321e8	0.15930903
213	0x3c30c23d	0.0107884975
214	0xbc4683ee	-0.012116415
215	0x3c0f4fb2	0.008747028
216	0x3dbfcc0f	0.09365093
217	0x3dbb2094	0.09137073
218	0xbe6f2c00	-0.23356628
219	0xbd6b99ed	-0.057519842
220	0xbe80078e	-0.25005764
221	0x3d42261d	0.04739963
222	0x3d72f49d	0.059315313
223	0x3dd30298	0.10303229
224	0xbcae5a11	-0.021283181
225	0x3d735ba3	0.059413563
226	0x3e8c29eb	0.2737573
227	0x3c15536b	0.009114127
228	0xbe5e96cb	-0.2173721
229	0xba2538dd	-0.0006302724
230	0xbe248703	-0.16067128
231	0xbdeed237	-0.11661189
232	0xbd339937	-0.04384729
233	0xbde6c85b	-0.112686835
234	0x3d15e30b	0.03659348
235	0x3df69a8c	0.12041196
236	0x3e0fba74	0.1403597
237	0x3d98668b	0.074414335
238	0x3ecd5b6c	0.40108812
239	0x3e5480d4	0.20752269
240	0xbca572eb	-0.020196399
241	0xbdb8d635	-0.09025232
242	0xbe51ffb4	-0.20507699
243	0x3d902f00	0.070402145
244	0x3c908bdd	0.017644817
245	0xbdd81c36	-0.10552256
246	0x3d4fa649	0.05069569
247	0x3cc0ddd5	0.023543278
248	0x3deac4bd	0.11463306
249	0xbba756d1	-0.005106785
250	0x3dc98e91	0.098416455
251	0x3e419778	0.18905437
252	0xbc548381	-0.012970806
253	0xbd96f69d	-0.073712565
254	0x3e6ffc66	0.23436126
255	0x3c3193dc	0.010838475

layers.1.0.weight f4 [128, 128]
0	0x3e498b42	0.19682029
1	0xbe739f79	-0.23791303
2	0x3dfd5e3d	0.1237149
3	0x3e002cec	0.12517136
4	0x3cadf6aa	0.021235783
5	0x3d0339ec	0.03203766
6	0xbdc4b303	-0.09604456
7	0xbe21ed39	-0.1581315
8	0x3e08adbc	0.13347524
9	0xbdd26cb9	-0.102746435
10	0x3d887a18	0.066639125
11	0x3dda3552	0.10654701
12	0xbdea0ed6	-0.11428611
13	0x3ec54a9b	0.38533482
14	0xbde73bf8	-0.11290735
15	0x3e82d947	0.25556394
16	0x3dffd7f8	0.12492365
17	0xbb1483fc	-0.0022661677
18	0x3dce4812	0.1007234
19	0xbe5d503d	-0.2161264
20	0xbccefdee	-0.025267567
21	0x3e14d43d	0.14534087
22	0xbe10cf5c	-0.14141601
23	0xbe5256ae	-0.20540878
24	0xbeb9e55d	-0.36307803
25	0xbe0b3773	-0.13595371
26	0x3d5fa4ce	0.05460053
27	0xbdfd3671	-0.123638995
28	0x3d75919b	0.059953313
29	0x3e967af9	0.29390696
30	0x3e11fd1c	0.1425671
31	0xbe8dd7a5	-0.27703586
32	0xbe72e57b	-0.23720352
33	0xbe15fda8	-0.14647543
34	0x3ca7981f	0.02045828
35	0x3e619741	0.22030355
36	0x3d7875e9	0.060659323
37	0x3e2c67e6	0.16836509
38	0x3c869896	0.01643018
39	0xbd9c70c6	-0.07638697
40	0xbe083dec	-0.13304871
41	0xbe24cd76	-0.16094002
42	0x3e5c17fa	0.21493521
43	0x3e8560db	0.26050457
44	0x3cd010e4	0.02539868
45	0x3dd27d8b	0.10277852
46	0xbecb7fa0	-0.39745808
47	0x3d1b7a3e	0.037958376
48	0x3dd6f8f2	0.10496701
49	0xbe119b62	-0.1421943
50	0xbe4e3e48	-0.20140946
51	0x3e5e68fa	0.21719733
52	0x3e4ce577	0.20009409
53	0x3e334784	0.1750775
54	0xbdeba85b	-0.11506721
55	0x3eb0d41e	0.34536833
56	0xbce04c97	-0.02738027
57	0x3e5d0661	0.21584465
58	0x3cb98c63	0.02264995
59	0xbd3163c3	-0.04330803
60	0x3e9847f4	0.29742396
61	0xbdc8ac1b	-0.097984515
62	0xbdc2d110	-0.09512532
63	0xbdd2bb51	-0.10289634
64	0xbe65ae9b	-0.22429888
65	0xbd359cfc	-0.044339165
66	0xbcdaec9a	-0.026724149
67	0xbcb21cb0	-0.021742195
68	0x3c7a9752	0.015294867
69	0x3d6c9431	0.057758514
70	0x3d650297	0.055910673
71	0xbcad9b89	-0.021192329
72	0x3ddb0bc6	0.10695605
73	0xbdf41f08	-0.11919981
74	0xbd9e1869	-0.077194996
75	0x3e8a4742	0.2700749
76	0x3e395cee	0.18101856
77	0xbbd3cf4e	-0.0064639216
78	0xbd49912e	-0.04921072
79	0xbc2381f3	-0.009979713
80	0x3d1ef515	0.038807947
81	0x3bd31401	0.0064415936
82	0x395f863a	0.0002131694
83	0x3e2df117	0.169865
84	0xbd3872de	-0.04503142
85	0x3e177aa4	0.14792877
86	0x3d390a46	0.045175813
87	0x3e16bd1c	0.14720577
88	0xbd4cb9fa	-0.04998205
89	0x3dad8467	0.08472519
90	0x3e18c4f1	0.14918877
91	0xbd61b255	-0.05510171
92	0xbe25f627	-0.16207181
93	0x3d3efaa7	0.04662576
94	0x3d6dd449	0.05806378
95	0xbcd11f81	-0.025527718
96	0xbe1a7233	-0.15082626
97	0xbd57c3e3	-0.052677047
98	0x3e1c92df	0.15290402
99	0xbd70b0b1	-0.058762256
100	0xbcdd0720	-0.026980937
101	0x3d0f4e07	0.034986522
102	0x3e156da8	0.14592612
103	0x3be7f57c	0.0070788246
104	0x3e08e7ca	0.1336967
105	0xbe809177	-0.2511098
106	0x3e386c35	0.18010028
107	0x3d7047f8	0.058662385
108	0x3e268640	0.1626215
109	0x3e2562d4	0.16150981
110	0xbb42efc9	-0.0029744974
111	0xbdc095f7	-0.094036035
112	0x3de3f533	0.111307524
113	0x3c4f2529	0.012643137
114	0xbd2eb88c	-0.042656466
115	0x3e240b04	0.16019827
116	0x3cc20a1d	0.023686463
117	0x3e2c078d	0.16799755
118	0x3d51091a	0.05103407
119	0x3dc7d3d4	0.097572
120	0xbe107369	-0.14106525
121	0xbde29fbd	-0.11065624
122	0x3e53c2e2	0.2067981
123	0x3e549929	0.20761551
124	0x3d3009b6	0.04297801
125	0xbdcb4201	-0.099246986
126	0xbd5a0ebc	-0.053236708
127	0xbeb258b1	-0.3483329
128	0x3e4cdc8b	0.20006005
129	0xbe8f6055	-0.28003183
130	0x3e662417	0.22474705
131	0xbe3057c3	-0.17220978
132	0x3d6c1143	0.05763365
133	0xbde69377	-0.112585954
134	0x3dd27dfb	0.10277935
135	0xbdd81410	-0.105507016
136	0x3d1625f4	0.03665729
137	0xbe2b8112	-0.16748455
138	0x3c63cda1	0.013904006
139	0xbd802fb5	-0.062590994
140	0x3e2776cd	0.16353913
141	0xbd304f43	-0.04304434
142	0xbe49cc47	-0.19706832
143	0x3d8915ea	0.06693633
144	0xbd8335f9	-0.06406779
145	0xbe24ab1e	-0.16080901
146	0xbe099614	-0.13436157
147	0x3d96b5e4	0.07358912
148	0xbd8df8b5	-0.06932203
149	0x3e454170	0.19263244
150	0xbe17d653	-0.14827852
151	0xbd27053e	-0.040776484
152	0x3e0412d2	0.12897804
153	0xbda74a5c	-0.0816848
154	0xbe71e01f	-0.23620652
155	0xbd53fc89	-0.05175451
156	0xbe49b357	-0.19697319
157	0x3e85775c	0.26067626
158	0x3dc3372f	0.0953201
159	0x3e8fbf5f	0.28075692
160	0x3ecfd5e8	0.40592885
161	0x3cb9795e	0.02264088
162	0x3db8ea2d	0.090290405
163	0xbdd253e1	-0.10269905
164	0xbd600433	-0.054691505
165	0xbe2db5ee	-0.16963932
166	0xbc9660e9	-0.018356757
167	0xbdb3f92b	-0.087877594
168	0xbe8b17e6	-0.2716667
169	0x3e9c3844	0.30511677
170	0xbe35fe5f	-0.17772816
171	0x3e42cf4c	0.1902439
172	0x3c552f61	0.013011784
173	0xbe0de9b5	-0.13858683
174	0xbf002acd	-0.5006531
175	0x3d671753	0.056418728
176	0xbd4d8259	-0.050173137
177	0xbdba54c3	-0.09098198
178	0x3db3e2cb	0.08783492
179	0x3e3c5f05	0.18395622
180	0x3e65992e	0.22421715
181	0xbeba115c	-0.3634137
182	0x3dd8dc5f	0.105889075
183	0x3d7c4a18	0.0615941
184	0x3dd0f38b	0.10202702
185	0x3d75eb53	0.060038876
186	0xbba946a6	-0.0051658927
187	0xbeb4101e	-0.35168546
188	0xbdd15423	-0.10221126
189	0xbda8775b	-0.0822589
190	0x3dbfb755	0.0936114
191	0x3e6bd185	0.23029144
192	0xbe86eec2	-0.26354033
193	0x3d90c348	0.07068497
194	0x3e034013	0.12817411
195	0x3de9773d	0.11399696
196	0xbd4f899a	-0.050668336
197	0x3e180738	0.14846504
198	0xbc2816a3	-0.010259303
199	0xbe467c77	-0.19383417
200	0x3d14aa9f	0.03629553
201	0x3e0c8b79	0.1372508
202	0xbdf9491f	-0.1217215
203	0x3e78d507	0.24300013
204	0xbe0950e2	-0.1340976
205	0x3e2905b7	0.16506086
206	0xbe729f1c	-0.23693508
207	0x3dad19a1	0.08452154
208	0x3c03fb1e	0.0080554765
209	0x3df07e02	0.11742784
210	0xbcb97ee1	-0.022643508
211	0x3d9c7575	0.07639591
212	0x3e465993	0.19370107
213	0x3d2875ac	0.041127846
214	0xbab38fca	-0.0013699469
215	0x3e4725be	0.19447991
216	0xbd2de8eb	-0.042458456
217	0x3d2d995e	0.04238259
218	0x3b23ab7a	0.0024974034
219	0x3dd187d8	0.10230988
220	0xbddb6370	-0.107123256
221	0x3e8505bb	0.25980935
222	0xbe2514ef	-0.16121267
223	0x3e9d2f39	0.3070009
224	0x3dce88fd	0.10084722
225	0xbe8dc995	-0.27692857
226	0x3cd0353c	0.02541601
227	0x3e7967e9	0.24356045
228	0xbcf7d4dc	-0.030252866
229	0x3d0686c6	0.032843374
230	0x3bdb8798	0.0066995136
231	0x3e2d6645	0.16933544
232	0x3c47f07c	0.012203332
233	0x3e0591f4	0.13043958
234	0x3da962f0	0.08270824
235	0x3e3c8a28	0.18412077
236	0x3dfd6a19	0.12373752
237	0x3ece0541	0.40238383
238	0x3d8c9632	0.06864585
239	0x3de219ba	0.11040063
240	0x3e0ccc0b	0.13749711
241	0xbd99191e	-0.07475494
242	0x3c66e447	0.0140925115
243	0xbd02f33c	-0.031970248
244	0x3e910bf9	0.28329447
245	0xbe140c24	-0.14457756
246	0x3ead306b	0.33826002
247	0x3ea50297	0.32228538
248	0x3db1452b	0.08655771
249	0x3ebb0f39	0.3653505
250	0x3d69e2f5	0.05710121
251	0x3d49d0f9	0.049271557
252	0x3e26c20a	0.16284958
253	0x3b066078	0.0020504277
254	0xbda401f5	-0.08008186
255	0xbda96c07	-0.08272558

layers.2.0.weight f4 [10, 128]
0	0xbd7f43b9	-0.062320445
1	0xbe74c564	-0.23903424
2	0x3e10ef43	0.14153771
3	0x3e6ebe64	0.23314816
4	0x3e13f0af	0.14447282
5	0xbec568e8	-0.385566
6	0x3e4b18ac	0.1983363
7	0xbecf2377	-0.40456745
8	0x3dc0efbe	0.09420727
9	0xbd0c06d9	-0.034186218
10	0x3e1db9b6	0.15402874
11	0xbd0e54e0	-0.03474891
12	0xbd95a4ea	-0.073068455
13	0xbebee0d2	-0.372809
14	0x3e2db934	0.1696518
15	0xbe123dcf	-0.1428139
16	0xbe61a1e9	-0.2203442
17	0x3dea70b3	0.11447277
18	0xbe849ca7	-0.25900766
19	0xbc304775	-0.010759224
20	0x3bde43da	0.006782991
21	0x3d4d42dc	0.05011259
22	0xbe502405	-0.2032624
23	0xbe000b72	-0.12504366
24	0xb9c334b4	-0.00037232565
25	0x3e169480	0.14705086
26	0xbe31f493	-0.17378454
27	0x3e872d4d	0.2640175
28	0x3e720760	0.23635626
29	0x3e40265c	0.18764633
30	0xbd17ffe7	-0.037109282
31	0xbd8dc24a	-0.06921823
32	0xbe07a182	-0.13245204
33	0xbe8429f4	-0.25813258
34	0x3ccd2567	0.025042249
35	0x3c2401ae	0.010010166
36	0xbeb6e9bd	-0.35725203
37	0x3eaf8513	0.34281215
38	0xbd3e0b98	-0.046397775
39	0x3d067501	0.032826427
40	0x3e215f6a	0.15759054
41	0xbdadf650	-0.08494246
42	0x3db850d5	0.089997925
43	0xbe2bc97e	-0.16776082
44	0x3b5e6cbf	0.003393933
45	0xbf063c00	-0.524353
46	0xbe4b7519	-0.19868888
47	0xbe8b9a20	-0.27266026
48	0xbd3a37bf	-0.04546332
49	0xbd1f266a	-0.038854994
50	0xbd919da6	-0.07110147
51	0x3e11093f	0.14163683
52	0x3c5ffc54	0.013671
53	0xbe917a1b	-0.28413472
54	0x3dbc56ab	0.09196218
55	0xbe895e83	-0.2682992
56	0xbe9a3125	-0.3011562
57	0x3e881529	0.26578644
58	0xbcc91c2c	-0.024549566
59	0xbdc08517	-0.09400385
60	0x3c228128	0.009918489
61	0xbc14257e	-0.009042142
62	0xbe96bcf4	-0.29441035
63	0xbebd91df	-0.37025353
64	0xbe9b4e59	-0.30333212
65	0xbe8185f0	-0.252975
66	0x3e79378a	0.24337593
67	0x3cb0246c	0.021501742
68	0xbd634fa5	-0.055495877
69	0xbea02a7f	-0.31282422
70	0x3d0f1cf1	0.03493971
71	0x3d541750	0.051780045
72	0xbe6b6532	-0.22987822
73	0xbd6c13d2	-0.05763609
74	0xbe458f1b	-0.19292872
75	0xbdc1b37e	-0.094580635
76	0xbed14211	-0.40870717
77	0x3e42c625	0.19020899
78	0xbe28ae4d	-0.1647274
79	0xbe2b4242	-0.16724494
80	0xbdd125cb	-0.102122866
81	0xbeaac8e1	-0.33356383
82	0xbead414c	-0.3383888
83	0xbe999c1b	-0.30001912
84	0xbd2576c9	-0.040396485
85	0x3e0301d8	0.12793672
86	0xbd7179a9	-0.058953915
87	0x3e216082	0.15759471
88	0x3e04c7f1	0.12966897
89	0x3d8f76e1	0.07005096
90	0xbef1eb07	-0.47249624
91	0x3da8ef45	0.08248762
92	0x3eb9c82b	0.3628553
93	0xbeb56682	-0.3542977
94	0xbe520b64	-0.20512158
95	0xbe6dfafa	-0.23240271
96	0x3e52595e	0.20541903
97	0x3dcb3036	0.09921305
98	0xbe8221a7	-0.254163
99	0x3e5ee00a	0.21765152
100	0x3e8d0c33	0.2754837
101	0x3e9c426d	0.3051943
102	0xbe975e00	-0.29563904
103	0xbdd4b2ec	-0.10385689
104	0xbd6ba882	-0.05753375
105	0xbe72b6ce	-0.23702547
106	0xbdd89e90	-0.105771184
107	0xbe4e125d	-0.20124193
108	0xbe66ebca	-0.22550884
109	0x3d9ef306	0.07761197
110	0x3de1e5e5	0.11030177
111	0x3f1c46b3	0.6104538
112	0x3ed61fcf	0.41821143
113	0xbdcc9360	-0.09989047
114	0x3de4f8cd	0.111802675
115	0x3dececf3	0.11568632
116	0x3e01af46	0.12664518
117	0xbd157735	-0.036490638
118	0x3e7f44e9	0.24928631
119	0x3e4de65e	0.2010741
120	0xbe9ef1e6	-0.3104393
121	0x3e610d75	0.2197779
122	0x3cc227d8	0.02370064
123	0xbba28b28	-0.0049604364
124	0xbeb42698	-0.35185695
125	0x3ea70ef4	0.32628596
126	0x3d18fba7	0.03734937
127	0x3dd2d402	0.102943435
128	0x3d3c0783	0.0459056
129	0x3ccfcb1a	0.025365401
130	0xbd2d71d3	-0.04234488
131	0x3e978aef	0.29598185
132	0x3e042b2f	0.12907098
133	0xbdc50757	-0.096205406
134	0xbee93c20	-0.45553684
135	0xbda8816b	-0.082278095
136	0x3ebab88f	0.36468932
137	0x3e9a8bc9	0.30184773
138	0xbd47c5e2	-0.0487727
139	0x3e03a74b	0.12856786
140	0x3e4fc99a	0.20291749
141	0x3e4d780e	0.20065328
142	0xbe9a11dc	-0.3009175
143	0x3d3f03e5	0.046634573
144	0xbdf6d5b4	-0.120524794
145	0xbef3faa7	-0.4765217
146	0x3dbc2d28	0.091883
147	0xbd4811be	-0.048845045
148	0x3e3111d6	0.1729196
149	0xbe2b444c	-0.16725272
150	0x3ea6807b	0.32519898
151	0x3d7d3318	0.061816305
152	0x3d0e3098	0.03471431
153	0x3e98623d	0.2976245
154	0x3c35cb76	0.011095872
155	0x3d49a936	0.049233638
156	0x3c079200	0.008274555
157	0xbe727d2c	-0.23680562
158	0xbd7fb36f	-0.06242698
159	0xbe73f5c9	-0.23824228
160	0x3d9572dd	0.07297299
161	0xbd0bd31c	-0.034136876
162	0xbd3175ee	-0.043325357
163	0xbe0b8f43	-0.13628869
164	0xbe5a2959	-0.21304835
165	0xbc88db0a	-0.016706008
166	0xbe4da456	-0.2008222
167	0xbee74a40	-0.45173836
168	0xbd432824	-0.047645703
169	0x3e87b634	0.26506197
170	0xbe367ca4	-0.17820984
171	0x3dcf8de7	0.101344876
172	0xbd257eff	-0.040404316
173	0xbe67904d	-0.2261364
174	0xbe1bf4df	-0.1523013
175	0x3e053dc6	0.13011846
176	0xbe0b6717	-0.13613544
177	0xbde421c5	-0.111392535
178	0x3e2957ec	0.16537446
179	0x3c748ef1	0.014926658
180	0xbe147f5f	-0.14501713
181	0xbdf75ffd	-0.12078855
182	0xbdb87e60	-0.09008479
183	0xbd21b6de	-0.039481036
184	0x3e42264c	0.18959922
185	0xbea3662b	-0.31913885
186	0xbea231c5	-0.31678596
187	0xbf0a4b17	-0.5402083
188	0x3e521727	0.20516644
189	0xbd4fa2a6	-0.050692223
190	0x3d8b7d7b	0.06811043
191	0x3dd9ffee	0.10644518
192	0x3e106b20	0.14103365
193	0x3ebe47da	0.37164193
194	0xbe02e3b9	-0.12782182
195	0xbe8c3430	-0.27383566
196	0xbe0a3e47	-0.1350032
197	0x3d2aef6d	0.04173224
198	0xbf06346f	-0.5242376
199	0xbd4d8fa1	-0.050185803
200	0xbdd1416c	-0.10217556
201	0xbe863bc1	-0.26217464
202	0x3eb3d4b7	0.35123226
203	0x3dd0da44	0.10197881
204	0xbe909c7e	-0.28244394
205	0xbe476bd4	-0.19474727
206	0xbc677a28	-0.014128245
207	0xbea19ead	-0.31566373
208	0x3e79ab76	0.24381813
209	0x3db367ba	0.08760019
210	0xbde8c6b3	-0.11366024
211	0xbdff5fab	-0.12469419
212	0xbe69b9ed	-0.22824831
213	0xbe79573b	-0.24349682
214	0x3eaff0eb	0.34363493
215	0xbded8e1a	-0.11599369
216	0xbe89d5d3	-0.26920947
217	0xbdcb5d5e	-0.09929918
218	0x3eb215b7	0.34782192
219	0xbe23bb54	-0.15989429
220	0x3e1cd624	0.15316063
221	0xbe506883	-0.20352368
222	0x3d62714f	0.05528384
223	0x3deaac2c	0.114586204
224	0x3d57cae2	0.05268372
225	0x3eba74b3	0.3641716
226	0xbe8246ed	-0.25444737
227	0xbdba89e3	-0.09108331
228	0xbea1ae15	-0.31578127
229	0x3dd57788	0.104231894
230	0xbb467a67	-0.003028536
231	0x3d2f2249	0.042757306
232	0x3d9bebed	0.07613359
233	0xbcbb821e	-0.022889193
234	0xbe5c6348	-0.21522248
235	0x3a62605c	0.00086355745
236	0x3e8ca8b5	0.27472463
237	0x3dbf604a	0.093445376
238	0xbc719e28	-0.01474718
239	0x3eccf806	0.40032977
240	0xbe9458d7	-0.2897403
241	0xbee150c7	-0.4400694
242	0xbebdb624	-0.37053025
243	0x3d4af883	0.049553405
244	0xbe96ef7f	-0.29479596
245	0x3f39302e	0.7233914
246	0x3e59d3ca	0.21272197
247	0x3e304c93	0.17216711
248	0x3c9af057	0.018913431
249	0x3eb1c6dd	0.34722033
250	0xbe4338b2	-0.19064596
251	0xbe91788b	-0.2841228
252	0xbd0df1ee	-0.03465455
253	0x3d0aac20	0.033855557
254	0x3db3b54b	0.08774813
255	0xbce2a8ae	-0.027668323
