cnn/ONN/seed0/network.pth (torch, 739599 bytes, 4 tensors)

layers_conv.0.0.weight f4 [32, 1, 5, 5]
00000000: c5e1 c53c 5db7 d63a 6fa7 f43a 2f70 4fbb
00000010: 8ac1 1b3d c627 2cbd f50b 983c c9fd b63b
00000020: 43f1 42be b883 463e f942 de3d 525f afbd
00000030: 93bf 45bb 9b39 86bd de04 35bd e00c fc3d
00000040: 67c3 1c3c a74c 883d ffbd 89bc a5ea e4bc
00000050: c6e9 ecbd 4d14 783d 45e1 49bd 82a5 be3d
00000060: d0f0 d3bd 4d28 c9bc 2d78 303d c821 213c
00000070: 789f 8b3d c8a6 2abd 5849 68bd 6d45 b5bd
00000080: f83b 4d3e 0cc2 08be 8618 243d b8be 70bc
00000090: 7dc9 033e de7b 0dbd 15bb 033d fac6 c6bd
000000a0: b47f a6bb 95a0 f43c 766f 0fbd be36 2a3d
000000b0: 3f87 aabc 5755 7d3d 17a4 56bd 3551 0c3d
000000c0: 4006 84bd 0b83 31bc 1e40 443e 7117 dd3c
000000d0: c22a ecbd f8bb a3bd 3447 ca3d 0618 13be
000000e0: ccae 96bd b550 febc 6854 6b3d d9fe 4e3d
000000f0: 9cf1 42be 4877 543e ff37 073e f761 b7bc
00000100: 7af4 21be 8f03 4abc b9c2 e23b a49c 623c
00000110: 864e a8bd 8991 f53d 660e 1ebc 38f7 8fbd
00000120: 1f26 ed3d 68b3 933d 616b edbd d62e 853d
00000130: 0ae3 8ebd 6a3f 053d 4fac 6abc ddbc 93bc
00000140: cf07 91bc 2793 9f3d 3889 ca3c 6aaf b03c
00000150: 37b4 e13c 9934 293d 0c3b 953c fa81 53bd
00000160: 01b1 c5bc 4a33 d5bd 5787 20bb 5c12 b5bd
00000170: 49b3 ae3d d900 77bd ee92 a63d 7b43 34bd
00000180: a1d6 553d 3dd3 4cbd 19ee f6bb 7a80 91bc
00000190: 3774 3ebd 0817 19bc 76eb d33c 73af cd3c
000001a0: 02e0 a03d 5e33 923d 0334 39bd e884 80bc
000001b0: 7771 263d 43e8 5fbd 4057 acbd 0235 283d
000001c0: 1a2e 0b3e 3852 8fbc d2c8 40bc ec4b b03d
000001d0: 2844 123d 5c66 53bd f732 19bc 7216 3fbc
000001e0: 2df9 e1bd 7c09 80bc 1da6 3fbd 8586 2bbd
000001f0: 7368 023c ca32 88bd ba8b 043b 8b08 043d
00000200: 3a5d 0a3c 2cae 0d3d f297 c9bb c967 b23d
00000210: 4c57 60bd d731 fbbd a16e 54bd 4554 3fbc
00000220: d940 46bc 87fd c03c cb2f 093d 1adb 6f3e
00000230: c195 ef3b 5491 a93d a5ea 2ebd 0d2e edbc
00000240: 6600 efbc 7df7 e53c 6084 babd 4600 c23d
00000250: d088 abbd fd75 97bb bce2 523c 61a7 afbc
00000260: 9665 d1bc 6aef 84bc 638b 56bc a517 35bc
00000270: 34f0 593d 3adc f4bd 0acc 2b3d 7f75 d8bc
00000280: a25a 563d 1690 16bd 0eff 66bd fdbf 4b3d
00000290: 07be 383c c57a 353d 0be4 c4bd 37a1 6ebd
000002a0: 7341 843d 34f7 a63b 1c1e 423c 50d2 7ebd
000002b0: a902 5e3d bd22 a2bd 5e20 fc3c efa8 8c3b
000002c0: acb0 a4bd 4d2e 72bd 3cb6 813d 21aa d73b
000002d0: b957 083d faa8 753d 9373 ccbd 2eb8 e83b
000002e0: 6a36 ff3b 4ed6 cdb9 7aa4 d93c 5b6a 03bd
000002f0: 1ed4 633d f3b9 0a3c 5fd4 133c b689 54bc
00000300: fcc3 85bd 3002 a0bd 5f43 d53c 9fed a93d
00000310: 50cd 58b9 95d1 793c 5449 8c3c 7398 8cbc
00000320: 792d f53c 9663 4c3d 9cfb 8dbc d577 8ebb
00000330: 1219 403d 2897 693c 3839 073c 057a 453d
00000340: b413 e8bd cc36 ea3d 1076 15bc 52fb 853b
00000350: d07c f93c c148 e7bc 5ab7 7bbd 4bbb 21bd
00000360: 053e 5a3d a0f5 a2bc 148e bdbd da40 ad3d
00000370: 78c0 533d 60dc 87bd d648 3b3d 7a44 90bc
00000380: c64e 69bd 9556 073c 2f29 ec3b a93e bb3c
00000390: ee65 723d 2fdc 3d3e 671d 813c 15a2 76bd
000003a0: 5a76 7ebc 3223 b7bd 9e37 5fbd 6c59 05bd
000003b0: d76e 673d a80c d4bc 891e 35bd 2c24 a33d
000003c0: 6b65 19bd 6f5d 153c 8756 78bc afd8 7fbd
000003d0: ae59 36bd 927f f63b 0db2 32bd 2ffe 553d
000003e0: 8f4e 8b3d 020a a63c 242e 84bc 6789 8f39
000003f0: dab1 813b a58a 823d 1822 a13c a3b3 96bc
0.024155507 0.0016381551 0.0018665622 -0.003165256 0.03802637 -0.04203012 0.018560389 0.0055844528
-0.19037347 0.19386184 0.10852618 -0.08563103 -0.0030174002 -0.06553956 -0.044194095 0.12307143
0.009568072 0.06655245 -0.01681423 -0.027943918 -0.11568026 0.060566235 -0.0492871 0.09308912
-0.10348666 -0.02455535 0.04308336 0.009834714 0.068175256 -0.04166296 -0.05671057 -0.088511325
0.20042408 -0.13355273 0.04006245 -0.014693908 0.1286983 -0.034541957 0.032160837 -0.097059205
-0.0050811414 0.029861728 -0.035018407 0.041556112 -0.020816443 0.061848965 -0.052402582 0.034257133
-0.064465046 -0.010834466 0.19165084 0.026988717 -0.11531593 -0.079948366 0.09876862 -0.14364633
-0.073575586 -0.031044343 0.057453543 0.05053601 -0.19037479 0.20748627 0.13204955 -0.02238558
-0.15815917 -0.01232995 0.0069201854 0.013831291 -0.08218102 0.11990649 -0.009646988 -0.07029575
0.11579537 0.072119534 -0.115927465 0.06503074 -0.06976898 0.03253118 -0.014323308 -0.018034393
-0.017703919 0.07791739 0.024723634 0.021568019 0.027551753 0.041309927 0.018216632 -0.051637627
-0.024132254 -0.10410173 -0.0024494731 -0.088413924 0.0853029 -0.060303543 0.08133493 -0.044009667
0.05220664 -0.05000614 -0.0075357077 -0.017761458 -0.04649755 -0.00934387 0.025869112 0.025108075
0.07855226 0.07138704 -0.045215618 -0.015688375 0.040635552 -0.05466486 -0.08415079 0.041066177
0.13591805 -0.01749526 -0.011766629 0.08608231 0.03570953 -0.05161129 -0.00935053 -0.011663066
-0.11033855 -0.015629523 -0.046789277 -0.041876335 0.007959473 -0.06650312 0.0020224885 0.03223471
0.0084450785 0.03458993 -0.0061521465 0.08711202 -0.054770753 -0.122653656 -0.051863316 -0.011677806
-0.012100422 0.023558391 0.033492845 0.23423424 0.007311553 0.08279672 -0.042704243 -0.028952623
-0.029174995 0.028072113 -0.0910728 0.094727084 -0.08375704 -0.0046222196 0.0128714405 -0.021442117
-0.025561135 -0.016227443 -0.013094756 -0.011053001 0.05320759 -0.119560674 0.041942634 -0.026423214
0.052332528 -0.036758505 -0.056395583 0.04974364 0.011275775 0.044306535 -0.09613808 -0.058259215
0.06457796 0.005095387 0.011847999 -0.06221229 0.054201756 -0.07916782 0.030777153 0.0042925994
-0.0804151 -0.059126187 0.063335866 0.0065815602 0.033286784 0.0599756 -0.099829815 0.007102034
0.007788469 -0.00039260316 0.026567686 -0.03208385 0.055622213 0.008467185 0.009022801 -0.012972286
-0.06531522 -0.07812917 0.026033102 0.08297276 -0.0002067585 0.015247722 0.01712481 -0.017162537
0.02992891 0.04989966 -0.01733189 -0.004347781 0.04689891 0.01425723 0.008253388 0.04821207
-0.11331883 0.11436233 -0.009122387 0.0040887976 0.030455023 -0.028232934 -0.061454155 -0.039485257
0.053281803 -0.019892514 -0.09255615 0.08459635 0.051697224 -0.0663383 0.04572376 -0.017610777
-0.05695989 0.008260389 0.007207058 0.022857027 0.05917924 0.18541025 0.01576109 -0.060213167
-0.015531147 -0.0894226 -0.0544964 -0.032555982 0.05650219 -0.025884941 -0.044218574 0.079658836
-0.037450235 0.009116515 -0.0151573485 -0.062462505 -0.04451912 0.007522532 -0.043626834 0.05224436
0.06802093 0.020268444 -0.016135283 0.00027377458 0.003957969 0.063741006 0.019669577 -0.018396204

layers_conv.1.0.weight f4 [64, 32, 5, 5]
00000000: 2fc9 31be 7e03 33bd 7290 dcbc 6fa5 bd3c
00000010: 0407 85be 18fe 193e 7e44 8fbc c1af 123e
00000020: 5738 293e d4b6 29be fbfd e73d 39d3 123e
00000030: 0273 79be 3364 93bd 3ffa 083d a9ee 95bd
00000040: 3d86 af3d e62f 7fbd 4f53 82bd 2b89 dcbc
00000050: 9dd6 663d 1267 053e 91a7 eabd 814d 183d
00000060: cbec 9c3d c5b7 bebd 2bd0 6ebd ebc7 283d
00000070: e798 0d3e b745 843c 964a c4bc 831f c4be
00000080: 27b4 8f3d c3f6 4d3e e8af 183e 0799 f8bc
00000090: aa0b 39be 6e99 c3bd 17c6 1c3d 560a b63e
000000a0: a8f0 78be b4ce 3cbb fcfb 24bd ef29 11be
000000b0: e3f1 b3bd 1e57 aabc 9b4c 0b3e c680 0bbd
000000c0: 0d2b 313c 149e 31bd 4358 643d 82a9 d1bd
000000d0: e1ce 84bb 99f9 803d 8e7b 073e b962 40bd
000000e0: 91d1 343e c2ce 413d 952c ae3d 06ff 2e3d
000000f0: a02f 223d 4a73 8d3d bd58 9dbd ac0a 17bd
00000100: 31a7 043d 2483 16bd 492e ad3d 8330 e4ba
00000110: b1c1 453e 2073 a93c 90b4 05bd a752 59bd
00000120: ff46 553d 8284 593d e23f cd3d 80b0 393d
00000130: 4e47 41be 772f c83d ec90 4dbd 7b9b 0f3e
00000140: 67cf 4c3e a87c 79bd ec38 d43c c367 84bd
00000150: 341d 963d 4570 4ebd c88b d6bd 9d48 c3bd
00000160: efb0 e0bd dc0a 0a3d 7ecb 2fbe 27bc 05bd
00000170: 7f4b 3d3d 6420 92bb 4897 f3bb 3ee0 de3c
00000180: 65dc b93d 45f0 79bd 62d9 12bd 082d 593d
00000190: 0d0b 3bbe ec85 1cbc 000c f3bc 9a63 06bd
000001a0: 7138 9f3c c945 753e 9aa0 3cbe 1da5 653e
000001b0: 8ea7 1e3e c6b2 263e cc04 523d d100 eabc
000001c0: 77aa 12bc fd3b bf3d a745 b33d 1116 153e
000001d0: 3cb2 1b3e 0d5c febb 9460 543d 7f88 b6bd
000001e0: 37d0 c63d 603b 0b3c b2fc 75bd 39d9 363e
000001f0: cfc6 febc b304 173d e2b3 533d d05a 173e
00000200: aa5f 313e 6b2c 0b3d 48f6 2fbb 5616 a8bd
00000210: 8e37 85bd ccc5 cc3c 9e9c e1bd c4d3 813d
00000220: 0cd5 953d aa5b a93d fb91 afbd 62ac 76bd
00000230: 764d abbb 74a8 fe3d 53c1 ebbc 0acd 46bd
00000240: 46f6 39bd 1f2a 51bc 09c7 2cbd 653d 3bbd
00000250: 7518 413c 564c 4f3d dbe9 1dbc 8290 03bc
00000260: 0789 ec3b 43ee 9e3d d052 223d 9ebe e0bc
00000270: 19c9 d93d 017b 9e3d 510d a73d 93b5 393d
00000280: 38f2 40be aa8a b33d ec26 3dbe f042 033d
00000290: 8d4b 32bc 1233 bb3c 2f3a d8bd 3c6b 0bbe
000002a0: 4910 78bd 096e 1e3d 97dd d83b adcd 7f3d
000002b0: 9dfd 57bd 15ef f23d ad01 483d fdfd 643b
000002c0: 4c48 b53d f994 33be 8395 6e3a c346 74bc
000002d0: 0255 8ebc 15bb c43d 87d1 313c 51e0 a4bd
000002e0: ce31 1c3e 6ef5 053e 4a93 683d b7ff cbbd
000002f0: 3272 1abe b4c8 debc 2f9c 0c3e 1e74 46bd
00000300: 3209 643d 6b6f afbd b32f 3dbd 8529 dc3c
00000310: e4af fcbb a9fe a73c a4dc f53c 8c5c 5ebe
00000320: 3989 0dbe 5551 433d 11a1 993d 2e3a cd3c
00000330: 4dc8 333d f4be 7fbc 2e5e 44bc f4cd 13bc
00000340: aa6d 01be eebf 2ebd 8e06 1bbc a4b0 b83d
00000350: 3aed 453d 02ba 703d d919 b9bd 54cb fcbc
00000360: fb82 043e 7c50 e0bb 0a53 83bd dbb5 f0bd
00000370: 85b6 f2bc 4bd3 863d 3a06 3d3c 57f7 49be
00000380: 8b08 09bd 76b9 613c e4f2 d23d fd81 403c
00000390: 0673 a83d 6ea1 843d b3e5 b43d 9a9f fb3d
000003a0: e41c 01be 177a 45bd 2250 d13d 3274 fb3c
000003b0: 9be3 53bd d334 e1bd b22d 18bc a31b 1a3b
000003c0: bb84 abbc 05b1 3ebe 1138 eabc d17c 293d
000003d0: 03ca 43bd 6ab4 203e 897e 43bd 4c91 9dbd
000003e0: eed2 12bc c2f6 443c 2558 43bd 63cf 053d
000003f0: 8e05 d43d c5bc 07bb be70 dcbd 596a a63d
-0.17361902 -0.043704502 -0.026924346 0.023150174 -0.25981915 0.15038335 -0.017488714 0.14324857
0.16525398 -0.1657365 0.1132774 0.14338388 -0.24360278 -0.07196846 0.03344178 -0.073209114
0.08570526 -0.06230154 -0.06363546 -0.026920876 0.056357015 0.130276 -0.11457742 0.03718329
0.07662352 -0.09312395 -0.058303993 0.04120628 0.13827859 0.016146524 -0.023961347 -0.38305292
0.07016783 0.20113663 0.14910853 -0.030346407 -0.18070856 -0.09550749 0.03827485 0.3555476
-0.24310553 -0.0028809728 -0.040279374 -0.14176153 -0.087863706 -0.020793494 0.13603441 -0.034058355
0.010813487 -0.043363646 0.055748235 -0.10237409 -0.004052982 0.06297607 0.13230726 -0.04696915
0.17658068 0.04731632 0.08504597 0.042723678 0.0395962 0.06906755 -0.07682941 -0.036875412
0.03238601 -0.03674616 0.08456094 -0.0017409477 0.19312169 0.020684779 -0.0326429 -0.05305734
0.05206966 0.053104885 0.1002195 0.04533434 -0.18874857 0.09774678 -0.050187036 0.14024155
0.20000993 -0.060909897 0.025906049 -0.064651035 0.07329789 -0.050400037 -0.1047588 -0.09535334
-0.109712474 0.033701763 -0.1716747 -0.03265014 0.046214577 -0.0044594277 -0.0074338056 0.027206536
0.0907524 -0.061020155 -0.035851844 0.05302146 -0.18265934 -0.009553414 -0.029668808 -0.03280983
0.019436093 0.23952402 -0.1842064 0.22426267 0.15493605 0.16279134 0.051274106 -0.028564842
-0.008951775 0.09337614 0.087535195 0.14559199 0.1520471 -0.007762438 0.051849917 -0.08912753
0.097076826 0.008498043 -0.060055442 0.17856301 -0.031100659 0.036869716 0.05168522 0.14780736
0.17321649 0.033977907 -0.0026849676 -0.08207385 -0.06504737 0.02499666 -0.110162005 0.06339219
0.07316026 0.08269437 -0.085727654 -0.06022299 -0.00522774 0.12434474 -0.028778708 -0.048535384
-0.04540088 -0.01276639 -0.042182002 -0.045712847 0.011785616 0.05060991 -0.009638275 -0.008030059
0.0072184834 0.077602886 0.039629757 -0.027434643 0.106340595 0.07738305 0.08156837 0.04533918
-0.18842399 0.087666824 -0.18471879 0.03204626 -0.0108822705 0.0228515 -0.10557973 -0.13615125
-0.060562406 0.038679156 0.0066182124 0.062452007 -0.0527321 0.118620075 0.048829723 0.0034941428
0.0885168 -0.17537297 0.00091012585 -0.014909449 -0.01737452 0.096059956 0.010853178 -0.080505975
0.15253374 0.13081905 0.05678109 -0.09960883 -0.15082625 -0.027195312 0.13731454 -0.04845058
0.05567283 -0.08566173 -0.046188068 0.026875267 -0.0077113975 0.020507174 0.030012436 -0.21714991
-0.13821878 0.047684986 0.07501424 0.025052156 0.043892194 -0.015609492 -0.011985345 -0.009021271
-0.1263949 -0.042663507 -0.009462012 0.090180665 0.04832194 0.05877114 -0.09038133 -0.030858673
0.1294059 -0.006845532 -0.06412323 -0.11753436 -0.029628048 0.0658327 0.011537129 -0.19723259
-0.033455413 0.0137771275 0.10300234 0.011749742 0.08225064 0.06476103 0.08832874 0.12286301
-0.12608677 -0.048212137 0.10220362 0.030695055 -0.051730733 -0.109964035 -0.009288238 0.0023515008
-0.020937314 -0.18622215 -0.028591188 0.0413788 -0.047800075 0.15693823 -0.047728095 -0.07693729
-0.008961422 0.012021722 -0.047691483 0.032668483 0.10352622 -0.002071188 -0.10763691 0.08125753

layers_fc.0.0.weight f4 [128, 1024]
00000000: 6987 5cbd 5f82 43bd f2af 94bc dc82 d6bc
00000010: ff52 50bc cd7e 663c 9a16 023b c513 9cbc
00000020: 03bb 643d 2e70 7a3d 5bb6 d83c 45db 60bc
00000030: 8260 803d ee3d 49bc 2ef4 0a3d 3b2b 96bc
00000040: f058 50bc d531 7abc 2df8 af3c f906 abbc
00000050: 75f0 a0bc 4e1e 1f3c 612d 24bd 756b 10bc
00000060: fc5d 023c f13f 0a3c 6fde 9a3b e7ed a8bb
00000070: 584c fa3b 1972 6d3d 0951 45bb 1409 e5bc
00000080: 3306 01bd 361a 6bbc 5e7b 48bd 9efc 9fbc
00000090: 33b5 2cbd d3e5 7c3b 9720 36bb 7742 b83c
000000a0: d026 b43c c339 9a3c 900c b2bc b949 28bd
000000b0: ee02 47bc df7f 0cbd 9f4e 96bc a78e 103d
000000c0: fcf2 4b3d 23cd 3b3d 6fde 513c 6e21 ea3b
000000d0: fd00 93bc 4f68 1cbc 4a3c 5e3c 8939 0bbd
000000e0: ad10 bdbc 4d0b b3ba f6b0 ed3c dc65 15bb
000000f0: 65d9 5ebc 5890 91bd 5bbc 51bc 50a3 1dbd
00000100: b910 66bb 39b1 fd3b 5ed8 a7ba d770 f5bb
00000110: ca7c 80bb fe68 873c c002 93bc fa4c b53c
00000120: bf44 62bc b913 02bd e168 e73c 8aa5 f73b
00000130: d791 d9bc 3446 40bc 108e 8b3d 0ccc 4f3c
00000140: 0df3 41bc fecd cdbc 8521 82bb 0b5e 36bc
00000150: 65dc 1fbd 66f6 413c 6ad2 4cbb 3d7f 15bc
00000160: 5528 7d3d a378 3a3d 8a5e 49bc 3bc8 713b
00000170: cfe4 8e3d 724a b23c 25b4 5b3c 13c5 c13c
00000180: f9b0 483b 4e54 2ebc 7e30 b1bc cc89 65bc
00000190: 2b6c b53b ff77 05bd ac3f 44bc efa7 b83c
000001a0: 95b1 4fbd b03b 7abc ca1f b03c 28db 633c
000001b0: 35cd 3dbd 3a3c dbbb 3af7 b73b db22 713c
000001c0: a1b6 4fbd 3fad 02bc 08a0 07bc 601f 09bd
000001d0: 643a 7638 ba9f 64bc 69e2 603c 9074 453c
000001e0: 1b1e d03c 56d3 873c 7f64 d9bc 2e79 fa3b
000001f0: de61 d5ba 7059 b7bc 2ff8 02bc bb4f a63c
00000200: d50d 04bd 0b54 8f3c 1bf9 c6bc 69f8 92bc
00000210: bd33 0d3c 19c5 3cbc ec91 06bc 10a2 92bc
00000220: 4e5c 8db9 fef7 153d 7037 c73c 65d1 25bb
00000230: 37e3 b1bb c5a5 2cbc 884b 0bbb 8e87 c2bc
00000240: 520c 93bd 7e60 e2bc 15f2 fe3c 6a4d 123d
00000250: f902 71bb 8164 223d e3c6 26bc 6263 d0bc
00000260: 998a 9fbc b903 e0bc e383 063a f710 00bd
00000270: 8f16 73bd 022a 4d3c 2dcd c6bc 9fac 99bd
00000280: 489d 543c 5686 73bc edea 86bc 3aae e63c
00000290: 97ac bc3a 47fe 083c 52b8 b0bc e074 133d
000002a0: 1308 79bc 7eb4 a13c 2483 d8bb f742 dd3b
000002b0: baf6 4fbd f71c 0cbd d08c 513a d73f d0bc
000002c0: 1394 0cbd e43d 36bc 88dd eebb 9384 fcbc
000002d0: a9de 153d 5d70 abbc 54a4 5e3c 473e 69bc
000002e0: 7d1e b53c 4e0b bfbc e6e6 db3b fd3d 3f3d
000002f0: a7af 6a3c c306 883c 6939 863c 582e 7e3d
00000300: 4118 113d 6bc5 24bd ef7f dcbb 5da9 3f3c
00000310: a5f3 0a3d 05d1 e3bb b72e 90bb 8296 a83c
00000320: d2dc 7b3b 99c5 e73c aac7 05bc 5654 f93b
00000330: ffc7 38bd ffb1 47ba 3885 243d b04c 3f3d
00000340: 4526 70bc b340 8bbc 46cd 8ab8 2e33 f03c
00000350: 3a54 90bd 91c8 c23b 2285 8cbb a320 e03c
00000360: a6b6 1ebd 2e3a 733c c9d4 f8bc 101c 5c3c
00000370: 951c 28bd 8c80 54bd 1b1d 85bc 07bf 0f3c
00000380: 53d9 273c c2d4 133d 7cb0 dabc 68ea f83a
00000390: 0219 fe3b 4bbd f33c a095 11bc e254 b3bb
000003a0: 4449 a43d e20f 183d 01ae f53b c9cf c8bb
000003b0: be96 013d 8508 693c 3816 c6bc 7955 09bd
000003c0: a8cd 5b3c fe0a 26bb a82a 693c 30c5 843c
000003d0: ff60 063d a9f7 16bc b045 cc3c 3e80 fa3b
000003e0: 1506 213c 228a c43b 22e8 00bc cad5 59bc
000003f0: b8bd 37bd 6ee9 913b c075 3cbc f032 46bc
-0.053840075 -0.047731753 -0.018150304 -0.026185445 -0.0127151 0.014068318 0.0019849897 -0.019052396
0.05584241 0.06114214 0.026454141 -0.013724153 0.062684074 -0.012282832 0.033924274 -0.01833116
-0.012716517 -0.01527067 0.021480644 -0.020877348 -0.019645909 0.009711815 -0.04008234 -0.008814682
0.007956978 0.008438096 0.004726223 -0.0051553133 0.0076384954 0.05797014 -0.0030108115 -0.02795843
-0.031500053 -0.014349511 -0.048945777 -0.019529637 -0.042164993 0.0038589134 -0.002779042 0.02249263
0.021991163 0.018826371 -0.021734506 -0.041085932 -0.012146695 -0.034301635 -0.018348036 0.035292294
0.049792275 0.04584993 0.01280938 0.0071450984 -0.017944807 -0.0095463535 0.013564179 -0.033990417
-0.02307924 -0.0013659984 0.029015046 -0.0022796309 -0.013601636 -0.071076095 -0.012801255 -0.038485825
-0.0035105182 0.007742074 -0.0012805571 -0.007490258 -0.003921126 0.016529556 -0.017945647 0.022131432
-0.013810336 -0.03175709 0.028248252 0.0075575756 -0.0265588 -0.011735488 0.06814206 0.012682926
-0.011837733 -0.025122639 -0.003971281 -0.01113082 -0.039028544 0.011838531 -0.0031253346 -0.009124574
0.06180604 0.045525204 -0.012290606 0.0036893028 0.069772355 0.021764014 0.013409649 0.023653543
0.0030623062 -0.010640217 -0.021629568 -0.014009904 0.0055365763 -0.03258514 -0.011978071 0.022541014
-0.050706465 -0.01527302 0.021499533 0.013907231 -0.04633828 -0.006690529 0.0056141885 0.014717783
-0.050711278 -0.007975875 -0.0082779005 -0.033477187 5.870535e-05 -0.013954097 0.013725855 0.012051716
0.02540498 0.016580265 -0.026537178 0.0076438403 -0.0016279777 -0.022381514 -0.007993742 0.02030169
-0.032239754 0.01749613 -0.024288705 -0.017940717 0.008618292 -0.011521601 -0.008213501 -0.017899543
-0.00026962388 0.036613457 0.024318427 -0.002530181 -0.0054286974 -0.010537569 -0.0021254737 -0.023746278
-0.07180084 -0.027633902 0.031121293 0.03571836 -0.0036775453 0.03964663 -0.010179254 -0.025438014
-0.019475268 -0.027345525 0.0005131347 -0.03126618 -0.059347685 0.0125222225 -0.024267757 -0.07503628
0.012976952 -0.014863571 -0.016469443 0.02815925 0.0014394698 0.008361406 -0.021572266 0.036000133
-0.015199679 0.019739386 -0.00660743 0.0067523676 -0.050772406 -0.03420731 0.00079937 -0.025421066
-0.034320902 -0.011123154 -0.007289592 -0.030824935 0.0365893 -0.020927602 0.013588984 -0.0142360395
0.022109265 -0.02332082 0.006710875 0.046689976 0.014324105 0.016604787 0.016384797 0.062055916
0.03542352 -0.040227335 -0.006729118 0.011698094 0.033923764 -0.0069524073 -0.0044001 0.02057958
0.003843118 0.028292464 -0.008165279 0.0076089306 -0.045112606 -0.0007617771 0.04016611 0.046703994
-0.014657562 -0.016998624 -6.618588e-05 0.02932128 -0.07047315 0.0059443195 -0.0042883316 0.027359312
-0.038748406 0.014845414 -0.030374901 0.013434425 -0.041042883 -0.051880404 -0.01624923 0.008773572
0.010244685 0.036091574 -0.026695482 0.0018990757 0.007754446 0.029753348 -0.008885771 -0.0054727653
0.08021787 0.037124522 0.0074975495 -0.0061282855 0.0316379 0.014223223 -0.024180517 -0.03352878
0.0134157315 -0.0025336142 0.014231361 0.016207308 0.032807346 -0.00921432 0.024935573 0.007644682
0.00982811 0.005997912 -0.007867845 -0.0132956 -0.044858664 0.004452876 -0.011502683 -0.012097105

layers_fc.1.0.weight f4 [10, 128]
00000000: 7d1f 79bc f185 32bb 8326 2dbb e22a 1dbb
00000010: 77b5 c7ba 7102 0b3b 480b d6b9 8a7d 8a3c
00000020: 8f30 a7ba 0851 803b 77ae e3b9 f89c 8839
00000030: 06fb 95bb 7880 fe38 bda5 deba dc01 0cba
00000040: cb4c 0639 6ebd 29ba 5319 313a 22d4 c13c
00000050: 1382 bebb 95d6 5bba cb5b aa3c d709 e13a
00000060: 2c2b 163b 7c9d 333b 58d7 de3c 5d91 953a
00000070: 5175 bdbb 2867 daba 6d1c 79bb 260b f2ba
00000080: 1dfe 7f39 de64 a53a 4af4 a9bb 3f70 46ba
00000090: 9868 24bb e3ce e73a 894e babb 3fa5 f0ba
000000a0: 2787 7a3a 44bc 4738 41f9 0cbb df10 863b
000000b0: 8e0e 16bb 4262 9fb9 9bb5 14b9 e89c 1e3b
000000c0: 8078 a4b5 8835 bfba 11ca e9bc 2b02 7a3a
000000d0: 4877 43ba 9994 56bc 68b8 b2ba c379 42ba
000000e0: 83e2 8b39 a1de 67ba e499 8ebb ff31 11bb
000000f0: 6b07 2dba 0269 3239 431a 6bba 5d34 1cbb
00000100: a8b9 343b 4323 83ba 06f3 f439 d5dd 6c3b
00000110: cea0 1f3b 16b2 d239 51d5 14bb 38e4 9d3b
00000120: bd7b 8f3a c95a 86bb 7ecd e1ba 3113 8fbb
00000130: 846a f138 b541 fdb9 fb83 303b 22aa 38ba
00000140: 9784 38bc 2ab1 99b9 a922 3a3b 7d2f 77bb
00000150: 2b3d ee3b 77bb 2db9 b645 233a 3ef2 25bb
00000160: ada2 94ba f87a 10b9 fab8 223b 9eab 59bb
00000170: 20d0 4d3b 5030 183b e07c 59bc 0b7f 433a
00000180: b6bc 8f38 1348 103a 00db 42bc e26e 8939
00000190: 2914 d33c a0d4 80b9 b1a8 b2b9 68b0 d9ba
000001a0: a739 123b fb2f 753b 8fa0 30bd 3dcd c7ba
000001b0: 2370 0a3b ff3d b4bc 7299 61ba 40af e53c
000001c0: 5b61 a63b df42 96ba 79af 273b 869f 673a
000001d0: bedf 89ba f416 243a 73e2 62bc c54b 2a3d
000001e0: c9fb 0c3b b119 51bc 3176 233c 0583 3f3b
000001f0: 2063 9aba 911a 153a 7768 b63b 1132 553b
00000200: c6f3 79bb 9e9c 82ba 53f1 3ab9 2867 983a
00000210: f5f0 b4bb 7ad7 a53a f872 faba e501 9dbb
00000220: 9f79 a5bb 5226 fa3c bb3f 0d3a d6fb 78bb
00000230: e261 2fb9 890a f139 4909 893b 3a89 4db8
00000240: e5a8 84ba f2a3 51ba 5cf0 703a 2958 743b
00000250: e5cd 1fbb e995 a03b 9e52 f03a e7bb 20ba
00000260: bea4 62bb 0162 3eba e24d d13a c574 5a3b
00000270: 1aaa 93bb 16e5 ab3b e963 f5ba 14ed b2bb
00000280: d0da cfbc 9b5c b8bc 3bed d7bc 836c c6ba
00000290: 35d4 83bb d1b5 f73a a684 d03a ad12 b7b9
000002a0: 1249 823c acf2 2c3a 5c06 6d3a 5f9b 3d39
000002b0: 400c 2ab8 44a5 2f3d a905 2d3a 56d5 9c3b
000002c0: f327 2bba 8664 deba cf13 ad3a e2e9 1dbb
000002d0: 56eb 0ebd 9083 3ab9 89aa f73c 3b28 f2bc
000002e0: 254b acbc 9688 a038 f4a3 e9b9 8d19 8c3a
000002f0: 8ca1 67bb 8ca1 823b 04bf 413a 6c65 51bb
00000300: 657e 283b 2841 10b9 1324 b1bb 4556 c2bb
00000310: 5b60 f3ba 563b 643d db37 9abb 12ea e7ba
00000320: daf5 983a 1837 7e3b df64 b63c dbf9 a93b
00000330: 0840 9aba 83d5 f2ba 407b feba 6ad0 14ba
00000340: 983e ee3a 1a7e 10bb 9771 79ba 54e1 76bb
00000350: 1bc0 69bb 08ad c7bb 6afa 7ebc 75ba 28bb
00000360: 9f8c f43b 1c55 daba 5284 8dbb 8765 7c3b
00000370: ed24 2e39 3c92 26bb a0cc caba 7df5 01ba
00000380: 0bef a03b 9b6d 6cbb f521 123b 0297 fd3a
00000390: a74a b6ba 775b 503d 0ac8 74ba e19c b6ba
000003a0: 3beb f2bb 796c 743b 6054 5eba c0dc 2a3b
000003b0: 5a29 cb3a 9ecc c6ba 9f10 d9b7 faef 3c3b
000003c0: 2e43 223b 6c76 a83a f3f9 853b 587e 833c
000003d0: 373d 6a3a 563f e4ba 0faa 703b 0ea8 edba
000003e0: 10e6 c8b8 4be4 54ba bc44 ae3b 9a2f 91ba
000003f0: b030 2eba 685d fabc e592 4ebb baef d33a
-0.015205261 -0.002724048 -0.002642066 -0.002398186 -0.0015236576 0.0021211172 -0.00040825666 0.016905565
-0.001275556 0.0039159097 -0.000434268 0.00026056892 -0.0045770435 0.00012135593 -0.001698665 -0.0005340853
0.00012807843 -0.00064750656 0.0006755788 0.023660723 -0.005813846 -0.0008386162 0.020795723 0.001716907
0.0022913916 0.00274071 0.027202293 0.001141112 -0.0057818075 -0.0016662823 -0.0038011328 -0.0018466457
0.0002441336 0.0012618562 -0.005186592 -0.00075698266 -0.0025086757 0.0017685558 -0.0056856317 -0.0018359794
0.00095568824 4.7620633e-05 -0.0021510872 0.0040913667 -0.002289686 -0.0003040005 -0.00014182033 0.002420241
-1.2254022e-06 -0.0014588097 -0.028538736 0.0009537066 -0.0007456434 -0.013096952 -0.001363528 -0.00074186566
0.0002668091 -0.0008845125 -0.0043518413 -0.0022155044 -0.00066005316 0.00017014521 -0.0008968452 -0.0023834922
0.002757648 -0.0010005016 0.00046720373 0.0036142964 0.0024357322 0.00040187006 -0.0022710154 0.0048184656
0.0010946911 -0.004100178 -0.0017227379 -0.0043663015 0.000115116156 -0.00048304876 0.0026934135 -0.0007044395
-0.011262081 -0.00029314432 0.0028402007 -0.0037717514 0.0072704754 -0.00016568402 0.0006228344 -0.002532139
-0.0011339985 -0.0001377872 0.0024829493 -0.0033213864 0.003140457 0.0023222156 -0.013274401 0.00074575905
6.8539215e-05 0.0005503904 -0.011893034 0.0002621329 0.025766449 -0.0002457248 -0.0003407649 -0.0016608359
0.0022312196 0.0037412632 -0.04312187 -0.0015243661 0.0021123968 -0.022002218 -0.0008605934 0.028037667
0.0050775236 -0.0011464021 0.0025586768 0.00088357215 -0.0010518951 0.0006259524 -0.013847935 0.041576166
0.002151238 -0.012762473 0.0099769095 0.002922238 -0.0011778809 0.00056878576 0.0055666524 0.0032531063
-0.0038139685 -0.0009964888 -0.00017828243 0.0011627423 -0.0055218884 0.0012652718 -0.001910775 -0.0047914856
-0.0050498988 0.03053585 0.000538822 -0.0037991903 -0.00016725765 0.0004597495 0.004182015 -4.900361e-05
-0.0010121135 -0.0007997147 0.000919109 0.0037283993 -0.0024384197 0.004900683 0.0018335169 -0.0006131515
-0.0034583057 -0.00072625285 0.0015968645 0.003333376 -0.0045063617 0.005245815 -0.0018721792 -0.005460391
-0.025372893 -0.022505095 -0.026358237 -0.001513854 -0.0040231 0.001889879 0.0015908673 -0.00034918395
0.015903983 0.000659744 0.000904178 0.00018082325 -4.0542567e-05 0.04288222 0.00066002697 0.004786174
-0.0006529085 -0.0016967214 0.0013204756 -0.0024095704 -0.034892403 -0.00017787353 0.030232685 -0.029560199
-0.021031925 7.654836e-05 -0.00044563378 0.0010688767 -0.0035344092 0.003986543 0.0007390829 -0.0031951321
0.0025710103 -0.00013757183 -0.0054059117 -0.0059306943 -0.0018568145 0.05572065 -0.0047063655 -0.001769366
0.0011669949 0.0038790163 0.022264896 0.005187256 -0.001176835 -0.0018526766 -0.0019415393 -0.0005676808
0.0018176613 -0.0022047819 -0.00095155224 -0.0037670927 -0.0035667482 -0.006093625 -0.015562633 -0.0025745903
0.0074630524 -0.0016657445 -0.0043187523 0.0038512663 0.00016607689 -0.0025416752 -0.001547236 -0.000495754
0.0049113086 -0.0036076072 0.0022298072 0.0019347372 -0.0013907746 0.050868478 -0.00093376695 -0.0013932252
-0.0074132956 0.00372961 -0.0008481201 0.0026071519 0.0015499995 -0.0015167182 -2.5876156e-05 0.002882956
0.002475928 0.0012852675 0.004088634 0.016051456 0.00089355133 -0.0017413895 0.0036722457 -0.0018131749
-9.579596e-05 -0.00081211765 0.0053182524 -0.0011076808 -0.0006644828 -0.030562118 -0.0031520661 0.0016169467
