cnn/ANN/seed3/network.pth (torch, 739663 bytes, 4 tensors)

layers_conv.0.0.weight f4 [32, 1, 5, 5]
-0.22210959 0.10862231 0.16736603 0.052662212 -0.2056218 0.12989411 0.15663345 0.06244585
-0.1396831 -0.06519209 0.18243876 0.12115027 -0.29595008 -0.21322428 -0.014975274 0.12944625
-0.08999543 -0.14732544 -0.15132599 0.31391245 -0.04307402 -0.14000243 0.0051182066 -0.14135028
0.25995407 0.032807555 -0.09212614 -0.05263955 0.013885236 -0.21183819 0.017298803 0.08147298
-0.039045945 -0.16538581 -0.13916515 -0.01134122 -0.018849855 0.049995545 0.042035468 -0.0006799783
0.009395966 0.14157896 0.13942665 0.20417166 0.11396337 0.11426087 -0.07626681 0.004059917
0.18633692 0.05175484 0.25712863 -0.112930566 -0.03295203 -0.08482847 -0.07653554 0.1221935
0.154734 0.25499564 0.050429873 0.25926295 0.32461923 0.10106279 0.18701537 0.045087446
0.03234953 0.11110883 -0.11370236 -0.019106405 -0.060074754 -0.29197562 -0.2889184 -0.17401373
-0.24588557 -0.31317887 -0.2688777 0.0801621 0.042120546 0.046477646 0.06880845 0.14509788
-0.05415557 0.24081479 0.18673395 0.18597777 0.27724388 -0.09064819 -0.19509311 0.1846292
0.03344005 0.28434476 -0.36654225 -0.3608792 -0.20779759 -0.19839844 -0.19016802 -0.24219707
-0.37559196 -0.49756673 -0.38373032 -0.22621839 0.008713061 0.26309103 0.10059831 0.35160828
0.26915044 0.022199858 -0.030663807 0.21431388 0.23162976 0.10113678 -0.22259526 -0.15901706
-0.23169723 0.113889195 0.23330742 -0.23857462 -0.42540967 -0.23465094 -0.21371055 0.20043838
0.1087837 0.0038832342 -0.3480451 -0.059287008 -0.013485955 0.041749634 0.15964971 0.12887508
0.16090728 0.2114636 -0.1413448 -0.056228817 -0.03818268 0.26631683 0.23854434 -0.1522241
-0.28885365 -0.58895326 -0.3133482 -0.17547421 0.1613592 -0.01672105 -0.2796011 -0.44728813
-0.18312195 0.2686232 0.3162688 0.36327043 0.29829937 -0.0028653657 0.080990866 0.21548495
-0.17143819 -0.19614428 -0.30019522 0.034490347 -0.41665363 -0.3877356 -0.27963462 0.17172986
-0.38117063 -0.33044353 -0.022277914 0.04482103 0.30457076 -0.27397758 0.10171409 0.25060686
0.18169467 0.18353215 0.097318344 0.15883116 0.07065197 0.022539489 0.13898021 0.0025322742
-0.04371081 0.024682974 -0.015313271 0.16972582 0.002230064 0.12107026 -0.013810013 0.084184736
0.17745706 0.048474465 0.04716794 0.29320714 0.19690005 0.14213845 -0.10379609 0.010801363
-0.15877396 -0.29689294 -0.09665353 0.082492 -0.19382818 -0.076272175 -0.107791804 0.027557122
-0.1064456 -0.31102607 0.19544959 -0.19711618 -0.13783187 0.2089401 -0.07195039 0.045607768
0.007147737 0.15133241 0.1016327 0.014224927 0.04842906 0.049146954 0.09821423 0.22414076
-0.21430793 0.14451116 0.26601276 -0.34427744 -0.16412802 0.0021197293 -0.12394755 -0.112068966
0.005095674 -0.07486007 -0.09802009 -0.17053044 -0.010335893 -0.15660115 0.047899965 0.17593034
-0.08409798 0.19880864 0.07189538 -0.050490607 0.13720655 0.038745053 0.06070528 0.119541824
0.22330897 0.11941855 0.035649326 0.09405134 0.33984733 -0.04487185 -0.15211073 -0.13593163
-0.023153465 -0.0777654 -0.09649769 0.09263358 0.04320746 0.1301512 -0.13206093 0.2696861
00000000: b270 63be 6075 de3d 0062 2b3e 55b4 573d
00000010: 858e 52be f602 053e 8564 203e 38c7 7f3d
00000020: 1609 0fbe 6e83 85bd 3ad1 3a3e a21d f83d
00000030: c586 97be 7757 5abe da5a 75bc 8f8d 043e
00000040: 864f b8bd 7bdc 16be 33f5 1abe 22b9 a03e
00000050: 626e 30bd cc5c 0fbe a1b6 a73b 21be 10be
00000060: b318 853e 3761 063d a1ac bcbd 929c 57bd
00000070: e77e 633c 1cec 58be 38b6 8d3c 4edb a63d
00000080: a4ee 1fbd e65a 29be 4f81 0ebe 86d0 39bc
00000090: 036b 9abc 21c8 4c3d 622d 2c3d 9240 32ba
000000a0: 8af1 193c 13fa 103e dcc5 0e3e 6012 513e
000000b0: a165 e93d 9a01 ea3d c631 9cbd 0d09 853b
000000c0: 1bcf 3e3e e2fc 533d 5da6 833e 2448 e7bd
000000d0: b5f8 06bd 8dba adbd aabe 9cbd 9640 fa3d
000000e0: 9772 1e3e ca8e 823e 8e8f 4e3d 1dbe 843e
000000f0: 7e34 a63e 02fa ce3d f580 3f3e 9dad 383d
00000100: f180 043d 078d e33d c8dc e8bd 0985 9cbc
00000110: f210 76bd d47d 95be 1ded 93be a830 32be
00000120: 6dc9 7bbe fb58 a0be 57aa 89be 072c a43d
00000130: 9886 2c3d 585f 3e3d 72eb 8c3d 8a94 143e
00000140: 3bd2 5dbd 2798 763e 2f37 3f3e f570 3e3e
00000150: e9f2 8d3e c2a5 b9bd 7dc6 47be 700f 3d3e
00000160: 6ff8 083d a395 913e 6dab bbbe 29c5 b8be
00000170: e4c8 54be f628 4bbe 68bb 42be 8202 78be
00000180: 974d c0be 11c1 febe 4d78 c4be cba5 67be
00000190: 3ac1 0e3c deb3 863e 7d06 ce3d 0006 b43e
000001a0: 16ce 893e 7adc b53c aa32 fbbc 1975 5b3e
000001b0: 5a30 6d3e cd20 cf3d 03f0 63be 5ed5 22be
000001c0: 0a42 6dbe bd3e e93d 24e8 6e3e e84c 74be
000001d0: 4ccf d9be 5648 70be f0d6 5abe b83f 4d3e
000001e0: fdc9 de3d dc7d 7e3b f832 b2be efd6 72bd
000001f0: 32f4 5cbc aa01 2b3d 377b 233e d4f7 033e
00000200: e1c4 243e ea89 583e b1bc 10be 3050 66bd
00000210: 7165 1cbd ae5a 883e f844 743e a2e0 1bbe
00000220: a0e4 93be a4c5 16bf 2d6f a0be 83af 33be
00000230: 593b 253e 95fa 88bc e027 8fbe f302 e5be
00000240: 5284 3bbe fb88 893e fced a13e 95fe b93e
00000250: b2ba 983e dcc8 3bbb 8ade a53d 16a8 5c3e
00000260: 7e8d 2fbe 0cda 48be 30b3 99be c045 0d3d
00000270: a053 d5be 4885 c6be 452c 8fbe f4d9 2f3e
00000280: cc28 c3be e52f a9be 2c80 b6bc 4296 373d
00000290: b3f0 9b3e ca46 8cbe 7a4f d03d 8b4f 803e
000002a0: 2b0e 3a3e daef 3b3e d74e c73d a3a4 223e
000002b0: fbb1 903d bca4 b83c d450 0e3e 83f4 253b
000002c0: 1b0a 33bd f333 ca3c 84e4 7abc 9bcc 2d3e
000002d0: 4426 123b aff3 f73d 6543 62bc 0c69 ac3d
000002e0: 4eb7 353e 298d 463d 2b33 413d 3f1f 963e
000002f0: 2ba0 493e be8c 113e 0b93 d4bd 33f8 303c
00000300: a495 22be 5a02 98be 49f2 c5bd 91f1 a83d
00000310: e57a 46be 9634 9cbd f3c1 dcbd 79bf e13c
00000320: 2700 dabd cf3e 9fbe f023 483e d3d8 49be
00000330: cc23 0dbe 65f4 553e ba5a 93bd 36cf 3a3d
00000340: 9037 ea3b e2f6 1a3e ce24 d03d ab0f 693c
00000350: 8d5d 463d 514e 493d 8b24 c93d 2885 653e
00000360: 8a73 5bbe bcfa 133e d332 883e 2245 b0be
00000370: 2d11 28be 28eb 0a3b 37d8 fdbd 6a84 e5bd
00000380: 9df9 a63b 3d50 99bd c2be c8bd 889f 2ebe
00000390: e157 29bc 0d5c 20be c132 443d 1527 343e
000003a0: 903b acbd 7e94 4b3e e33d 933d 3dcf 4ebd
000003b0: e07f 0c3e 22b3 1e3d 1aa6 783d 58d2 f43d
000003c0: 1bab 643e b691 f43d 0705 123d fd9d c03d
000003d0: 7800 ae3e 8ccb 37bd eac2 1bbe a931 0bbe
000003e0: 56ac bdbc 7743 9fbd 95a0 c5bd adb6 bd3d
000003f0: 4efa 303d 5b46 053e fb3a 07be 4c14 8a3e

layers_conv.1.0.weight f4 [64, 32, 5, 5]
0.17084229 0.037925415 0.018386377 0.053825747 0.03166761 -0.038663257 0.07270315 -0.26580516
0.13704817 0.07430358 -0.075173095 -0.29914978 -0.3305064 -0.10674517 -0.1309419 -0.051382206
-0.12547906 -0.15789044 -0.3013138 0.048934653 -0.05883382 -0.03338147 0.056462612 0.055398345
0.092438914 0.0016346341 -0.0053778174 0.15339798 0.10113128 -0.0903941 -0.34835172 -0.36203426
-0.11653609 -0.008757522 -0.04350347 -0.16077408 -0.17038263 -0.23641767 -0.109683305 -0.19100145
-0.1418617 0.062380325 0.103206605 -0.030474987 -0.052814838 -0.032187276 0.07719246 -0.12162581
0.04693196 0.0865529 -0.046658635 -0.061923843 0.013668242 -0.10125602 -0.08797219 -0.011507119
0.09485734 -0.0043909396 0.041618697 -0.15509914 -0.05018521 -0.08177377 -0.14627087 -0.24576679
-0.11929544 -0.028594194 -0.18750492 -0.40560094 -0.20004529 -0.04362883 0.02363217 0.1383143
0.15850954 -0.07965653 0.026561627 0.30272114 0.08784501 0.20789176 -0.018119877 -0.03852509
-0.010929483 0.20900801 0.089462705 0.028596766 0.13882829 -0.04653953 0.1681227 0.14394934
-0.020527327 -0.18725541 -0.18065348 -0.30560645 -0.2577944 -0.34719023 -0.47891304 -0.107523605
0.054423377 0.14955592 0.24080934 0.21672758 0.03405953 -0.011760884 -0.17233673 -0.12978475
-0.23561488 -0.033098627 -0.07348113 0.07774347 0.14114329 0.009984087 -0.04191505 -0.00883238
0.29955858 0.32482547 0.21762677 -0.084941424 -0.18176931 -0.38595536 -0.26995775 -0.41996953
-0.05465972 -0.12056177 0.115183786 -0.05512445 0.117620364 0.26847613 0.0032530506 -0.016610822
-0.05627467 0.082651466 -0.0011392301 0.10051985 -0.042645816 -0.22176188 -0.022414694 0.2551317
0.35646912 0.31387225 0.4030205 0.095704675 0.13996819 0.2241785 0.21230502 0.117057845
-0.10432652 0.3149034 0.046162434 0.0049659624 -0.10616699 -0.211499 0.038854655 0.024385728
0.1132819 0.24467763 0.08357138 -0.31354448 -0.099851675 0.068361916 0.15249522 0.12995812
-0.08287054 -0.33743116 -0.41170847 -0.2030788 0.014125197 0.22293623 0.07952074 -0.08996959
0.08351209 0.0042510573 0.10134773 0.17737392 -0.049804345 0.21130781 0.0759387 -0.007224948
0.056674745 -0.13326213 -0.066873156 -0.014285009 0.043562308 0.06448864 -0.16944036 0.07762331
0.115703486 0.02772087 0.01958002 0.22060242 -0.048586544 -0.04440993 -0.16703953 -0.3358218
-0.2942958 -0.18319193 -0.33366865 0.14759709 0.099729285 0.025742669 0.07447069 -0.012919517
-0.024478804 -0.1467775 -0.13420774 0.00599765 -0.19151387 -0.15253612 -0.23089264 0.003231302
0.13949506 0.016931864 -0.19801709 -0.43011606 -0.17861289 -0.30089024 -0.10970101 -0.06119679
-0.19306615 0.07826871 -0.071253754 -0.23405367 0.036642566 0.059023965 0.09042049 -0.051840726
0.072049014 0.09469798 -0.17782259 -0.07015756 -0.050902408 0.017161028 -0.16977938 -0.053422827
0.114536814 0.046125464 0.026860451 -0.056380544 -0.4354429 -0.38509235 -0.13345493 -0.1382319
-0.08357578 -0.098193035 -0.09506928 -0.012557616 -0.12213306 -0.0038598138 0.008701442 0.18141532
0.07230699 0.08246185 -0.07057477 0.13961771 0.12033306 -0.050962597 0.025573052 -0.15598857
00000000: 48f1 2e3e ae57 1b3d 079f 963c 6378 5c3d
00000010: e5b5 013d 5d5d 1ebd 64e5 943d 9d17 88be
00000020: 5b56 0c3e 7a2c 983d 5af4 99bd 292a 99be
00000030: 2338 a9be 369d dabd a215 06be 2676 52bd
00000040: 957d 00be 08ae 21be cd45 9abe b46f 483d
00000050: bbfb 70bd 02bb 08bd 5745 673d 60e9 623d
00000060: 9d50 bd3d 3841 d63a 6738 b0bb 5c14 1d3e
00000070: eb1d cf3d 8b20 b9bd 285b b2be 8e5c b9be
00000080: 79aa eebd b67b 0fbc b230 32bd f6a1 24be
00000090: c978 2ebe 7917 72be a4a1 e0bd e295 43be
000000a0: 3244 11be 8382 7f3d fc5d d33d aea6 f9bc
000000b0: 5f54 58bd ced6 03bd 1517 9e3d f416 f9bd
000000c0: ba3b 403d a642 b13d 201d 3fbd dba3 7dbd
000000d0: c3f0 5f3c 515f cfbd c32a b4bd 5b88 3cbc
000000e0: 9144 c23d dfe1 8fbb 5e78 2a3d 4fd2 1ebe
000000f0: 028f 4dbd 0279 a7bd 08c8 15be 4aaa 7bbe
00000100: 2b51 f4bd 5f3e eabc 4a01 40be edaa cfbe
00000110: acd8 4cbe 25b4 32bd 4198 c13c 44a2 0d3e
00000120: 5350 223e f622 a3bd c597 d93c 44fe 9a3e
00000130: 16e8 b33d 94e1 543e 2370 94bc 7ccc 1dbd
00000140: 9311 33bc 3206 563e 3938 b73d c443 ea3c
00000150: 0129 0e3e 3ca0 3ebd 5b28 2c3e 7567 133e
00000160: ed28 a8bc e2bf 3fbe 3afd 38be 7378 9cbe
00000170: a1fd 83be ebc2 b1be 1734 f5be 5635 dcbd
00000180: 0ceb 5e3d 3025 193e b996 763e d6ed 5d3e
00000190: 0182 0b3d b9b0 40bc 0a79 30be 4be6 04be
000001a0: 0745 71be 6d92 07bd 467d 96bd f837 9f3d
000001b0: de87 103e 4c94 233c 1eaf 2bbd b0b5 10bc
000001c0: be5f 993e 864f a63e 8dd9 5e3e c5f5 adbd
000001d0: bc21 3abe f19b c5be e737 8abe 3f06 d7be
000001e0: dfe2 5fbd 17e9 f6bd 7ae5 eb3d 2dca 61bd
000001f0: f2e2 f03d b475 893e 2231 553b 6b13 88bc
00000200: 4580 66bd 2c45 a93d 3852 95ba 5add cd3d
00000210: 61ad 2ebd 8c15 63be 059f b7bc 9fa0 823e
00000220: 1f83 b63e ddb3 a03e b458 ce3e d000 c43d
00000230: d253 0f3e 0c8f 653e 7d66 593e 06bc ef3d
00000240: 24a9 d5bd 053b a13e d214 3d3d 83b9 a23b
00000250: 146e d9bd 3293 58be 0f26 1f3d 94c4 c73c
00000260: 5700 e83d c68c 7a3e 7927 ab3d e788 a0be
00000270: 097f ccbd 5501 8c3d b527 1c3e be13 053e
00000280: 08b8 a9bd c7c3 acbe 74cb d2be e4f3 4fbe
00000290: 5f6d 673c 6549 643e c5db a23d fa41 b8bd
000002a0: 6308 ab3d 744c 8b3b 668f cf3d 82a1 353e
000002b0: a4ff 4bbd 1361 583e c085 9b3d 42bf ecbb
000002c0: c723 683d de75 08be cbf4 88bd ac0b 6abc
000002d0: 646e 323d 9f12 843d c681 2dbe f8f8 9e3d
000002e0: f3f5 ec3d e116 e33c 4766 a03c 9ae5 613e
000002f0: af02 47bd 30e7 35bd 690c 2bbe d6f0 abbe
00000300: f0ad 96be aa96 3bbe 9ed6 aabe b123 173e
00000310: de3e cc3d 4ae2 d23c 1784 983d 62ac 53bc
00000320: c687 c8bc d74c 16be c16d 09be ef87 c43b
00000330: 361c 44be 6e32 1cbe 1f6f 6cbe 40c4 533b
00000340: cbd7 0e3e b1b4 8a3c fec4 4abe 2c38 dcbe
00000350: 4ce6 36be 490e 9abe ecaa e0bd 7ca9 7abd
00000360: 22b3 45be 584b a03d 7ded 91bd c4ab 6fbe
00000370: 8416 163d 1dc3 713d 612e b93d f156 54bd
00000380: 6f8e 933d 04f1 c13d 2017 36be c4ae 8fbd
00000390: 0b7f 50bd 4995 8c3c a5da 2dbe e5d1 5abd
000003a0: 4792 ea3d 0eee 3c3d 730a dc3c 49ef 66bd
000003b0: 5ff2 debe d32a c5be 69a8 08be aa8c 0dbe
000003c0: c729 abbd 6e19 c9bd afb3 c2bd 76be 4dbc
000003d0: e620 fabd eef4 7cbb 7e90 0e3c f0c4 393e
000003e0: b015 943d c2e1 a83d 8189 90bd f2f7 0e3e
000003f0: 2e71 f63d 28be 50bd 947e d13c 78bb 1fbe

layers_fc.0.0.weight f4 [128, 1024]
0.07769464 0.08329153 0.15072617 -0.058247488 -0.002891333 0.057820547 -0.027182942 -0.056858506
-0.014224773 -0.03023968 -0.035743386 0.06430059 -7.767799e-05 -0.03604339 0.01689728 0.057340343
0.006330537 -0.0004451703 -0.09256367 -0.21563555 -0.0061289724 -0.10070932 -0.035920564 0.004135921
-0.044068526 0.001911433 -0.03491975 -0.08630566 0.015660625 0.011659494 0.047783412 -0.01249925
-0.034321893 -0.056544278 0.027756047 -0.009338778 -0.055354342 -0.0724083 -0.0056146886 0.038090855
-0.014289233 -0.084743075 0.028871113 -0.018660227 0.124759085 0.09420634 0.111317165 0.034310315
0.012351879 -0.02947615 0.025545232 -0.03147049 -0.035807006 0.03971349 0.047920585 -0.035359204
-0.06722476 -0.015177326 0.030530928 -0.022058496 -0.0142209865 0.03180873 -0.02592817 -0.07610755
-0.049928945 0.007158792 0.017784625 0.075194485 -0.091363855 -0.03540393 0.028218666 0.017384544
-0.0019521244 -0.029882813 0.076844916 0.061345935 0.013628632 0.025178581 -0.008922319 0.0040246085
0.019543964 0.072567165 0.048452247 -0.14301851 0.010252583 0.0019791985 0.080505155 -0.007371159
0.023993662 0.09744453 0.02459741 0.044245217 -0.01174401 0.08980201 0.06515699 0.10990194
-0.08879681 -0.05675281 -0.00019831714 0.048032586 -0.046612937 -0.064834125 -0.038670007 -0.038325846
0.019620793 0.008880459 -0.102269456 -0.106000915 0.05612314 0.0063455882 0.063032985 0.04803602
-0.06267492 0.05075543 -0.017072609 0.05283262 -0.051020294 -0.07289908 -0.051945664 0.02518597
-0.061421856 -0.054308362 -0.025214985 -0.09558672 -0.07600641 -0.03663084 -0.031556435 -0.05062711
-0.082896695 -0.04099805 0.005555098 -0.011258343 -0.15448083 -0.058021665 -0.11323796 -0.10170672
-0.0869827 -0.011626667 -0.14660168 -0.05039162 -0.037957836 0.012478964 0.005625699 -0.07886924
-0.010076095 0.061530806 -0.021351874 -0.101245925 0.091719665 0.04393734 -0.019098187 -0.038060486
0.0693236 -0.012419743 0.06239283 0.08522574 0.013717306 0.09392603 0.010572739 -0.0035870064
-0.018999774 -0.23336647 -0.010885479 0.120216854 -0.011246374 -0.039028652 0.013481291 0.0300712
-0.07832369 -0.050731495 -0.02557589 0.05067138 0.12878338 -0.031194601 0.103607 -0.038319416
-0.06586578 -0.012142943 0.012524838 -0.022601236 -0.008863652 -0.023926772 0.055768773 0.0326182
-0.07782949 0.056176934 0.033989135 -0.013677226 0.06290986 0.0603834 0.04282127 0.018847464
-0.13678429 -0.09338245 0.08628234 0.1634895 -0.13627733 -0.12800893 0.070499204 -0.07117514
-0.1604208 -0.010885971 -0.0460163 -0.06068441 0.09179142 0.11329524 -0.022057205 0.033361677
-0.13368692 -0.0842514 0.008020763 -0.11212084 -0.091318354 0.038057074 -0.040986717 0.015304381
0.050240472 0.018061697 0.080760844 0.07220478 0.10532705 -0.115623705 0.06914071 0.0863964
0.05176128 0.035897434 -0.041921612 0.030428233 0.032654982 0.059490692 -0.010828359 -0.03196404
0.06651555 0.031737495 -0.032877035 0.024493856 0.015019395 0.07914301 0.034242753 0.1438127
-0.031611856 0.0358639 0.01368193 -0.039704747 -0.042875618 -0.07961158 -0.07677783 -0.012128126
-0.06817018 -0.07090292 -0.09384179 -0.028529799 0.01901013 -0.013943455 -0.025256196 -0.053316046
00000000: 5e1e 9f3d c094 aa3d f657 1a3e eb94 6ebd
00000010: 857c 3dbb 3dd5 6c3d c3ae debc 77e4 68bd
00000020: 060f 69bc 35b9 f7bc a867 12bd 07b0 833d
00000030: 0ee7 a2b8 3ca2 13bd 2a6c 8a3c b5dd 6a3d
00000040: 6570 cf3b bf65 e9b9 0592 bdbd 91cf 5cbe
00000050: 8cd5 c8bb b040 cebd 7121 13bd 9f86 873b
00000060: 3381 34bd 0c89 fa3a 0308 0fbd 06c1 b0bd
00000070: b64a 803c 7607 3f3c 8ab8 433d a7c9 4cbc
00000080: 1d95 0cbd f99a 67bd a660 e33c ad01 19bc
00000090: 3cbb 62bd ce4a 94bd 6cfb b7bb 2805 1c3d
000000a0: 631d 6abc c78d adbd 1d83 ec3c 55dd 98bc
000000b0: b181 ff3d 41ef c03d 41fa e33d f988 0c3d
000000c0: 895f 4a3c f877 f1bc 3c44 d13c 33e7 00bd
000000d0: 5eaa 12bd 9daa 223d 6048 443d d0d4 10bd
000000e0: 23ad 89bd 52aa 78bc ff1b fa3c 05b4 b4bc
000000f0: 24ff 68bc df49 023d 5067 d4bc 46de 9bbd
00000100: 4b82 4cbd 4d94 ea3b 10b1 913c 91ff 993d
00000110: f91c bbbd b603 11bd d52a e73c 086a 8e3c
00000120: 6dde ffba cdcc f4bc de60 9d3d e045 7b3d
00000130: a04a 5f3c 5043 ce3c eb2e 12bc dde0 833b
00000140: aa1a a03c 189e 943d dd75 463d 7273 12be
00000150: 73fa 273c 71b5 013b e3df a43d c389 f1bb
00000160: 5b8e c43c ff90 c73d 8280 c93c 793a 353d
00000170: f369 40bc 1eea b73d 0771 853d 4514 e13d
00000180: 1adb b5bd a275 68bd 5af3 4fb9 d1bd 443d
00000190: 35ed 3ebd c1c7 84bd 7164 1ebd 90fb 1cbd
000001a0: c9bb a03c 587f 113c a672 d1bd 0217 d9bd
000001b0: 61e1 653d a7ee cf3b 7017 813d 6bc1 443d
000001c0: b55b 80bd ede4 4f3d dbdb 8bbc 0467 583d
000001d0: a8fa 50bd 1d4c 95bd fac4 54bd cf52 ce3c
000001e0: 7c95 7bbd 7272 5ebd a88f cebc f8c2 c3bd
000001f0: 40a9 9bbd 380a 16bd 5241 01bd 5f5e 4fbd
00000200: bec5 a9bd 92ed 27bd 8a07 b63b ea74 38bc
00000210: 3930 1ebe 20a8 6dbd 4ee9 e7bd 9d4b d0bd
00000220: fc23 b2bd c77d 3ebc c01e 16be 7167 4ebd
00000230: ad79 1bbd 9274 4c3c c957 b83b 3286 a1bd
00000240: 3516 25bc ba07 7c3d 20ea aebc 065a cfbd
00000250: 85d7 bb3d a4f7 333d cd73 9cbc 50e5 1bbd
00000260: 88f9 8d3d 2e7c 4bbc a08f 7f3d d58a ae3d
00000270: 8dbe 603c 4a5c c03d 4839 2d3c fb13 6bbb
00000280: 6aa5 9bbc 9ff7 6ebe 0259 32bc 4134 f63d
00000290: b642 38bc 82dc 1fbd a2e0 5c3c e157 f63c
000002a0: 2c68 a0bd d4cb 4fbd 8784 d1bc cb8c 4f3d
000002b0: cadf 033e d28b ffbc e82f d43d d2f4 1cbd
000002c0: a3e4 86bd 32f3 46bc fa34 4d3c 3a26 b9bc
000002d0: da38 11bc 1402 c4bc cc6d 643d a99a 053d
000002e0: 1165 9fbd c919 663d 3138 0b3d 7216 60bc
000002f0: e2d6 803d 9654 773d 5b65 2f3d ff65 9a3c
00000300: 2e11 0cbe 4c3f bfbd ccb4 b03d cb69 273e
00000310: 498c 0bbe c614 03be e361 903d 46c4 91bd
00000320: 5a45 24be 125b 32bc 967b 3cbd 3790 78bd
00000330: 24fd bb3d 5607 e83d 50b1 b4bc 41a6 083d
00000340: 39e5 08be ff8b acbd 8569 033c 9c9f e5bd
00000350: 1e05 bbbd bce1 1b3d b0e1 27bd 3abf 7a3c
00000360: f4c8 4d3d 20f6 933c f165 a53d 1ae0 933d
00000370: b5b5 d73d 1fcc ecbd a599 8d3d 99f0 b03d
00000380: a303 543d 3009 133d ffb5 2bbd a144 f93c
00000390: 3bc1 053d 83ac 733d 6e69 31bc baec 02bd
000003a0: 4e39 883d 2dff 013d 12aa 06bd 57a7 c83c
000003b0: e913 763c bb15 a23d 2142 0c3d a343 133e
000003c0: 6f7b 01bd 06e6 123d 2c2a 603c 72a1 22bd
000003d0: 589e 2fbd 650b a3bd b23d 9dbd 0cb5 46bc
000003e0: cf9c 8bbd 8d35 91bd 2030 c0bd 53b7 e9bc
000003f0: 22bb 9b3c 1773 64bc 15e6 cebc ed61 5abd

layers_fc.1.0.weight f4 [10, 128]
0.025635175 -0.03817034 -0.06294732 -0.006695766 -0.031215109 0.0002961707 -0.19284403 -0.09435917
0.026854057 -0.016331753 0.065454066 -0.08906469 -0.09809749 0.004535164 0.0016889003 -0.12091369
-0.18057 -0.054908004 -0.05482305 -0.07146258 0.03693065 -0.0088769095 0.007663623 0.00020310626
-0.18901935 -0.08679896 0.0015455381 0.04328886 0.01566118 0.0019340635 -0.07943819 -0.20269692
0.05255154 0.0035068768 0.015810903 0.10746074 -0.010434416 0.091362976 0.0079161385 -0.03562976
-0.18222019 0.06976234 0.064228944 0.050848767 -0.00757347 -0.18117341 0.015859421 0.049481533
-0.06775651 -0.033447105 0.0077833575 -0.14596646 -0.18839177 -0.07915213 -0.093186855 -0.19742136
-0.33217552 -0.07315735 -0.0023482395 0.0008084032 -0.08717812 -0.04634493 -0.19529437 -0.16629681
0.0031790524 0.0148266405 -0.0069398494 0.06241921 -0.00043852214 -0.061263584 -0.05455878 0.0017061047
-0.13936102 -0.0820455 0.0029571867 0.00094946456 0.07338522 -0.13723937 0.027346458 -0.26174608
0.034092616 0.06953277 -0.057675842 -0.00202138 0.030632418 0.11214123 -0.069660455 -0.002930059
-0.13117823 -0.10439254 -0.2600267 0.038401637 -0.053472858 0.0750861 0.009919117 0.0006893625
0.0021032107 -0.011546218 -0.109774016 0.0023793154 0.107464254 -0.030693673 0.14329767 0.11513396
-0.081030644 -0.2199075 0.031377725 0.0281769 -0.0015964194 0.045741696 -0.14629072 0.037187867
0.07598837 -0.0034368618 -0.053156972 -0.026484547 -0.08071659 -0.13220492 0.03751069 0.023737555
-0.21938254 0.006176282 0.056977067 0.013268054 0.20334849 0.04356809 -0.07575743 0.036216103
0.0067617837 -0.005965668 -0.09941194 -0.00055446953 -0.016736265 -0.10295633 0.015994813 -0.02172026
0.048938237 0.068401724 -0.061888836 -0.03212488 0.080285475 0.068916835 -0.009998463 0.055201847
-0.05351482 -0.04555576 0.17222752 0.039155696 -0.013952699 -0.07443555 -0.0011582244 0.008764518
0.02403278 0.048103373 -0.13121736 -0.14487325 -0.098767795 -0.0025745668 -0.027519142 0.023585053
-0.17579886 0.017160976 -0.11867622 -0.1259847 0.0065514543 -0.15953332 -0.22068433 0.14998853
-0.15958568 -0.03839533 -0.058327574 0.0026276088 -0.00039941288 -0.10715189 0.041353226 0.005259151
-0.10274526 0.04167505 -0.010944402 0.016218675 -0.0135731 -0.2825148 -0.019948762 0.03680953
0.1210154 -0.039774314 -0.0074527157 -0.06884699 -0.01730831 0.06267835 -0.0310726 0.023948895
-0.039132506 -0.006547409 -5.380421e-05 0.08128322 -0.0027028832 0.12494867 0.042500265 -0.008211785
0.014974138 -0.043270387 -0.00024407495 -0.12585323 -0.11719024 0.16978511 -0.15057677 -0.0155548565
-0.18241197 0.04173769 0.012476771 0.0020623219 0.059048265 -0.009215633 0.005213962 2.1915505e-07
-0.029755639 0.044247426 -0.07353632 -0.08413056 0.027139494 -0.06821114 -0.0049459375 -0.17045876
0.0010279885 0.021342114 -0.021863777 -0.016796673 0.20752557 -0.008932751 0.058231857 0.20372842
-0.000308653 0.036109697 0.023185357 0.015498638 0.013520416 -0.295274 -0.100257 0.0449683
-0.010587571 0.086012624 -0.09928268 -0.004109863 0.0064531495 -0.030872459 0.042027608 -0.13447013
-0.117596515 -0.084972754 0.020086985 0.0866817 -0.16655758 -0.09453358 -0.03640258 -0.15272881
00000000: dc00 d23c 8158 1cbd 86ea 80bd 2868 dbbb
00000010: d4b6 ffbc 5c47 9b39 e878 45be 613f c1bd
00000020: 0afd db3c 2bca 85bc c80c 863d 8c67 b6bd
00000030: 56e7 c8bd b79b 943b 175e dd3a 99a1 f7bd
00000040: 58e7 38be 37e7 60bd 228e 60bd f95a 92bd
00000050: 9844 173d 7570 11bc 211f fb3b ecf8 5439
00000060: 4a8e 41be a7c3 b1bd a793 ca3a a94f 313d
00000070: e04b 803c 6780 fd3a 7db0 a2bd c88f 4fbe
00000080: 4940 573d a1d3 653b de85 813c 6014 dc3d
00000090: 1df5 2abc 831c bb3d b1b2 013c 83f0 11bd
000000a0: ee97 3abe 8fdf 8e3d 778a 833d cc46 503d
000000b0: df2a f8bb 8685 39be 9eeb 813c 26ad 4a3d
000000c0: edc3 8abd d5ff 08bd 890b ff3b 3b78 15be
000000d0: c6e9 40be 831a a2bd c0d8 bebd d328 4abe
000000e0: e912 aabe 85d3 95bd ece4 19bb 05eb 533a
000000f0: 718a b2bd 2ed4 3dbd 3ffb 47be b649 2abe
00000100: a657 503b 70eb 723c ad67 e3bb 49ab 7f3d
00000110: 72e9 e5b9 86ef 7abd 0779 5fbd 609f df3a
00000120: a8b4 0ebe 7907 a8bd 5ccd 413b 7de5 783a
00000130: fd4a 963d 7a88 0cbe ae05 e03c 9503 86be
00000140: b3a4 0b3d 3267 8e3d 813d 6cbd 2179 04bb
00000150: d6f0 fa3c 4daa e53d 24aa 8ebd 3c06 40bb
00000160: 9653 06be c2cb d5bd 3822 85be 094b 1d3d
00000170: 5b06 5bbd bec6 993d cb83 223c 56b6 343a
00000180: 05d6 093b 592c 3dbc 33d1 e0bd 4aee 1b3b
00000190: 3816 dc3d 4c71 fbbc a0bc 123e 5bcb eb3d
000001a0: 65f3 a5bd 6f2f 61be ee85 003d 3ed3 e63c
000001b0: f23e d1ba a55b 3b3d 3ccd 15be 4e52 183d
000001c0: ca9f 9b3d f93c 61bb 20bb 59bd 1ff6 d8bc
000001d0: bd4e a5bd ba60 07be cfa4 193d 4375 c23c
000001e0: d1a5 60be 6962 ca3b c960 693d 4162 593c
000001f0: 963a 503e 7474 323d b626 9bbd 5657 143d
00000200: f491 dd3b a67b c3bb 7d98 cbbd d259 11ba
00000210: 7e1a 89bc c5da d2bd 8e07 833c b0ee b1bc
00000220: 7673 483d 3416 8c3d 267f 7dbd 6195 03bd
00000230: b66c a43d 4524 8d3d 98d0 23bc 551b 623d
00000240: 5b32 5bbd ad98 3abd 695c 303e b961 203d
00000250: dc99 64bc aa71 98bd 90cf 97ba 0e99 0f3c
00000260: 65e0 c43c 0b08 453d d85d 06be a759 14be
00000270: c546 cabd 10ba 28bb d36f e1bc 7135 c13c
00000280: 9e04 34be 2d95 8c3c 850c f3bd 2202 01be
00000290: 95ad d63b b45c 23be 13fb 61be 9896 193e
000002a0: 6e6a 23be 6c44 1dbd e5e8 6ebd f633 2c3b
000002b0: 4a68 d1b9 7372 dbbd 0062 293d f554 ac3b
000002c0: 1b6c d2bd 75b3 2a3d 2650 33bc 07dd 843c
000002d0: b561 5ebc c8a5 90be 966b a3bc 97c5 163d
000002e0: ecd6 f73d 64ea 22bd e935 f4bb a7ff 8cbd
000002f0: 28ca 8dbc 825d 803d f78b febc 7930 c43c
00000300: 6849 20bd a68b d6bb d5ab 61b8 d177 a63d
00000310: db22 31bb 17e5 ff3d c214 2e3d b98a 06bc
00000320: 1656 753c 4a3c 31bd 5fee 7fb9 abdf 00be
00000330: 7001 f0bd 26dc 2d3e cc30 1abe ccd9 7ebc
00000340: 34ca 3abe 24f5 2a3d 5f6b 4c3c 0528 073b
00000350: 98dc 713d 2bfd 16bc e2d9 aa3b e250 6b34
00000360: 19c2 f3bc ca3c 353d 369a 96bd a54c acbd
00000370: a553 de3c 48b2 8bbd 8811 a2bb be8c 2ebe
00000380: 92bd 863a a8d5 ae3c aa1b b3bc 2d99 89bc
00000390: 9581 543e ac5a 12bc 8784 6e3d 2f9e 503e
000003a0: b4d2 a1b9 c3e7 133d 38ef bd3c 00ee 7d3c
000003b0: bc84 5d3c 272e 97be 8b53 cdbd ae30 383d
000003c0: 7e77 2dbc 6327 b03d b854 cbbd 08ac 86bb
000003d0: f174 d33b 3de8 fcbc 2425 2c3d 8ab2 09be
000003e0: 71d6 f0bd 3206 aebd 768d a43c 2d86 b13d
000003f0: 128e 2abe d29a c1bd df1a 15bd f164 1cbe
