mlp/ONN/seed0/network.pth (torch, 473735 bytes, 3 tensors)

layers.0.0.weight f4 [128, 784]
000000 6f 6a 9b bc 38 11 1f 3d 1b 70 17 be 7e f9 0d bc
       -0.01897165 0.03883478 -0.14788859 -0.008665441
000010 6e 30 01 be 83 bd 0b 3d ed a1 86 3d 63 31 42 3d
       -0.1261613 0.03411628 0.06573854 0.04741038
000020 b6 09 95 3d 19 26 bb 3c b1 aa b0 3d b7 fb db 3c
       0.07277243 0.022845315 0.08626307 0.026853425
000030 6e 7c 87 3d 2c 63 81 3e 82 f1 0e 3d b5 83 80 bd
       0.0661553 0.25270975 0.03489829 -0.06275121
000040 7e dc bc 3d c9 b7 89 3d 38 c1 4e 3d d4 1a 31 3e
       0.09221743 0.06724507 0.050477237 0.1729539
000050 c9 84 12 3d 1d e2 74 bc dd 23 8d bc a9 e9 97 bd
       0.035771165 -0.014946488 -0.017229015 -0.07417614
000060 0c 61 ac bd 08 bf 70 3d bf 7f fd bd 30 af 97 3c
       -0.08416948 0.05877593 -0.12377881 0.018516153
000070 09 7c 44 3e bd de d7 bc 4e 35 86 3d 25 1a cf 3c
       0.1918794 -0.026351327 0.06553136 0.025281021
000080 99 c4 f8 bd 00 e0 1d 3d a2 e7 ab bd 05 e7 12 3e
       -0.12146873 0.0385437 -0.0839379 0.1434594
000090 c5 dc fb bd e4 1a 1d 3d aa c7 c5 bd 94 1a f0 bd
       -0.12297968 0.038355723 -0.096572235 -0.117238194
0000a0 21 3f 40 3d db 1e 1f 3d 34 2d 0d bd 82 ca 82 be
       0.046935204 0.038847785 -0.034466937 -0.25545126
0000b0 45 38 7e bd 53 f7 5c 3e 06 b4 19 bd 92 a8 77 3e
       -0.06206538 0.21578722 -0.0375252 0.24185398
0000c0 41 86 49 3e 5c 27 a1 ba f1 b9 68 3e 13 0e 9a 3d
       0.1968012 -0.0012295055 0.22727181 0.07522216
0000d0 9a ca 4c bc 4b 7d f6 bd 82 34 f4 3c 02 4e a2 bd
       -0.012499476 -0.120356165 0.029810194 -0.07925035
0000e0 71 05 94 bd ff 1c 02 be 16 98 ef 3d 73 37 a7 3d
       -0.072276 -0.12706374 0.1169893 0.08164873
0000f0 58 3f a5 3d 9e be 1a 3e 0e dd 40 be 45 e4 aa 3e
       0.080687225 0.15111777 -0.18834326 0.3337728
000100 7f 10 7d bd af 00 2b be ca 49 66 3e f9 73 0b 3e
       -0.06178331 -0.1669948 0.22489086 0.13618459
000110 18 59 25 3e 86 b8 e7 3c 0d 4f a6 bd 2f 4d da bc
       0.16147268 0.02828623 -0.081205465 -0.026648132
000120 8b d7 71 be 3b d5 ec ba f3 32 bf bc 0c ca 37 3e
       -0.2361738 -0.0018068919 -0.023339724 0.17948169
000130 72 f0 8d 3e 7b 14 a9 3d fe 31 2b 3d cd 18 71 3d
       0.27722508 0.082558595 0.041795723 0.058861542
000140 e7 5e ec 3d 1d 32 7e 3e af df 0e bd 7a 42 1c 3d
       0.11541539 0.24823804 -0.03488129 0.038149334
000150 76 09 99 3d af 17 04 3e 80 0f d1 bd 8e 78 9a bd
       0.07472508 0.1289966 -0.102080345 -0.07542525
000160 b9 84 6a 3e 1b 13 be 3e 31 e2 c6 bd 12 e2 8c 3b
       0.22902192 0.3712395 -0.09711111 0.0042994106
000170 5b 02 bb bd 92 86 c5 3d 6e af 7f 3d 2a ea f0 bd
       -0.09131309 0.09644808 0.062423162 -0.11763413
000180 09 ff 22 bd b0 80 50 3b 81 8e ab 3d 99 6b 0f 3e
       -0.039794 0.0031814985 0.0837679 0.14005889
000190 1d b1 cf bd 98 e9 8f bd 0a 88 a1 3d 9e 9c 2c be
       -0.101412036 -0.07026976 0.078872755 -0.1685662
0001a0 48 72 c2 bd ea ce 38 bd 19 1c bb 3c d5 1e 8d 3c
       -0.09494454 -0.045119204 0.022840546 0.017226616
0001b0 c2 8e 45 be 28 54 e4 3d 24 a3 53 3d f4 46 86 3e
       -0.19292739 0.11148864 0.051669255 0.26226008
0001c0 2f 7d 70 be 0d c8 0c 3e 2d b3 d0 3d ac 40 9a 3e
       -0.23485254 0.13748188 0.10190425 0.30127466
0001d0 c6 6f 8e bd 05 0c 57 3d a7 12 6f 3c 6e 69 13 3e
       -0.06954913 0.052501697 0.014591849 0.14395687
0001e0 46 3f 3f bd 86 88 c2 3d b3 04 6a 3e bf 30 40 bd
       -0.0466912 0.09498696 0.22853355 -0.046921488
0001f0 b2 a8 f7 bd aa 9b 6f 3d 69 83 e2 3c f1 e2 31 3d
       -0.12092723 0.058498062 0.027650552 0.04342932
000200 f5 11 2e 3d 40 82 1f be a4 27 12 3b 59 d7 c1 bc
       0.042497594 -0.1557703 0.002230146 -0.023662256
000210 d9 2b 6d be 6b df 11 be 9b 61 80 be fa c2 95 3d
       -0.23161258 -0.14245383 -0.25074467 0.073125795
000220 b9 21 ae 3b 1c 78 16 bd 13 53 a8 be d6 0f 9e 3c
       0.0053140786 -0.03673564 -0.3287588 0.01929466
000230 b0 16 0a 3d 2c 89 b6 bb 05 ad 2d 3e e9 91 f9 3d
       0.033713043 -0.0055705514 0.16960533 0.12186033
000240 9b 8d 6d 3e 12 25 11 bd 88 e0 1a 3d 17 18 a2 3d
       0.2319855 -0.035435744 0.037811786 0.07914751
000250 1d 8a 83 3d 5d 0c 9f bb 26 61 25 bd 25 03 a3 bd
       0.064228274 -0.0048537687 -0.04037585 -0.07959584
000260 d5 eb 09 bd f9 c7 c9 bd 4a 71 80 bd 92 54 09 3e
       -0.033672173 -0.09852595 -0.06271608 0.13411167
000270 56 6c 34 bc 7d 6d 8a bd e8 cb 68 bd 20 9a f7 3c
       -0.011012157 -0.067591645 -0.056835085 0.03022486
000280 78 02 93 3c ae bd ab 3d 23 7b 77 bd e7 68 b8 3d
       0.017945513 0.08385788 -0.060420167 0.090043835
000290 36 b0 07 3e d2 e4 26 be 63 39 44 3a cb c3 4f bd
       0.13250813 -0.16298226 0.0007485358 -0.050723832
0002a0 ab 95 6e bd e3 96 bb bb c1 97 0d be e1 83 0d be
       -0.058248203 -0.005724774 -0.13827421 -0.13819839
0002b0 73 b1 78 3e 4f 88 cd bd 85 28 ba bd bd 6c 68 3e
       0.24286442 -0.100357644 -0.0908976 0.2269773
0002c0 75 c9 35 3e ac d6 02 be cc d5 a6 3d d8 21 fa bc
       0.17752631 -0.12777203 0.08146247 -0.030533716
0002d0 5c 2a 53 be 33 1b 0b bd bd 78 13 bd 0d 1a 0d 3d
       -0.20621628 -0.033961486 -0.036003817 0.034448672
0002e0 68 55 99 bc a6 c9 2b bd eb 72 81 3d 99 3b 66 3d
       -0.018717483 -0.041940354 0.06320747 0.05620918
0002f0 96 a0 fa bd a6 8f 13 bc 12 ee 8e bd 89 80 81 3d
       -0.122376606 -0.009006416 -0.06979002 0.06323344
000300 fa 66 cd bc e8 87 3d be f9 7a 8c bc 1b 8e 4d 3c
       -0.025073517 -0.18508875 -0.017148482 0.012546088
000310 55 ae b6 3c 41 ad 21 bd 0c f6 22 3e 03 3a ba bd
       0.022299925 -0.03947187 0.15914172 -0.09093096
000320 63 4b 2a bd ab 3d c8 bd e6 f9 15 3e f3 25 74 3d
       -0.0415758 -0.09777387 0.1464611 0.059606504
000330 73 a5 b5 ba 61 c2 25 3e 92 99 20 3e 77 a6 d4 bc
       -0.0013858512 0.16187431 0.15683582 -0.025958283
000340 4b c3 39 3e 75 f9 6e 3e 92 ef 7e bd 5d ba 6f 3d
       0.18140905 0.23337348 -0.06224019 0.05852734
000350 cb ea d2 3d e8 84 81 3d 39 c0 4f 3c 5b 84 2d 3e
       0.102986895 0.06324178 0.012680107 0.16945021
000360 0d fd b4 3c d2 af 15 bd 36 b8 0d be 7c 5d ac bd
       0.02209332 -0.03654463 -0.13839802 -0.08416268
000370 af 61 86 3e 5d cd 92 bd 38 44 14 3e d3 48 de bd
       0.26246402 -0.07168076 0.14479148 -0.10853734
000380 08 71 51 bd 08 c7 60 bb 93 e6 db bd 7f ee 4c 3d
       -0.051133186 -0.003429832 -0.10737338 0.050032135
000390 5c 03 d1 3c 6c fd 09 bd 58 ba 8f bc a0 c3 ef bd
       0.025514297 -0.033688948 -0.01754491 -0.117072344
0003a0 37 f1 a0 bd 65 c7 c1 bd 07 5b 30 3d d8 13 39 3c
       -0.07858508 -0.094618596 0.04305556 0.011296235
0003b0 95 9e e0 3d 3b 8e 9e 3d 56 4f 78 be a5 a7 14 3d
       0.10967747 0.07741972 -0.24249014 0.03629269
0003c0 1d d0 84 3d 91 15 25 3a 71 50 4c be a3 05 22 3d
       0.06485007 0.0006297464 -0.19952561 0.039556157
0003d0 cf 37 14 bd d7 02 a8 bd 9e 83 89 3c bd 12 47 3b
       -0.036186036 -0.08203667 0.016786393 0.003037616
0003e0 9d d4 08 3e 5c 8e f4 3d e8 96 00 3d ff 59 81 3e
       0.13362356 0.119412154 0.031393915 0.25263974
0003f0 36 05 a4 bd fd 6c 23 be 9c 25 8f be 92 04 6a bd
       -0.080088064 -0.15959544 -0.2795838 -0.057133265

layers.1.0.weight f4 [128, 128]
000000 13 62 8c be 23 6f 24 be 09 79 5a be 42 93 61 3d
       -0.27418575 -0.1605802 -0.21335234 0.055072077
000010 ff 33 56 be 06 d8 b6 3c c0 c0 59 3c a0 0e 7c 3c
       -0.20918272 0.022319805 0.013290584 0.015384346
000020 dd 52 ba 3d 42 04 cc bc 17 91 3e 3e 32 c8 75 3d
       0.09097836 -0.024904374 0.18610035 0.060005374
000030 9f 5a 9e be 42 be 7b 3d 2d 13 e5 3c ed 42 56 be
       -0.30928513 0.06146074 0.027963245 -0.20923968
000040 16 58 91 bd 04 26 1e bd 63 1f 32 3c a0 d0 78 be
       -0.07096879 -0.038610473 0.010871741 -0.24298334
000050 e7 e8 15 be 97 a6 0a be 4c 75 2d be ac 5f 88 3e
       -0.14639626 -0.13540111 -0.16939276 0.26635492
000060 f7 e3 e7 bd 1a 54 d0 3d 13 5c a0 3c 88 7a f8 3c
       -0.11322778 0.10172291 0.019575154 0.030331865
000070 17 66 39 bd 19 fd d3 bd 90 9e cc bd 80 bc 07 bd
       -0.045263376 -0.10351009 -0.09991181 -0.033138752
000080 51 a5 5b 3c dd 07 56 3d 25 d3 b8 bd 79 24 0a 3d
       0.013406114 0.052253593 -0.090246476 0.03372619
000090 9e de a4 3a 41 c3 10 be 5c 33 ab bc 86 a5 e2 bb
       0.0012578552 -0.14136983 -0.020898513 -0.0069167046
0000a0 3d 8c 4b 3d 49 23 e8 bd 66 77 d7 bd ad 15 87 bd
       0.04969429 -0.11334855 -0.1052082 -0.06595931
0000b0 59 7f 57 3d 4f 1c 23 be e2 7a 9b bd 23 b5 17 3e
       0.052611683 -0.15928768 -0.075917974 0.14815192
0000c0 3f 04 5c 3e 5e 17 09 3d a2 04 85 3e f8 e3 f0 3d
       0.21485995 0.03346955 0.25980097 0.117622316
0000d0 07 7e 6a b9 56 3f 20 be e4 cd 9a 3d b4 ed 2f be
       -0.00022362928 -0.1564916 0.07558802 -0.1718052
0000e0 05 25 a3 bd 49 45 a0 3d 0c a5 47 be d3 a7 07 3e
       -0.07966045 0.07825715 -0.19496554 0.13247614
0000f0 d3 0c da bd 6e 07 07 3e 0f e8 36 3e 79 0e 6f be
       -0.10646977 0.13186428 0.17861961 -0.23345365
000100 20 6d 9f 3d 59 6a 19 3b e3 be 61 3e 5a 27 1b 3e
       0.07784486 0.0023409335 0.22045474 0.1515173
000110 f4 55 e2 bd f9 6b 48 3c 56 85 46 be 57 4f 11 be
       -0.110515505 0.012232774 -0.19386801 -0.14190422
000120 ef 30 05 be 09 bc 0a 3e a4 0a 60 3c 82 a8 a4 bb
       -0.13006948 0.13548292 0.013674412 -0.0050249705
000130 80 d7 03 3c aa 6a 60 bc 50 5e 21 3e ef 14 f9 3d
       0.008046985 -0.013697306 0.15758634 0.12162196
000140 22 f6 f4 3d 0b ce b4 bd 3a 90 ea bd be 34 43 bd
       0.119610086 -0.08828362 -0.1145329 -0.04765772
000150 86 53 ea 3c a9 0e 0d be 69 f0 87 3d f9 0b 3c be
       0.02860428 -0.13775124 0.066376515 -0.18363942
000160 1f ce 3a bd f5 c1 0a 3e 31 c5 50 3e 99 d9 02 3e
       -0.04560673 0.13550551 0.20387723 0.1277832
000170 52 8d 86 be e0 d3 31 bd 3d b1 6e 3b c4 c1 5d 3e
       -0.26279694 -0.04341495 0.003642156 0.21655947
000180 27 4d ef 3d 46 d9 13 3e 08 69 af bd 9a e4 4f bd
       0.116846375 0.14438352 -0.08564955 -0.05075512
000190 33 c5 24 3e 94 51 ae bd 8d 4e 80 bd 96 83 be 3c
       0.1609085 -0.085116535 -0.06264982 0.023256104
0001a0 24 f0 1b bd a4 3f 8d 3c e3 fe 20 bc 8a 4e 29 be
       -0.038070813 0.01724226 -0.009826395 -0.16533867
0001b0 14 8f ab bd 36 21 a7 bc ab 24 ad 3d 88 f1 12 be
       -0.08376899 -0.020401578 0.084542595 -0.1434995
0001c0 0c f5 5e be 20 da 54 3d 36 a3 a5 bd bc 54 90 be
       -0.21773165 0.051965833 -0.08087771 -0.28189647
0001d0 79 cf f2 3d 9a a5 d2 bd dc 3b 07 3e 80 76 e9 3d
       0.118559785 -0.10285492 0.13206428 0.11399555
0001e0 e1 3a 8b 3d f9 9d 17 3d e6 02 be bb 48 c2 0e ba
       0.0679834 0.03701589 -0.0057986854 -0.000544582
0001f0 43 b4 34 3e a0 83 f1 3c 42 ae 1e be 5b 99 e1 bd
       0.1764689 0.029481709 -0.15496162 -0.11015578
000200 13 dc bc 3d 42 20 85 bc 20 30 2d 3d 0b 9b 0e 3e
       0.09221663 -0.016250733 0.042282224 0.13926332
000210 43 26 45 3c c9 af 9a 3b 76 88 d9 3d 6b 77 ac bc
       0.012033048 0.0047206623 0.10621731 -0.021053037
000220 d6 bc 98 bb 5d bf 65 3d 4c 92 aa bd 78 f7 df 3d
       -0.004661183 0.0560907 -0.08328685 0.10935873
000230 e9 68 81 3c 07 b7 b1 3d dd 1e ec 3d ad 1a 2f 3e
       0.015797095 0.08677488 0.11529324 0.1710002
000240 4d 25 b3 3a 4f b5 8a bc f3 c5 86 bd ad 04 a5 3c
       0.0013667733 -0.016932158 -0.065807246 0.020143831
000250 01 59 68 bd 4a 72 6f ba 5b 20 22 be f0 e6 3b be
       -0.056725506 -0.0009134157 -0.15832655 -0.18349814
000260 03 76 13 be 3c 1d 1f bc 3f c6 30 bd 63 29 fb bd
       -0.14400487 -0.00971156 -0.043157812 -0.12263753
000270 a4 00 d0 bc 06 f2 4b be 20 9b b0 bd 63 3f 28 bd
       -0.02539093 -0.19916543 -0.08623338 -0.041076075
000280 48 89 9b 3d 9c 57 9a bb 5c 21 9d bd b9 72 a6 bd
       0.07594544 -0.004710151 -0.076723784 -0.0812735
000290 5c 83 e3 bc 80 38 5d be 61 c3 93 3d c5 0e cb 3a
       -0.027772598 -0.21603584 0.07215 0.0015492073
0002a0 0a d8 d7 3d 26 ad e4 3c d1 ab 20 3e 62 c9 d2 3c
       0.10539253 0.027914595 0.15690543 0.025730792
0002b0 75 b3 b7 3d 8d 74 e1 bd ff 19 13 bd 37 04 8e bd
       0.089697756 -0.110085584 -0.035913464 -0.06934398
0002c0 46 80 f6 3d f6 90 f9 bc 8e 25 6d 3d ae bb d8 3c
       0.12036185 -0.03046463 0.057897143 0.02645668
0002d0 be e3 50 3d 7b 1e 7f 3c a8 e3 07 3e 37 b8 80 3d
       0.050998442 0.015571232 0.13270438 0.06285136
0002e0 50 e6 56 3d 26 e3 a5 be 2d 71 64 3e 9a 0d af 3d
       0.052465737 -0.32399863 0.22308798 0.08547516
0002f0 03 f3 87 3d 32 96 78 bd c0 ba 1a bd 69 e4 75 bb
       0.06638148 -0.060690112 -0.037775755 -0.0037520176
000300 e2 0c 29 3d 82 4c 05 3e 73 c7 eb bd 08 18 3d be
       0.04127205 0.13017467 -0.11512651 -0.18466198
000310 d7 e2 d0 bc bd c4 77 3d 8e 8f 6e bd 0c 92 9a 3d
       -0.02549879 0.06049036 -0.058242373 0.075473875
000320 d5 38 67 3d f0 84 15 bd 04 69 fb 3d 55 5f 95 ba
       0.056450684 -0.036503732 0.122758895 -0.0011396209
000330 94 7a a1 bb e0 bd a3 bd 17 54 80 bd a7 70 20 3d
       -0.0049279425 -0.079952 -0.06266039 0.039169934
000340 5d 0e bf 3d 9b e5 09 3c 9a 35 86 3d ed 24 2b 3e
       0.093289115 0.008416559 0.065531924 0.16713305
000350 23 e4 b6 3c c8 dd 74 3c 51 1f 4b bd cf ed f1 3b
       0.022325581 0.014945455 -0.049590413 0.0073830853
000360 b3 86 57 bc 17 20 d9 ba 48 99 a0 3b 0e f2 02 3d
       -0.013154673 -0.001656535 0.004901085 0.031969123
000370 58 d4 cd 3d a9 a9 71 3c 15 02 9f 3c 71 bb 87 bd
       0.10050267 0.014749923 0.019410172 -0.066275485
000380 4c 05 f6 3c 2a 9d 65 3b 2c 8f f8 bd ba c1 a3 bd
       0.030031823 0.0035036304 -0.12136683 -0.07995935
000390 09 8a b4 bc 87 40 2d 3d 89 31 ad 3d 03 23 c5 3d
       -0.022038477 0.042297866 0.08456714 0.096258186
0003a0 ac 70 d3 bc 91 20 b3 bd 30 8b a8 bd 5b 14 7d 3d
       -0.025810562 -0.08746446 -0.08229673 0.06178699
0003b0 25 01 80 3d c9 1e da 3c 08 fe 6e bd f7 e1 a5 3d
       0.06250218 0.026626008 -0.05834773 0.0809974
0003c0 3a a9 62 bd 73 99 2d 3c 96 5d 1b 3c 84 ae c0 bd
       -0.05533717 0.010595667 0.009482762 -0.09408286
0003d0 59 49 92 3c d4 57 c3 bc 92 a1 82 bb 24 a8 04 be
       0.01785724 -0.02384559 -0.003986546 -0.12954766
0003e0 60 21 a1 bd 25 94 9d bc 37 05 46 3e 30 f9 d5 3c
       -0.07867694 -0.01923568 0.19337927 0.026119798
0003f0 2e 17 08 3e fb c0 07 3e ec 95 17 be 07 83 f1 bc
       0.13290092 0.1325721 -0.14803284 -0.029481424

layers.2.0.weight f4 [10, 128]
000000 84 04 a2 bc 04 fe 0a 3d 46 c1 55 ba 5f 08 72 be
       -0.019777544 0.033933654 -0.0008154105 -0.23636006
000010 60 37 fb bb 1e a1 22 bb e5 4e f9 3a b5 72 43 3b
       -0.0076665133 -0.0024815272 0.0019020705 0.002982301
000020 2c d2 62 bb 64 3c 42 be 30 2f 49 3c cb 73 4e ba
       -0.0034610135 -0.1896835 0.012279317 -0.0007875531
000030 6d be f8 3e 13 6f 0f bc d0 87 cd 3b 53 2e 9c ba
       0.48582783 -0.0087545095 0.0062722936 -0.0011915661
000040 23 03 a9 bc af f6 29 3a c2 5f 41 bc 95 8e c7 bb
       -0.020631379 0.0006483597 -0.011802616 -0.006089995
000050 4d 0c 19 bb 51 2d a8 ba a5 1b b5 bc 8e 54 02 3b
       -0.002335328 -0.0012830888 -0.022107909 0.0019886824
000060 a7 b8 30 3e bd 3e cc 3b c3 ce e8 bd 51 1f b4 ba
       0.1725794 0.006233065 -0.11367562 -0.0013742243
000070 dd 0b 4a bb f9 5e 6f 3c 35 39 14 3c bd 85 81 3c
       -0.0030829825 0.014610046 0.009046842 0.015810842
000080 d5 c6 df ba 90 45 35 3c a2 01 89 3b 66 31 ab 3b
       -0.0017072806 0.011063948 0.004181103 0.0052243946
000090 93 fc 1d b9 c7 8c ad bb 6c 02 15 bc 2c 0b 88 3c
       -0.00015066778 -0.005296323 -0.009094816 0.01660689
0000a0 b8 23 2f bc 9c 42 d1 bb 6b 52 9e 3c 35 97 43 3b
       -0.010689668 -0.0063861143 0.01932641 0.0029844765
0000b0 87 cb ae 3d 4b 61 14 bc 6c 5f 89 3b c8 e0 cd bb
       0.085349135 -0.0090564 0.0041922834 -0.0062828995
0000c0 93 5c 93 3c aa af cc bb da f7 0b bb 03 51 03 bc
       0.017988479 -0.0062465267 -0.0021357448 -0.00801492
0000d0 eb d3 0f 3d a4 0a 20 bc 71 10 2c bc 6b 54 8d 3c
       0.03511421 -0.009768162 -0.010501967 0.017252168
0000e0 67 8d 35 bc de 7b 9d 3c 00 e6 82 3e af 82 b1 bc
       -0.011081076 0.019224104 0.255661 -0.02166876
0000f0 76 b7 16 bc 2f b7 78 3b 39 36 6a 3e 66 87 c7 3b
       -0.009199014 0.0037950983 0.22872247 0.006089139
000100 2a a6 a8 b8 e2 ab 6f 3c 84 07 15 3d 1e c8 95 bc
       -8.041815e-05 0.014628382 0.03638412 -0.0182839
000110 99 d2 bb 3b bc b9 f5 bb f4 30 83 bc 9b 7f d9 3c
       0.0057318923 -0.007498948 -0.016014554 0.026550105
000120 1b 7d 37 3c 01 7c 63 bc 0b e8 df 3b 85 45 e7 3c
       0.011199261 -0.013884545 0.0068330816 0.028231392
000130 11 97 b6 3b b1 f4 0c 3c 85 68 98 3c d6 a7 d8 b9
       0.0055722077 0.008603261 0.018604526 -0.00041323778
000140 45 96 c1 bb 4c 77 96 3c 50 55 13 3c 69 ef 2a bc
       -0.005907806 0.018367432 0.008992508 -0.010433056
000150 30 54 f0 bb 73 dc 9b 3c be 93 23 bd 65 b0 c5 bb
       -0.0073342547 0.019026017 -0.03993582 -0.0060329908
000160 88 05 90 bc 37 2a 3d be 16 5f ab bc 3b b4 08 bc
       -0.017580763 -0.18473135 -0.020919364 -0.008343752
000170 2f 49 99 3c 71 7b 1a bc 98 11 4d 3b 85 c2 e7 3c
       0.018711654 -0.009428845 0.0031291004 0.028290996
000180 5b 77 b1 3d 25 a8 c2 3a 68 f5 58 bb 7c 35 2f bc
       0.086653434 0.0014851136 -0.0033105258 -0.010693904
000190 d0 f7 44 3c a5 d9 40 bc cf 27 c9 ba 53 7f 94 ba
       0.012021974 -0.0117706405 -0.0015346947 -0.001132945
0001a0 67 8b 05 bc 29 85 2b 3e ee 73 ba 3c 56 e2 29 3c
       -0.008150912 0.16750015 0.022760358 0.010368904
0001b0 59 50 de bb b3 90 ff ba af 19 8d bb de 18 f8 bb
       -0.0067844805 -0.001949808 -0.0043060402 -0.007571324
0001c0 8f 64 25 3c 17 f4 e4 3b 39 67 71 bb c4 3c 7e bb
       0.010094776 0.0069871056 -0.0036835207 -0.0038793543
0001d0 b1 4c 42 bb 3c fd 46 3a d6 80 39 bc cf 77 c0 bc
       -0.0029647762 0.00075908354 -0.011322221 -0.02349463
0001e0 b5 bd 8e bb cd c6 29 bc 2c d4 93 bc 69 d5 61 bb
       -0.004356111 -0.010362339 -0.018045507 -0.0034459478
0001f0 60 00 77 bb 30 a9 fc ba 5c 6a 48 3d a6 12 e3 3b
       -0.0037689433 -0.0019276496 0.048929557 0.0069297133
000200 ff 37 fe bc 43 be ce bb 62 b3 1b 3d c2 3f 8e 3a
       -0.03103256 -0.006309302 0.03801287 0.0010852742
000210 70 e9 ee bb e9 75 d9 3a e8 06 10 bd 3d fd 5b bc
       -0.0072910115 0.0016590926 -0.035162836 -0.013427076
000220 3f 3a 9d bb e3 12 1f ba 0f 1f e7 39 f1 21 a1 bc
       -0.0047982032 -0.0006068183 0.00044082894 -0.019669505
000230 e3 51 85 ba 80 fa 18 3b 3e 40 16 bb c8 ef 2f 3c
       -0.0010171499 0.002334267 -0.0022926475 0.010738321
000240 48 56 95 3c 35 6c 09 bc 04 ef 24 bb 73 d2 63 3e
       0.018229619 -0.008387615 -0.0025166878 0.22248249
000250 3e 6f c6 bc 1c 1d 5a 39 ea 5b a2 3b dd 9b 5d 3b
       -0.024222966 0.00020800944 0.0049548047 0.0033814826
000260 aa 6c 0e 3b d7 de 37 bc 71 99 dd b9 e4 2b 11 bc
       0.002173225 -0.011222563 -0.00042266728 -0.008860562
000270 6d 16 1b 3b cc f6 9e 3b ee ff 20 3c cb 3b 14 3d
       0.002366449 0.004851198 0.009826643 0.036189836
000280 48 5c 35 bb 10 47 62 3d fc 6a dc 39 9c b5 97 bb
       -0.0027673412 0.05524355 0.0004204138 -0.004629804
000290 db ff 96 3b e5 d7 a4 3c e7 84 06 bc 59 11 cd 3c
       0.004608137 0.020122478 -0.008210397 0.025032686
0002a0 d0 fa ab 3c 1b 0a 86 3a d4 a6 37 bd c0 08 cc 3c
       0.02099362 0.00102264 -0.044836834 0.024906516
0002b0 88 8c e4 bb a5 74 a0 bc dd 59 60 bb 73 50 0a 3c
       -0.0069747604 -0.01958687 -0.003423325 0.008442032
0002c0 b9 6e a6 3c 21 45 f0 ba 6b 1c 3d 3c 7a 64 54 3b
       0.020316469 -0.0018331149 0.01154242 0.0032408522
0002d0 af 98 50 3a 5a 68 84 3c 9b 0a a2 bc 7d 27 78 3c
       0.0007957322 0.01616304 -0.019780448 0.0151461335
0002e0 dc e4 66 bc 97 b6 3e 3c c1 ec d7 3a 70 df 1c bb
       -0.01409265 0.0116402125 0.0016473756 -0.002393689
0002f0 3a 9a 1f 3a 76 6a 16 b9 74 47 67 3b 00 39 1c 3c
       0.000608835 -0.00014344775 0.0035290392 0.009535074
000300 a0 95 11 3b c3 e4 65 3b 0f 33 25 3c 1d 97 a0 3c
       0.0022214428 0.003507898 0.010082974 0.019603306
000310 49 3f ca 3c d5 ba 42 3e 76 48 f4 bb 5a e7 7d 3c
       0.02468838 0.19016583 -0.007454927 0.015497053
000320 34 66 61 3a 39 53 37 3c c1 72 13 bb f2 9b 44 3b
       0.00085982983 0.011189275 -0.0022498819 0.0030000177
000330 8f ca 8d be d1 70 09 bf 3c 4d d4 3c ff 16 cc 3a
       -0.27693602 -0.5368777 0.025915734 0.0015570818
000340 60 dc ca bb e4 9f c5 bb 6d 3c ae bb a8 2f 9d 3c
       -0.0061908215 -0.0060310233 -0.005317262 0.019187763
000350 7d ce 02 bb da 8c 8d 3b 41 b0 76 bb 8c 79 be 3b
       -0.0019959502 0.0043197693 -0.0037641677 0.0058128294
000360 4b 75 3e bc e7 ac ef 3b 59 e3 c8 3c 9d dc 11 bb
       -0.0116246445 0.0073143127 0.02452247 -0.002225674
000370 0b c3 bd ba d0 37 84 bc c7 ed 46 3a 56 ce c9 b9
       -0.0014477683 -0.016139895 0.0007588532 -0.0003849144
000380 9c f5 ce bc 26 aa 53 39 8c 07 36 3e f7 93 c0 ba
       -0.0252636 0.00020185913 0.17776316 -0.0014692534
000390 cb d1 cd bc 24 86 92 3e 51 fb d6 ba 31 f8 8e 3b
       -0.025124451 0.28617966 -0.0016401802 0.004363083
0003a0 37 0a 77 bb ac 86 26 3c 61 a7 1f 3c 95 be f1 ba
       -0.0037695298 0.010163944 0.009744496 -0.0018443639
0003b0 0e f1 f9 3b 90 ea 22 bc f4 d9 16 bc 3a 04 d4 bb
       0.007627613 -0.009943619 -0.0092072375 -0.0064702304
0003c0 68 4a 33 3b 70 83 40 bb b8 62 84 bb b5 c2 87 3c
       0.0027357582 -0.0029375218 -0.0040400885 0.016572336
0003d0 87 d9 3a 3c 0e 23 65 3b 06 18 1d 3c bc f1 b6 3b
       0.011404402 0.0034963521 0.009588247 0.005583016
0003e0 fd ad af ba 37 18 74 bc 3d 7f 91 3c c9 60 33 3c
       -0.0013403293 -0.014898351 0.017760867 0.010948368
0003f0 a2 8e 17 3b e0 43 ab ba c8 42 e2 b9 4d 73 8e 38
       0.0023125787 -0.0013066493 -0.00043155835 6.792564e-05
