mlp/ANN/seed3/network.pth (torch, 473735 bytes, 3 tensors)

layers.0.0.weight f4 [128, 784]
00000000: 72c4 febb abd0 8bbd 491d 81bd cb84 a83d
00000010: 6714 36bc d319 b13d 37a4 a23d 38bd 273d
00000020: df91 7fbc 678a f7bd 68e2 703d c008 d03c
00000030: 900c 3dbe 5b7b 3d3e 0fdc d73d a942 5a3a
00000040: 8250 ce3d 4535 103e ceca 2a3d 7af7 753b
00000050: 156c 53bc 23b7 b2bd afc5 b0ba 2b58 573d
00000060: 909d 4abe 40a2 61bd ac1b 473e cfd4 75bd
00000070: 4058 803b 74e7 16be 5579 59ba c316 093e
00000080: 264d cfbd 4a91 af3c 35a5 bcbc a6d7 313a
00000090: bd99 a73d 65ff 373e 84ad c33d 50a5 44bd
000000a0: 0dc2 47be 42f0 7b3e a66c d43d d6ad 443d
000000b0: eebc f93d 9ced 4dbc 86ff b93b 75bd e13d
000000c0: bfea 993e 0cd1 2dbc dd47 023e 83bf 83bb
000000d0: 6275 87be 0424 023d f4f7 9ebc b971 133e
000000e0: 7f19 003d 22df 08bc 2014 723e 4773 ab3a
000000f0: c511 b8bd a8b7 d6bd 504a 8ebc 70f6 b1bc
00000100: 2427 233e d2b8 adbd 56c3 f939 a18e c33b
00000110: e3f2 b73d c9bc 443d 032e 2bbc 099c 433e
00000120: f1fb bd3d 2c41 873d 0502 f93d 89e0 62bc
00000130: 80e9 00be 3750 6abc d505 703d 0fef a1bb
00000140: 093a bb3c ccaf 153e 3295 e13d 0067 463d
00000150: 4b65 7f3d 2874 053d 56eb 7abe de62 6a3d
00000160: 365b d43e 31a8 d7bd b790 a63d dd14 323d
00000170: 57d6 58be b4e5 71bd 982c 74bc f1ce debd
00000180: 9f23 19be 9393 5a3e a988 173e 975c 473e
00000190: 1153 ee3d 3356 b1bd 5243 ea3d 4ce6 ab3d
000001a0: 5325 343e fb71 f53d ee47 42bd c159 ce3d
000001b0: e626 f0bd 5e9e 8e3e 9f3c 1c3e 2bcb ff3d
000001c0: 130f 38be c4e0 e3bc 9fe6 8abe 176b c2bd
000001d0: 4764 b0be fffe 92be 70a5 36be 3e7a 0bbe
000001e0: 6b52 79be 0417 7dbe 2bd0 2abd 2bad 5f3d
000001f0: 665f 82bd c08a eb3d 6a45 193e a5f1 003e
00000200: d5c1 b13d df3f d63d 6bb8 413e 24fd 843c
00000210: 7f2a 133b 395a d33d aab6 343e 1ef2 873e
00000220: 2843 543e dd90 a33e 69f0 653e db2e 0e3d
00000230: 1ed8 313d 31c4 a0bc c77e bdbd 9953 363e
00000240: 4d2c e83c 7a7f 95be 7136 49be b541 a6bc
00000250: 4bfe 40be d0b9 7ebe 41f3 583c 3804 bf3d
00000260: c40b 733e cdc1 2c3e 7652 b6bd dc7c b4bc
00000270: b52e a43d f69f b93d 7905 2a3e 08a8 1a3e
00000280: c86f 4c3e 5aea eabc f18e aebd aa5b 0e3d
00000290: 3992 9abd 18e0 fabd abe9 883e 9fbb 7abd
000002a0: 17fd a33d 9ea7 e03d c6e2 ad3d b691 acbe
000002b0: 71b5 f8bd b379 8fbe dfb3 a2be 99fc a1bd
000002c0: 1da2 b2bd 2331 a53d f60f 28be fd7c 573d
000002d0: 78dd 993d 3f0b 8cbd 78d4 a33c fec9 5a3e
000002e0: 4457 8e3d cdca 2e3e 2cf4 553e 36c8 f9bc
000002f0: 508e 883e 78cf a73d 5edb b43d 99d4 8f3d
00000300: 294c 3b3e 80e8 f13d 6d7b 853d a6ac 09be
00000310: 0ae0 783d 70b3 f3bd 33eb a93d 38c4 acbe
00000320: c136 143e 6b6b 20be 06d9 83bd f447 81be
00000330: ad88 56bd 15e9 e33c fe56 a2bd 51fd 993d
00000340: 8bf1 d9bc 5e96 0b3e 8ccd e1bd df1f 8d3e
00000350: 17c0 953e 59a0 453e bca8 403d bbff af3d
00000360: 2e49 583e 4457 1e3c 9f84 263c 9441 4f3d
00000370: 4f21 2abe 6dd2 89bc a190 1e3e 5750 6dbd
00000380: d640 87be 6912 4ebe 6c0c a6bd 7a3f 1bbd
00000390: eb39 2c3d 069f 12be a43e 0a3e 4f38 203b
000003a0: 5b2e 56be 6ea0 fdbc bfbb 84bd 6d64 873d
000003b0: 8278 b03d 6cc3 d13c f626 153e cc06 053d
000003c0: 5941 c2bc e970 fbbc ad4c 1cbe 0869 bcbd
000003d0: 0407 773b 14ff 363e 91f2 093b 673b eebd
000003e0: ed79 2cbe 51cc 543e eb9b 4b3e e56c 2b3e
000003f0: 41e3 4abd 0c19 a8ba 57f0 ea3d 3fad ffbb
-0.007774883 -0.0682691 -0.06304414 0.08228453 -0.011113263 0.08647504 0.07941478 0.040951937
-0.015598743 -0.12086945 0.058809668 0.025394797 -0.18461823 0.18504088 0.1054002 0.0008325973
0.100739494 0.1408282 0.041697316 0.003753154 -0.012904187 -0.08726337 -0.0013486649 0.052574318
-0.19786668 -0.055086374 0.1944415 -0.060017403 0.00391677 -0.1473673 -0.0008295973 0.13387589
-0.10122137 0.021431584 -0.023027996 0.0006784148 0.0818362 0.17968519 0.0955458 -0.048009217
-0.19507618 0.2460337 0.103722855 0.048017345 0.121942386 -0.0125688575 0.0056762127 0.11022464
0.3006191 -0.010608923 0.12722726 -0.0040206327 -0.26456743 0.03177263 -0.019405343 0.1439885
0.031274315 -0.00835398 0.2364049 0.001308062 -0.08987764 -0.104842484 -0.01736942 -0.021723956
0.159329 -0.08482517 0.00047638518 0.0059679304 0.08981874 0.048031602 -0.010447982 0.19102491
0.0927657 0.066042274 0.12158588 -0.013847479 -0.12589073 -0.014301351 0.05859931 -0.004941828
0.022854822 0.14617842 0.11014785 0.048438072 0.06235246 0.03258148 -0.24503836 0.057223193
0.41475838 -0.10530127 0.08133071 0.043476928 -0.21175514 -0.059056953 -0.01490321 -0.10879315
-0.14954995 0.21345358 0.14798225 0.19468914 0.116369374 -0.08659019 0.114386216 0.08393535
0.17592363 0.11984631 -0.04743188 0.10075713 -0.11726169 0.278552 0.152575 0.12489923
-0.179745 -0.027817138 -0.27129075 -0.09493082 -0.34451506 -0.28710172 -0.17836547 -0.1362085
-0.24347846 -0.24715811 -0.04170243 0.054608505 -0.06365852 0.11501074 0.14967886 0.1259218
0.08679549 0.10461401 0.18918006 0.016233988 0.002245575 0.10319943 0.17647806 0.26551908
0.20728743 0.3194646 0.2245499 0.034712654 0.043418996 -0.019624801 -0.092526965 0.17805327
0.028341437 -0.2919882 -0.19649674 -0.020295003 -0.18847005 -0.2487557 0.01324159 0.093269765
0.23734957 0.16870804 -0.08902447 -0.022032194 0.08016721 0.09063713 0.1660365 0.15103161
0.19964516 -0.0286762 -0.08523358 0.034755386 -0.07547421 -0.12249774 0.26740775 -0.061214086
0.080072574 0.109694704 0.08490519 -0.3370492 -0.12143982 -0.28022537 -0.31777856 -0.07909507
-0.08722327 0.08066013 -0.16412339 0.052609432 0.07512945 -0.068380825 0.019998774 0.21366116
0.06950238 0.1706955 0.20893925 -0.030490976 0.26671076 0.081938684 0.088309035 0.07022972
0.18290772 0.11811924 0.06517682 -0.13444766 0.060760535 -0.11899459 0.08296814 -0.33743453
0.14474012 -0.15665977 -0.06437878 -0.25250208 -0.052376438 0.027821103 -0.07926749 0.075190194
-0.026604434 0.1363158 -0.11025533 0.27563378 0.29248115 0.19299449 0.047035918 0.085936986
0.21121666 0.00966436 0.010163455 0.05059965 -0.16614269 -0.016823972 0.15484859 -0.057937946
-0.26416653 -0.2012421 -0.08107838 -0.037902333 0.042047422 -0.14318475 0.13500458 0.0024447625
-0.2091612 -0.030960288 -0.06481122 0.066109516 0.08616735 0.02560588 0.14565644 0.032477185
-0.0237128 -0.030693488 -0.15263624 -0.091997206 0.003769339 0.17870742 0.0021049122 -0.11632424
-0.16843386 0.20781066 0.19883697 0.16740759 -0.049533132 -0.0012824847 0.114716224 -0.007802635

layers.1.0.weight f4 [128, 128]
00000000: b067 7d3e c9ac ac3d 89ca aa3d c93b 94bd
00000010: 892a 0e3e 5f90 d73d f2b0 af3e 774c 94be
00000020: a9d1 893e ce7a 883e c495 5b3e c98d 1e3e
00000030: 671c 2a3d fc2b b63e 57d5 eebd fe1d 223e
00000040: 42a6 a73d 9b46 fc3d 1f44 16be fcb3 933e
00000050: 67d1 12bd d9fb 773d 5ff5 ec3d 87b5 e1bd
00000060: 36de 66bb 54ea b3bd d060 16be 498b ddbd
00000070: 7f39 b6be c1ca 743e c4d1 d83d 2bc5 b33c
00000080: d330 09be 7f46 d23d 7787 523e b675 06be
00000090: 2712 433b c9c6 9b3c 028d 253e 89cf 9bbd
000000a0: 421b 233e b457 bebd 006d a83b d4ea 65be
000000b0: 299e 59be 32ed 353e 395c e53c dbee 32be
000000c0: a88d c9be 020d 0c3c 5c1b 3b3d 7a99 38bd
000000d0: d205 2a3d 0818 523e 0bf8 b7bd 99d8 05be
000000e0: 5bb4 2a3e 5527 edbd 766b c4bd bd67 36be
000000f0: 55a3 943d c0aa 313e e536 28bc de04 853e
00000100: 73e0 aabd b277 fbbd 886b dabd 93f3 a23d
00000110: 03ff bf3d 0d02 a93d 4edf 20be c2ac 10be
00000120: 9d7d 743c 6ea1 8d3c 3298 06bd 3689 63bd
00000130: 27f8 9fbd aea1 3ebe b4fa f0bc 94b8 c33d
00000140: ff80 0d3e f041 c4bc 5b85 173c 51e6 833d
00000150: 26c4 e3bd 69b2 7d3e ba63 48bd 9782 823d
00000160: b81f 28be 5abc 353e 6839 a0be 5a6a 033e
00000170: bd8c 203e aa7f 32be 797a 10be 93a9 603d
00000180: 837c f7bd 956e a9b9 b6d7 6abd 6df0 3fbe
00000190: f042 9bbe d5bf 7f3e 6c9c dbbd 99a4 b33c
000001a0: c2c6 023e c20d d13c d4da 2abe 3b6e 8a3b
000001b0: f8b9 8abc 153b eabd 0148 273e d6b0 e93a
000001c0: cbdc d8bc 4421 04be 6e0c aebe 57aa 563e
000001d0: 0817 6fbe e904 30be 9105 083e c4fd 5e3e
000001e0: 7161 213e 0b5e c43c 20b9 553c 02de 37bc
000001f0: 0ebc 3dbe 8fc0 1f3e da19 a7bd 79e2 213e
00000200: 6264 8abd 5760 1abe b343 3abe 6e39 0cbd
00000210: 5564 30be d4b5 74be 5578 6dbe 0329 203f
00000220: 6401 6ebe e0b5 2f3e cb3f 08be fb99 75be
00000230: 1151 8abc a8da 01be 26e3 c0b8 ceb8 bcbc
00000240: f5a1 1b3e 83a0 dabe c954 cfbe c711 b1bd
00000250: 4833 903d d1dc a33d 2f0b d3be a5c3 1f3e
00000260: c72c 3bbe aa33 3d3e 22d0 2d3e b400 fbbd
00000270: a990 ca3e 6aa2 5c3c 9ff9 773e a22a 9abd
00000280: 7583 f6bc 5965 94be 7c1f b73d 980e 84bd
00000290: 718b 433e 05f9 1a3e fc7b d0bc dc40 993d
000002a0: 91c3 493e 6a33 22be 2e15 22bd d37a 603e
000002b0: b24d cf3d b8e5 6bbe 27bf d0ba 03b5 1c3c
000002c0: de33 0c3f a110 8d3d f589 a83d c9e9 80be
000002d0: ac3e 93bc ed35 b1bd ff1e e5bb 35b5 adbc
000002e0: f81e 3d3e b30e 1f3e c9c2 503e d7ea a83b
000002f0: d3d0 6fbd e0de c53b 2781 203e 8566 1abe
00000300: 668a 39bd 9afd 56bd c22e 9e3e e6af f3bd
00000310: aa02 643e 3e2b 1e3e 7eee ed3d c628 953d
00000320: 2998 49be 393c 17bd 88d1 2dbe a839 d13d
00000330: f260 9c3c b097 433e b36b c23c a5e4 543e
00000340: 3c67 2cbd 29d0 24bd d12b 443c c16f e8be
00000350: 06c1 23b8 59b8 633e 297d f63d 0731 793d
00000360: 2e15 6ebe 42a4 223e dae5 4f3d 5292 bfbd
00000370: 6f75 73be 2edb 17be 9d56 c03d c019 983d
00000380: 460d 5cbc 3805 263d 04c7 1abd c907 85bd
00000390: d06a cf3d 59d1 b0be 2fbd 85bb 4984 153d
000003a0: 47b6 b1bd b1cb 8f3d 5062 063e bf34 82be
000003b0: e34c d2bd 1c7d 54be 979d cbbd 9479 8c3d
000003c0: 3774 09bb 3d51 0abd a434 5abc bb2f 5d3e
000003d0: d644 5ebd b459 dbbe f009 bc3d 3b9f 1f3e
000003e0: a8c4 88be 98bb 5c3d 8cdf 753e 3c7c 1a3c
000003f0: 95f1 51be c6b3 9b3d 197a 86be 8da7 1abe
0.24746585 0.08431394 0.08339412 -0.072379656 0.13883413 0.105255835 0.34314686 -0.28964588
0.2691777 0.26656193 0.2144385 0.15483774 0.041530993 0.35580432 -0.11661785 0.15831754
0.08186008 0.123181544 -0.14674424 0.28848255 -0.035844233 0.060542915 0.11570238 -0.11020952
-0.0035227663 -0.08784929 -0.14685369 -0.10817582 -0.3559074 0.2390547 0.105868846 0.021944603
-0.13397531 0.10267352 0.20559488 -0.1313084 0.0029765458 0.019015687 0.16167071 -0.076079436
0.15928367 -0.09294072 0.005139947 -0.22452861 -0.2125174 0.17766264 0.027998077 -0.17473929
-0.39365888 0.008548023 0.04568039 -0.04506824 0.041509457 0.2051698 -0.08982857 -0.13070907
0.16670363 -0.115797676 -0.09590809 -0.1781301 0.072577156 0.17350292 -0.010266994 0.25980276
-0.083435915 -0.122786894 -0.10665041 0.07956614 0.093748115 0.08252344 -0.15710184 -0.14128402
0.014922527 0.01728889 -0.03285999 -0.055550776 -0.07811003 -0.18616363 -0.02941642 0.0955669
0.1381874 -0.023957223 0.009248103 0.06440414 -0.11121397 0.2477509 -0.04892323 0.06372564
-0.1641835 0.17747632 -0.31293797 0.12833539 0.15678687 -0.17431512 -0.1410922 0.05484922
-0.120842956 -0.00032316582 -0.057334624 -0.18744059 -0.30324507 0.24975522 -0.107231945 0.021929072
0.12771133 0.025519256 -0.16685039 0.0042245663 -0.01693438 -0.1143705 0.16336061 0.001782919
-0.02647247 -0.12903315 -0.33993858 0.20963417 -0.2334863 -0.17189373 0.13283373 0.21776491
0.15759827 0.023970624 0.0130446255 -0.011222364 -0.18528768 0.15600799 -0.08159228 0.15809049
-0.06757428 -0.15075813 -0.18189888 -0.034234457 -0.17225774 -0.23897487 -0.23190434 0.6256258
-0.23242718 0.17159224 -0.13305585 -0.2398452 -0.016884359 -0.12681067 -9.197583e-05 -0.02303734
0.151985 -0.42700586 -0.40494373 -0.08645969 0.07041031 0.08001102 -0.4121947 0.15601976
-0.182788 0.1847674 0.16973928 -0.122559935 0.39563492 0.013466457 0.24216317 -0.07527663
-0.03009198 -0.28983572 0.08941552 -0.06448096 0.19096161 0.15134056 -0.025449745 0.07483074
0.19703509 -0.15839925 -0.03957098 0.21921854 0.10122241 -0.2303685 -0.0015926108 0.009564641
0.54766643 0.06887937 0.08229438 -0.25178364 -0.01797422 -0.08652864 -0.0069922204 -0.02120457
0.18468845 0.15532951 0.20386805 0.005154948 -0.05854876 0.0060385317 0.15674268 -0.1507817
-0.045298003 -0.052487947 0.30895048 -0.11898784 0.22266641 0.15446183 0.116177544 0.072831675
-0.1968695 -0.036922667 -0.16974461 0.10216075 0.019089196 0.19100833 0.023732996 0.20790346
-0.04209064 -0.04023758 0.011973337 -0.4539776 -3.9041995e-05 0.22238292 0.12035591 0.06083777
-0.23250267 0.15882972 0.050756313 -0.0935408 -0.23775266 -0.14829704 0.0939152 0.074267864
-0.013430899 0.04053232 -0.037787452 -0.064956255 0.10127795 -0.3453472 -0.0040813903 0.03650311
-0.08677345 0.07021273 0.1312344 -0.25430867 -0.10268571 -0.2075085 -0.09942167 0.06859127
-0.002097381 -0.03376888 -0.013318215 0.21600239 -0.054264866 -0.42841876 0.09181583 0.15588085
-0.26712537 0.05388984 0.24011058 0.009429034 -0.20502312 0.076026484 -0.26265028 -0.15102978

layers.2.0.weight f4 [10, 128]
00000000: 10fa 563c 5228 5dbe f70e ddbe 47b0 883e
00000010: 2994 833e 2b93 0cbf 880e aa3d 3c0d 38be
00000020: d02c d33d ef60 17be 7660 983d 4523 6fbe
00000030: aae6 403e 1a21 303e f5e7 af3e 3eb2 04be
00000040: 165b 47be d594 15be 25a4 0ebe 9c5e 17bf
00000050: 5415 0abf b267 4a3d 9052 563e 8670 873e
00000060: 4a8a 133e 0591 b1bd 72cf edbe 0052 b63c
00000070: c862 ab3d 7471 2a3e 7355 b4ba 8ea4 a53e
00000080: 8ac6 b1bc 2a4b c4bb 407d 8f3d 89d0 5ebd
00000090: cb93 dbbd 84b2 4dbf 5c9f b53d 0507 d4be
000000a0: 5bd0 8d3e c9fe 7abd 1267 c23d 9e7a 92be
000000b0: 3807 0ebf 8e0f 56be 224e 473e 8e34 dcbe
000000c0: a42e 96bd f63e a3be 36e8 a03e 5a2f 5dbd
000000d0: 9cd8 763e b54d 25be d758 c6bd 8ec5 50be
000000e0: f331 8dbe b724 853e 7fbf 58bb 90d5 33bd
000000f0: 865b 9e3d c4e9 96bd dffd 27be a2d7 38be
00000100: 6009 35be 0971 253e 0754 c33d be2e 36bd
00000110: 0356 a9bd 4259 14be 0405 b4bc 0f52 70bd
00000120: fb90 023e ae60 373e dad3 9a3e 47c5 c4bd
00000130: 9727 1ebe 6a9c 583e a323 2a3e a58d 893d
00000140: 9f13 9abe 0f63 f13d 765c 13be 59d9 83be
00000150: 9bbc c03c b92d d4be c560 a6bd 469e 903e
00000160: 93ac 71bd 85f0 e3bc 8ed7 61bd ffa7 3b3e
00000170: c480 9e3e 273d 043e 1e3a 553d fe56 533e
00000180: bd36 fdbb d80a 163e ad31 a7be 5365 673d
00000190: 1e00 21bf bc8b 44be 51be 95be 3611 aabe
000001a0: 0922 453e 6d46 d0bc dc47 33be 06ad 853e
000001b0: 58c6 c83e 1532 ea3d 1471 a33e 04d5 e73d
000001c0: d81c 1f3e bfb0 3abc fffd 92be 3e6b c0bb
000001d0: 5ee3 57be 4c35 c7be dae9 003e 5da1 333e
000001e0: 510c 97bd 45ef 273d 3458 efbe e1f9 79bc
000001f0: 788c 80bd d1d5 8abe e547 c9bc 298c aabe
00000200: 8494 053d 805b 03be 2ca9 39bd 8748 96be
00000210: b5b6 12bf 7611 8f3e 2ffe 0cbd 17c5 00be
00000220: 66f7 df3c 66f0 873e 237a f0bd 2df8 74be
00000230: 449d 06be 9eca 67be 5f2d 85bd cb77 81be
00000240: d410 b63c 3a44 313e b1a7 ad3d 8238 99bd
00000250: 51c5 8dbe f4f7 a8bc 10b6 bebe 7784 a03e
00000260: 69e7 613e b1c9 d1bd af94 80bd af6e 80bd
00000270: 7f37 2b3e 2909 88be e0bc 7bbe e9ac 8f3e
00000280: 125d 65be 16cf ad3c 4cf3 1f3e 2017 04be
00000290: dce8 3dbd 1bd4 d93d 8d9e 4c3e ffdc a9bb
000002a0: 44f1 efbc fc82 22be c8dd e6be d182 cabe
000002b0: a51d 86be 7b17 e23d 7fb5 13bf 9ab6 41bd
000002c0: 739f e4bc 3b37 71bd fb33 1d3e 3cdf 65be
000002d0: 849d 0b3e 5718 383e 0f14 7e3c e354 0dbe
000002e0: 1ef1 66bd 4028 0f3e f057 4abe ac18 e13e
000002f0: 561e 86be 2717 6ebe 8754 573e 34f4 b7be
00000300: d056 863e fa98 ddbd 5374 153e 89ae ce3e
00000310: f786 093e c2e8 813e cc64 0dbe c824 cbbe
00000320: 958c 9ebe ff65 71be f31a 5a3e 5d01 113d
00000330: 54f2 e4be 0be3 3a3f 6639 50be 4f4b fcbd
00000340: bb0c 36be be39 b5be c4e3 003e eece 6a3e
00000350: a4df 8abe fa52 093f 43cf 7e3e 09e2 1e3e
00000360: 3e9e 60bd c224 d63d 0e2f a73a a17b 263c
00000370: 0abd 313e 926c b43d 6f2f 05be 4e9e afbd
00000380: b058 02bd 8809 3e3d a681 bdbd 269f 59be
00000390: f5b3 2a3e f683 ff3c a44d 9cbe cda2 993d
000003a0: 2369 de3c 3179 5ebe 446e a93d 2abb 37bf
000003b0: 09d9 75be 0890 71bd 6d39 fabd c9c6 bb3e
000003c0: 9448 14be c042 d93c ba0d 57bc 733c 8dbd
000003d0: 312e 4a3d d866 cd39 a3e5 b93e 12fe 503c
000003e0: e207 3abc a392 b3bd 077f fb3d 1619 a6be
000003f0: cb2f edbe 8a70 d4bd 1c74 c33d 96e0 4f3e
0.013121143 -0.21597412 -0.4317548 0.2669699 0.25698975 -0.5491206 0.08303553 -0.17973799
0.10311282 -0.14783071 0.074402735 -0.23353298 0.18837991 0.17200127 0.34356657 -0.12958619
-0.1946834 -0.14607556 -0.13929804 -0.5912874 -0.53938794 0.049415298 0.20929933 0.26453036
0.14408222 -0.086702384 -0.4644733 0.022255898 0.083684504 0.16644841 -0.0013758376 0.32352108
-0.021701116 -0.0059904056 0.070063114 -0.054398093 -0.10721549 -0.8035052 0.08868286 -0.41411605
0.27698025 -0.06127814 0.09492315 -0.28609174 -0.55479765 -0.20904371 0.19463399 -0.43008846
-0.07333115 -0.31883973 0.31427163 -0.054000236 0.24106067 -0.16142924 -0.096849136 -0.20387861
-0.2757717 0.26004574 -0.0033073125 -0.04390484 0.077323005 -0.07368806 -0.16405438 -0.18051007
-0.17679358 0.161564 0.09537511 -0.04447817 -0.082683586 -0.14487174 -0.021975048 -0.058672007
0.12750618 0.17907974 0.30239755 -0.0960794 -0.1544479 0.21153417 0.16615157 0.0671647
-0.30093095 0.11786472 -0.1439074 -0.2575176 0.023527434 -0.41441134 -0.08123926 0.28245753
-0.05900247 -0.02782465 -0.05513721 0.18325804 0.30957615 0.12913953 0.052057378 0.20638654
-0.0077274726 0.14652574 -0.32655087 0.056493115 -0.62890804 -0.1919393 -0.29246762 -0.33216256
0.19251265 -0.025424207 -0.17507881 0.2610857 0.39213824 0.11435334 0.3192221 0.113199264
0.15538347 -0.011394679 -0.2870941 -0.0058721593 -0.21082827 -0.3890785 0.12589207 0.17542024
-0.07375396 0.04099967 -0.4674698 -0.01525733 -0.06276792 -0.27116254 -0.024570415 -0.3331006
0.03261234 -0.12827873 -0.04532735 -0.2935221 -0.5731004 0.2794301 -0.034422096 -0.12575184
0.027339648 0.26550597 -0.11742046 -0.23922797 -0.1314593 -0.22635886 -0.065027945 -0.25286707
0.022224821 0.17311183 0.0847925 -0.07481481 -0.27689603 -0.020626046 -0.37248278 0.31351063
0.22060932 -0.10243548 -0.06278359 -0.06271111 0.16720389 -0.2656949 -0.24583769 0.28061607
-0.22398785 0.02121691 0.15620154 -0.12899446 -0.04636465 0.10636159 0.19982357 -0.0051838155
-0.02928985 -0.15870279 -0.4509108 -0.3955293 -0.26194492 0.11039635 -0.57698816 -0.047293283
-0.027908063 -0.058890563 0.1535186 -0.22448438 0.13634306 0.17978035 0.015507712 -0.13801913
-0.05638229 0.13980198 -0.19760108 0.43964136 -0.2619502 -0.2325102 0.21028338 -0.359285
0.26238108 -0.108201936 0.14595155 0.40367535 0.13430391 0.25372893 -0.13807982 -0.396765
-0.3096663 -0.23574065 0.21299343 0.03540169 -0.44716132 0.7300269 -0.20334396 -0.123190515
-0.17778294 -0.35395616 0.12586886 0.229305 -0.2712375 0.5364224 0.24883752 0.15515913
-0.05483841 0.1045623 0.0012755112 0.010161311 0.17357269 0.08809771 -0.13006376 -0.08575116
-0.03182286 0.04639581 -0.09253244 -0.21252117 0.1667021 0.031190854 -0.30527985 0.07501755
0.027149742 -0.21725918 0.082729846 -0.71769965 -0.24008574 -0.05897525 -0.12217984 0.366751
-0.14480811 0.026521087 -0.013125831 -0.068962954 0.049360458 0.00039177272 0.3630801 0.012755888
-0.0113544185 -0.08768203 0.12280088 -0.32441014 -0.46325526 -0.103730276 0.095436305 0.20300516
