mlp/ANN/seed4/network.pth (torch, 473735 bytes, 3 tensors)

layers.0.0.weight f4 [128, 784]
0	0x3d8e9b88	0.06963259
1	0x3e0d59b8	0.13803756
2	0x3d5952c8	0.053057462
3	0xbd8bda57	-0.068287544
4	0xbe2b2c1b	-0.16716044
5	0xbc99633a	-0.018724073
6	0x3cba5b48	0.022748604
7	0xbcbcadb1	-0.023032041
8	0x3e0ba5aa	0.13637415
9	0xbbf334bb	-0.0074220574
10	0xbdc705e1	-0.09717918
11	0xbe0d7f87	-0.13818179
12	0x3d6391d4	0.055558994
13	0x3e14271a	0.14468041
14	0xbcc1b72a	-0.02364691
15	0xbd5a212b	-0.053254288
16	0x3d76631f	0.060153123
17	0xbce2ea4a	-0.027699608
18	0x3ccbadaf	0.024863092
19	0xbddfe608	-0.10932547
20	0xbd686993	-0.05674131
21	0xbc25d95f	-0.010122626
22	0xbdd6afc0	-0.104827404
23	0xbde3930d	-0.11112032
24	0x3e38a187	0.18030368
25	0x3d431689	0.047628913
26	0x3d6ad10d	0.057328273
27	0x3cad482b	0.021152576
28	0xbd3b4b1b	-0.045725923
29	0x3d41b250	0.047289193
30	0xbc86b700	-0.016444683
31	0xbc94eff3	-0.018180823
32	0x3c4af76d	0.0123880925
33	0x3b6868ef	0.0035462936
34	0xbe6946f1	-0.22780968
35	0xbe16a43b	-0.14711086
36	0xbd348e94	-0.044081286
37	0xbc368ee6	-0.011142468
38	0xbe5d9cc8	-0.21641839
39	0xbe27c518	-0.16383779
40	0xbdd9ee3b	-0.10641142
41	0xbd1a3fee	-0.037658624
42	0x3c0a6318	0.008446477
43	0xbd9d0a9a	-0.07668038
44	0x3d2ed3af	0.042682346
45	0xbdaf1f3b	-0.085508786
46	0xbc78f3b2	-0.01519482
47	0x3e0df169	0.13861622
48	0xbe0793b4	-0.13239938
49	0xbdcd75f8	-0.100322664
50	0xbe2625ae	-0.16225311
51	0x3cdf891b	0.027287057
52	0x3df86338	0.121282995
53	0xbd3bb6f6	-0.045828782
54	0x3da383b7	0.07984107
55	0xbd6bf3d7	-0.05760559
56	0x3d382d2a	0.044964947
57	0xbdd7d098	-0.10537833
58	0x3d7f0932	0.06226463
59	0x3d881b82	0.06645872
60	0x3b7e6c69	0.0038821942
61	0x3e2a4f7c	0.16631883
62	0x3d3f0d7b	0.046643715
63	0xbdd76fc9	-0.10519368
64	0x3e343068	0.1759659
65	0x3dcbaf6b	0.09945568
66	0x3e39ad5b	0.18132536
67	0x3d606230	0.05478114
68	0xbe03ed2a	-0.1288344
69	0xbe1da6d7	-0.15395676
70	0xbd7af018	-0.061264127
71	0x3db57178	0.08859533
72	0x3e59ea58	0.21280801
73	0x3d8abdc6	0.06774478
74	0x3e49fa03	0.19724278
75	0x3da0f44b	0.07859095
76	0xbd27a3c2	-0.040927656
77	0xbca2771b	-0.019832185
78	0x3e09c4ed	0.13454027
79	0xbc64884e	-0.013948513
80	0x3d89bb25	0.06725148
81	0xbe66a9c7	-0.22525702
82	0xbdf17f93	-0.11791911
83	0xbe031a2a	-0.1280295
84	0xbe0a1027	-0.13482724
85	0x3ca67eab	0.020324072
86	0xbe054557	-0.13014732
87	0x3b4cb2da	0.0031234534
88	0x3d0d9039	0.03456137
89	0x3da53104	0.080659896
90	0x3e2e16a8	0.1700083
91	0x3c90830a	0.01764061
92	0xbe323b00	-0.17405319
93	0xbc58b63a	-0.01322704
94	0xbd9ca6be	-0.07648991
95	0x3e32f617	0.17476688
96	0xbe02dc9c	-0.12779468
97	0xbe7d22fa	-0.24720374
98	0x3d5b123f	0.053484198
99	0x3e1b3a4b	0.15158956
100	0x3e00350d	0.12520237
101	0xbda1e235	-0.07904474
102	0x3ca214ee	0.01978537
103	0xbd9b527e	-0.075840935
104	0x3d3f64c9	0.046726976
105	0x3dccd2f8	0.100011766
106	0x3df3d147	0.11905151
107	0x3c88b57d	0.016688103
108	0xbe0079a0	-0.12546396
109	0x3d294ecd	0.041334916
110	0x3dce51e6	0.10074215
111	0xbce0ac18	-0.02742581
112	0x3be4e6c7	0.0069855186
113	0xbd1ded1d	-0.038556207
114	0x3dd6fd2c	0.104975075
115	0x3df1fd68	0.118159115
116	0xbccee6c0	-0.025256515
117	0x3d960fc5	0.073272265
118	0xbd885868	-0.06657487
119	0x3e38f117	0.18060718
120	0x3d63fe6f	0.05566257
121	0xbdb34123	-0.08752658
122	0x3e115a19	0.14194526
123	0xbd630f60	-0.055434585
124	0xbce8bd71	-0.028410645
125	0xbc3964bd	-0.011315522
126	0xbd9a3c02	-0.07530977
127	0xbe1739c2	-0.14768127
128	0x3d1cfb0d	0.03832536
129	0x3dc1b030	0.09457433
130	0x3e06e835	0.13174517
131	0xbe087215	-0.13324769
132	0x3cdddfec	0.027084313
133	0xbc887aea	-0.016660172
134	0xbdd953f2	-0.106117144
135	0xbd0cdb84	-0.034389034
136	0x3ce202ae	0.027589168
137	0x3e8b1e48	0.2717154
138	0x3cfc22d3	0.030778324
139	0x3d9e9bac	0.07744536
140	0x3dbd1c6a	0.09233935
141	0xbe55f225	-0.20893152
142	0x3baa5b0d	0.0051988424
143	0x3eb6c66c	0.3569826
144	0x3e8101d0	0.25196695
145	0x3d4d3762	0.050101645
146	0xbe33e2fe	-0.1756706
147	0x3d5b7be4	0.05358495
148	0xbe1decb0	-0.1542232
149	0xbd3925fe	-0.045202248
150	0xbe80fc66	-0.25192565
151	0xbd234b0a	-0.039866485
152	0x3e0017de	0.12509105
153	0xbcca4de3	-0.024695342
154	0xbd8ce3d2	-0.06879391
155	0xbe85602c	-0.26049936
156	0xbdea33e0	-0.114356756
157	0x3e22af0b	0.15887086
158	0x3bb6f4ce	0.005583382
159	0x3d9844ed	0.074350215
160	0x3e280efd	0.16411968
161	0x3db77e98	0.08959693
162	0x3e271994	0.16318351
163	0x3db13627	0.08652907
164	0xbd27845b	-0.04089771
165	0x3ea261b0	0.31715155
166	0x3e848417	0.25882027
167	0xbe36ec72	-0.17863634
168	0xbdc63761	-0.096785314
169	0xbcb59cb2	-0.022169445
170	0xbe55b01d	-0.20867963
171	0x3d0223ab	0.031772297
172	0xbd4a3cf1	-0.049374525
173	0x3de4a10d	0.111635305
174	0xbca03b96	-0.019559663
175	0x3c6cb4f2	0.014447438
176	0xbd9f236c	-0.07770428
177	0xbdbfb0d2	-0.09359898
178	0xbe031390	-0.12800431
179	0xbe04c42a	-0.12965456
180	0x3b5bc6cc	0.003353524
181	0xbde4a79e	-0.11164783
182	0x3e265459	0.16243114
183	0xbd897af2	-0.06712903
184	0x3df90a1d	0.12160132
185	0xbd81fc62	-0.06346966
186	0xbd38b157	-0.045091
187	0xbccd39a8	-0.025051907
188	0x3db20459	0.086922355
189	0x3d1b2cf2	0.03788466
190	0xbd94f951	-0.07274116
191	0x3d9f93dd	0.077918746
192	0x3e9def99	0.3084686
193	0x3e9daacb	0.30794367
194	0x3e12b520	0.14326906
195	0x3dc842de	0.09778379
196	0x3cbaf60f	0.022822408
197	0x3ab05817	0.0013453987
198	0xbcffba4c	-0.031216763
199	0xbceeca53	-0.02914921
200	0x3d56b775	0.052421052
201	0x3d7a21e0	0.061067462
202	0xbd3bc405	-0.045841236
203	0xbbc8ce4c	-0.006128108
204	0x3e36ff33	0.17870788
205	0xbd30b8dd	-0.04314505
206	0xbae54077	-0.0017490525
207	0xbe35f252	-0.17768219
208	0xbe2b7250	-0.16742826
209	0xbe4172d0	-0.18891454
210	0x3c8d58ae	0.0172542
211	0xbc923cb4	-0.017851211
212	0x3d8e46ae	0.06947075
213	0x3d9c3d75	0.076289095
214	0xbcc77faa	-0.024352867
215	0xba6dc8f1	-0.0009070775
216	0x3e097aaf	0.13425706
217	0xbdaffd71	-0.08593262
218	0xbc9ffe27	-0.019530369
219	0xbce8e3ae	-0.028428879
220	0x3de5a2a7	0.11212664
221	0x3d60f79c	0.05492364
222	0x3dba0291	0.09082521
223	0x3dfdfb01	0.12401391
224	0xbe8c147c	-0.27359378
225	0xbd76af2d	-0.060225654
226	0xbe54b09b	-0.20770495
227	0x3e3bbfb3	0.18334846
228	0x3da56c81	0.08077336
229	0x3cff84b0	0.0311912
230	0x3e4174f1	0.18892266
231	0x3d62c422	0.055362828
232	0x3e2640fd	0.16235729
233	0x3ddebc7e	0.10875796
234	0x3e0ae0e5	0.13562353
235	0xbd9a92b8	-0.07547516
236	0xbd6e6b27	-0.058207657
237	0x3dba6241	0.09100772
238	0x3ce70355	0.028199831
239	0xbdbab5f3	-0.09116735
240	0x3e141c72	0.14463976
241	0xbe229833	-0.15878372
242	0xbdfa0ab2	-0.12209071
243	0xbdccac90	-0.09993851
244	0x3d1629ec	0.036661074
245	0x3dd6ef0a	0.10494812
246	0xbcb4fe0f	-0.0220938
247	0xbdb6bb18	-0.08922404
248	0x3cb68768	0.022281364
249	0x3e16e618	0.14736211
250	0x3e2d75a6	0.1693941
251	0xbd01ce22	-0.031690724
252	0xbcc70d43	-0.024298316
253	0xbbe5784f	-0.0070028673
254	0xbd1e79da	-0.038690425
255	0x3d328e2e	0.043592624

layers.1.0.weight f4 [128, 128]
0	0xbd2736ec	-0.040823862
1	0xbe92b0c1	-0.28650478
2	0x3e370a79	0.17875089
3	0x3d9ce095	0.07660023
4	0x3d29fae2	0.041499026
5	0x3c4d638d	0.012535942
6	0x3c0dc4e7	0.008652902
7	0xbcc9cdcb	-0.024634263
8	0x3d82707f	0.06369113
9	0xbe2d3d80	-0.16917992
10	0x3d0d1c75	0.034450967
11	0xbe30998a	-0.1724607
12	0x3e077972	0.13229921
13	0x3d51702c	0.051132366
14	0x3e76185d	0.24032731
15	0x3d35a805	0.04434969
16	0x3e1a913e	0.15094468
17	0x3da30d73	0.079615496
18	0x3e9a963b	0.30192742
19	0xbe2e63a7	-0.17030202
20	0xbdc8ced3	-0.098050736
21	0x3e3f3246	0.18671522
22	0xbd3418cb	-0.043968957
23	0xbd8d2359	-0.06891508
24	0xbe05099e	-0.1299195
25	0x3e3d82fd	0.18507
26	0xbc32394c	-0.010877918
27	0x3e3598e3	0.17734103
28	0xbd87b2b6	-0.06625883
29	0xbea45785	-0.32098022
30	0xbd02e0aa	-0.031952538
31	0xbea394ff	-0.31949612
32	0x3d94f7dd	0.07273839
33	0xbe6ea5c2	-0.23305419
34	0x3c9274eb	0.017878016
35	0x3b83fbcf	0.0040278207
36	0x3e15d0e0	0.1463046
37	0xbd4c5b28	-0.04989162
38	0xbced3ee8	-0.02896066
39	0x3e8953dd	0.26821795
40	0x3ee91e20	0.45530796
41	0x3d77ced6	0.06049999
42	0x3c5ef325	0.013607775
43	0x3ed5c07a	0.4174841
44	0xbe0e4aff	-0.13895796
45	0x3d8d62d9	0.06903619
46	0x3cb02e14	0.021506347
47	0x3e4ea99b	0.20181887
48	0x3db51765	0.08842353
49	0x3ea508dc	0.32233322
50	0xbe171b52	-0.14756516
51	0x3e674aec	0.22587174
52	0xbe0c3cd1	-0.13695075
53	0xbe2b5eb6	-0.16735348
54	0x3da6b126	0.08139257
55	0xbe25464a	-0.16140094
56	0xbd1af26d	-0.03782885
57	0xbdb8a622	-0.09016062
58	0x3d58c2cc	0.052920148
59	0x3dd1424b	0.102177225
60	0xbeb00321	-0.34377387
61	0xbc9b2bde	-0.018941816
62	0xbdc8921e	-0.09793495
63	0xbbabc873	-0.0052424013
64	0x3d9b8f8e	0.0759574
65	0xbe3025b8	-0.17201889
66	0xbc57beaf	-0.013168021
67	0x3cb17ad1	0.021665009
68	0x3db83744	0.08994916
69	0x3e38670b	0.18008058
70	0xbd85f5bd	-0.065410115
71	0x3e14f03e	0.1454477
72	0xbda719f1	-0.08159245
73	0x3e8e135a	0.2774914
74	0xbd64d3a3	-0.055865895
75	0x3e616eab	0.22014873
76	0x3e64aae8	0.2233082
77	0xbce2e4d7	-0.02769701
78	0xbe8305c2	-0.2559033
79	0xbd9eaf01	-0.07748223
80	0xbc909a4a	-0.017651696
81	0xbd869bc1	-0.065726765
82	0x3d8cb7f1	0.068710215
83	0xbdf08f2e	-0.11746059
84	0xbddca289	-0.107731886
85	0x3d160639	0.03662703
86	0xbe1367d5	-0.14395078
87	0x3dd495e8	0.10380155
88	0x3df6702e	0.12033115
89	0xbe2549f7	-0.16141497
90	0x3ed2a016	0.4113776
91	0x3ea1da2b	0.3161176
92	0xbb7d67fe	-0.003866672
93	0x3e64585f	0.22299336
94	0x3e1fa5f0	0.15590644
95	0x3da2cd74	0.07949343
96	0x3e53e828	0.2069403
97	0xbdc19ba0	-0.09453511
98	0xbd14f2ff	-0.03636455
99	0x3d4c1839	0.049827788
100	0xbda5ead0	-0.081014276
101	0x3d8390ab	0.064240776
102	0x3c21bd66	0.009871816
103	0x3df56a2f	0.119831435
104	0x3e0e2b4f	0.13883708
105	0xbe2e210b	-0.17004792
106	0x3b5205a4	0.003204682
107	0xbdce4198	-0.10071105
108	0xbddb48eb	-0.107072674
109	0xbde84721	-0.11341692
110	0x3daca593	0.08430018
111	0x3bb27b41	0.005446822
112	0x3e49fac7	0.1972457
113	0x3e2edafd	0.17075725
114	0x3d321231	0.04347438
115	0xbe95a03e	-0.29223818
116	0x3db215ce	0.08695565
117	0x3e020594	0.1269744
118	0xbdc2bc4c	-0.09508571
119	0xba5d2ebe	-0.0008437446
120	0x3dd409de	0.103534445
121	0xbd0a070a	-0.03369812
122	0xbe640d49	-0.22270693
123	0xbdb5386c	-0.08848652
124	0x3e10ff57	0.14159904
125	0xbdfb432c	-0.122686714
126	0xbe4d2968	-0.20035326
127	0xbea20f11	-0.3165212
128	0x3d0e0551	0.03467304
129	0xbe19e97a	-0.1503047
130	0x3e1305c1	0.14357664
131	0xbc3242f8	-0.010880224
132	0xbdd5477d	-0.10414026
133	0x3db9e18d	0.090762235
134	0x3d2ade5b	0.04171596
135	0xbdd77f83	-0.10522368
136	0x3def6b60	0.11690402
137	0xbdf505b1	-0.11963976
138	0x3d4a0260	0.04931867
139	0x3eba6b84	0.36410153
140	0x3ebd1ac9	0.36934498
141	0xbe9822f2	-0.2971416
142	0xbe0451a4	-0.12921768
143	0xbe85501d	-0.26037684
144	0xbd4d6cfd	-0.050152767
145	0xbe0704c3	-0.1318541
146	0x3dd085bc	0.10181758
147	0xbc353d52	-0.011061983
148	0x3cd1f6a8	0.02563031
149	0xbe3fe0ec	-0.18738145
150	0x3c6f56e6	0.014608121
151	0xbd9b6bbc	-0.07588908
152	0x3cf7b514	0.030237712
153	0x3e02cb6c	0.12772912
154	0x3e0a27c9	0.1349174
155	0x3e2b27dc	0.16714424
156	0x3ceecca3	0.029150313
157	0xbdeefd92	-0.116694584
158	0xbded2bed	-0.11580644
159	0xbd6d4386	-0.057925723
160	0x3e7d0360	0.24708319
161	0x3dec9348	0.11551529
162	0x3e22bbd5	0.15891965
163	0xbd6704f7	-0.05640122
164	0x3de7db4d	0.11321125
165	0x3e0e5abe	0.13901803
166	0xbe475416	-0.1946567
167	0xbb058482	-0.002037317
168	0x3e02b010	0.12762475
169	0xbe57dea3	-0.21081023
170	0x3e2c2ee3	0.16814761
171	0x3cd1abe2	0.025594655
172	0xbd024343	-0.031802427
173	0x3e396d40	0.18108082
174	0x3d8cbad6	0.068715736
175	0xbd0bf121	-0.034165505
176	0x3ca00436	0.019533258
177	0x3eb02ad1	0.34407666
178	0x3d912c0a	0.07088478
179	0xbcc6bd08	-0.024260059
180	0xbdd4f429	-0.10398132
181	0xbd9eb8ed	-0.077501155
182	0xbdc7d7ba	-0.097579435
183	0xbd5a46aa	-0.053290047
184	0x3e0727b8	0.13198745
185	0x3e7f4f5a	0.24932614
186	0x3dd6d25b	0.10489341
187	0xbc8eeb2e	-0.017446127
188	0x3e0d3da4	0.13793045
189	0xbe66abd4	-0.22526485
190	0x3e4444bc	0.19166845
191	0x3e05f2fb	0.13080971
192	0x3ea3f9c4	0.32026494
193	0xbe219f64	-0.15783459
194	0x3dcfb85f	0.10142588
195	0x3d2b6a98	0.041849703
196	0x3e6c1cd3	0.2305787
197	0xbdc1bfd8	-0.094604194
198	0x3d783ef3	0.060606908
199	0x3d99422f	0.07483327
200	0x3e21a0d7	0.15784012
201	0x3d23ed5d	0.04002129
202	0x3d9476e7	0.07249241
203	0xbe24d86c	-0.16098183
204	0x3df6d2d7	0.12051933
205	0xbe08225a	-0.13294354
206	0x3e861fb7	0.26196072
207	0x3db0762d	0.0861629
208	0x3e375b0c	0.17905825
209	0x3dd9ba83	0.106312774
210	0x3e02fe43	0.12792306
211	0xbc5b3d62	-0.013381334
212	0x3d9b5db5	0.075862326
213	0xbd81347d	-0.063088395
214	0xbd11f598	-0.035634607
215	0x3c8ff754	0.01757399
216	0x3e23f8f7	0.16012941
217	0x3d81fe5a	0.06347342
218	0x3cb0efde	0.021598753
219	0x3dfe936c	0.12430462
220	0xbda2457e	-0.07923411
221	0x3efc60e7	0.4929268
222	0xbce9f278	-0.028558
223	0x3d9b1aea	0.07573493
224	0xbe0bd9e9	-0.13657345
225	0xbe2c79af	-0.16843294
226	0x3e03ba7f	0.12864111
227	0x3d17cade	0.037058704
228	0x3d2cc692	0.04218156
229	0x3df852e8	0.12125188
230	0x3cb4bb2b	0.022061905
231	0xbdd7b9a5	-0.10533456
232	0x3dfaf617	0.12253969
233	0xbe1a9b18	-0.15098226
234	0x3e97bd71	0.2963672
235	0xbe187a41	-0.14890386
236	0xbe3e34bd	-0.18574806
237	0x3d92ee7f	0.07174396
238	0xbe3a1957	-0.18173729
239	0xbdb7955e	-0.089640364
240	0x3dc87e4f	0.097897165
241	0x3d8e5c42	0.069511905
242	0xbd9f317f	-0.077731125
243	0x3da447ab	0.08021482
244	0xbdd6ad8c	-0.1048232
245	0x3da8b43b	0.08237501
246	0xbd7d2f73	-0.06181283
247	0x3c051d81	0.00812471
248	0x3d61e66a	0.05515138
249	0x3e3a3030	0.18182445
250	0xbd842fe3	-0.06454446
251	0xbcf4ccba	-0.029882777
252	0x3e7bad2c	0.24577779
253	0x3de673f5	0.11252586
254	0x3d21ed2b	0.03953282
255	0x3e838a93	0.2569166

layers.2.0.weight f4 [10, 128]
0	0xbdc7a80b	-0.097488485
1	0xbca3dd4a	-0.02000298
2	0xbd1742c4	-0.036928907
3	0x3cbd8eff	0.023139475
4	0xbed30912	-0.41217858
5	0x3d908e74	0.07058421
6	0xbbdbe50a	-0.006710653
7	0xbd6509c8	-0.05591753
8	0xbd4c86ac	-0.04993312
9	0xbd5f797b	-0.054559212
10	0x3c3c3f34	0.011489678
11	0xbd5220de	-0.051300876
12	0xbe871aaf	-0.26387545
13	0x3e396af6	0.18107209
14	0xbe8a2e6a	-0.26988536
15	0x3e7b287a	0.2452716
16	0xbe4037ae	-0.1877124
17	0xbe7fef29	-0.24993576
18	0xbe8deb45	-0.2771856
19	0x3e8ed287	0.27894995
20	0xbe8dded5	-0.2770907
21	0xbdb94e05	-0.09048084
22	0xbd3d49c0	-0.04621291
23	0x3e3a747b	0.18208496
24	0x3e7d86fa	0.2475852
25	0xbe4a1a9a	-0.1973671
26	0x3de59db7	0.11211722
27	0x3cb5405a	0.022125412
28	0xbdbcf7c6	-0.092269465
29	0xbe448f10	-0.19195199
30	0xbe5a715c	-0.21332306
31	0x3dbd044a	0.09229334
32	0xbe3ffacd	-0.18748017
33	0xbe4490ed	-0.1919591
34	0xbe33747e	-0.17524907
35	0xbc55ac8c	-0.013041627
36	0xbdb887af	-0.090102546
37	0xbd97fd77	-0.074213915
38	0xbecb5f2e	-0.39721054
39	0xbdb608da	-0.08888407
40	0xbda43e97	-0.080197506
41	0xbea50231	-0.32228234
42	0x3e206555	0.15663655
43	0xbe9e85cf	-0.30961463
44	0xbcdcc8aa	-0.026951153
45	0x3d18fd9a	0.03735123
46	0xbe917b30	-0.28414297
47	0xbce89b5b	-0.028394392
48	0x3d86b4bf	0.06577443
49	0x3db36e02	0.08761217
50	0x3e302b56	0.17204031
51	0xbefd0d00	-0.4942398
52	0x3d7407d8	0.059577793
53	0xbe3f9b4a	-0.18711582
54	0xbd213cdb	-0.039364677
55	0xbe47718e	-0.19476911
56	0x3e3a4744	0.18191248
57	0x3e5e88e6	0.2173191
58	0x3cddbc7c	0.027067415
59	0x3caceb11	0.021108182
60	0x3e036de2	0.12834886
61	0x3d0bb00d	0.034103442
62	0x3e00b404	0.1256867
63	0x3e31120d	0.17292042
64	0xbe5295e4	-0.20564991
65	0x3dbb9a79	0.09160323
66	0xbe6fd7c6	-0.23422155
67	0xbe6012d5	-0.21882184
68	0x3d79b9f5	0.060968358
69	0x3d52fb19	0.051508997
70	0xbec79b05	-0.38985458
71	0x3e1fe1e7	0.15613519
72	0x3e79d797	0.24398647
73	0x3e2d6312	0.16932324
74	0xbcadda4d	-0.021222258
75	0x3e054408	0.13014233
76	0x3cce3a98	0.025174424
77	0x3e2ea2bb	0.17054264
78	0xbe9e3f21	-0.3090754
79	0xbcde8d6c	-0.027167045
80	0xbea135c4	-0.31486332
81	0x3de572a7	0.11203509
82	0x3e15e87c	0.14639467
83	0x3e96f0f1	0.294807
84	0xbe0c1333	-0.13679199
85	0xbe1847d5	-0.14871152
86	0x3d653367	0.055957224
87	0x3d8ea2c5	0.069646396
88	0x3ca73779	0.020412194
89	0x3e33f9a0	0.17575693
90	0xbd6eb444	-0.058277383
91	0xbd6038ca	-0.05474166
92	0x3dcc577a	0.09977622
93	0x3dd6b27c	0.10483262
94	0xbe33e794	-0.17568809
95	0xbcdd7794	-0.027034558
96	0x3d29cacb	0.041453164
97	0xbda576c6	-0.08079295
98	0x3caf5d44	0.021406777
99	0x3d96d55d	0.073649146
100	0xbea1a01d	-0.3156747
101	0xbdb407a8	-0.08790523
102	0xbd146e69	-0.036238108
103	0x3e850f1a	0.25988084
104	0xbd3b6bf8	-0.045757264
105	0x3dcd84f4	0.100351244
106	0x3d33ba47	0.04387882
107	0xbe6f059a	-0.2334198
108	0xbcfd99e6	-0.030957174
109	0xbe1d9c6d	-0.15391703
110	0xbea9a679	-0.3313482
111	0xbea9500c	-0.33068883
112	0x3dca9b2a	0.098928764
113	0xbd02a778	-0.031897992
114	0x3b7df671	0.0038751627
115	0xbd927751	-0.07151664
116	0xbf0ffcff	-0.56245416
117	0xbe1b3bda	-0.1515955
118	0x3ec8bc83	0.39206323
119	0x3e3cd21a	0.18439522
120	0x3e2e36ac	0.17013043
121	0x3dda09d7	0.10646408
122	0xbe151d44	-0.14561945
123	0xbf01d487	-0.50714916
124	0xbb8fedc9	-0.00439236
125	0x3e2824ec	0.16420335
126	0x3e548db6	0.20757183
127	0xbea13f61	-0.31493667
128	0x3e980c62	0.29696947
129	0xbe6551d3	-0.22394495
130	0x3da3058a	0.07960041
131	0xbdf63bc3	-0.120231174
132	0xbe47bede	-0.19506404
133	0x3e689412	0.22712734
134	0xbe6c29ef	-0.23062871
135	0x3c3c1cae	0.011481447
136	0x3cd211d9	0.025643276
137	0xbe8c2c30	-0.27377462
138	0x3e344ee6	0.17608222
139	0x3e0b3853	0.13595705
140	0xbde81bcc	-0.11333427
141	0xbe911775	-0.2833821
142	0xbdc11e7e	-0.09429644
143	0x3e4a7e8f	0.19774841
144	0x3eee6762	0.4656325
145	0x3e5b2144	0.21399409
146	0x3d16f8c4	0.036858335
147	0x3e1b2654	0.1515134
148	0x3eb63733	0.3558899
149	0x3e2c6d09	0.16838469
150	0xbe4f0ae1	-0.20218994
151	0xbea48b06	-0.32137316
152	0xbe1d5c79	-0.15367307
153	0xbd7b60eb	-0.061371725
154	0xbef4aaa9	-0.47786453
155	0xbc76d86a	-0.015066246
156	0x3ebb2229	0.365495
157	0xbf1c8226	-0.6113609
158	0x3e2744e1	0.16334869
159	0xbefc39db	-0.4926289
160	0xbacaaad5	-0.0015462289
161	0x3db0b731	0.08628691
162	0x3ea55594	0.32291853
163	0xbdbedec4	-0.09319833
164	0xbd0e0ad4	-0.034678295
165	0xbe6e110a	-0.23248687
166	0x3db5a67c	0.08869645
167	0xbe953b80	-0.29146957
168	0x3d395a50	0.045252144
169	0x3da1a466	0.07892685
170	0xbc88bacb	-0.016690632
171	0xbe89bec2	-0.2690335
172	0xbe74b738	-0.23898017
173	0x3d229e95	0.039702017
174	0x3c945314	0.018106021
175	0x3e30573b	0.17220776
176	0x3d6a5ee0	0.057219386
177	0xbe8a7c03	-0.27047738
178	0x3d3e015c	0.046388015
179	0x3d5120c1	0.051056627
180	0x3d36a16a	0.04458753
181	0x3e040aeb	0.1289479
182	0xbe16176a	-0.1465737
183	0x3d05ec5f	0.032696124
184	0xbeb9e517	-0.36307594
185	0xbe4ab70e	-0.19796392
186	0xbdaaeb2f	-0.08345639
187	0xbd174083	-0.036926758
188	0xbd2ff159	-0.042954776
189	0x3e99fc29	0.30075195
190	0xbe16df3c	-0.14733595
191	0xbdc20aad	-0.094746925
192	0xbe2846d7	-0.16433273
193	0x3ea2c845	0.3179342
194	0xbf010e22	-0.5041219
195	0x3d872aeb	0.06599983
196	0x3e655706	0.22396478
197	0x3dec4b39	0.11537785
198	0xbe7a5a91	-0.24448611
199	0xbe729339	-0.23688973
200	0xbeb474ce	-0.35245365
201	0x3c95a54a	0.018267293
202	0x3e13a7fc	0.1441955
203	0xbde2526a	-0.110508755
204	0x3ce5122e	0.02796277
205	0xbe843eb7	-0.25829098
206	0x3e4a07f8	0.19729602
207	0xbe36a00d	-0.17834492
208	0xbe318bb1	-0.17338444
209	0xbd8070c0	-0.06271505
210	0x3d5c74b1	0.053822223
211	0x3dd2b645	0.102886714
212	0x3c0d4657	0.008622727
213	0xbf2d6cf0	-0.6774435
214	0x3e482f10	0.19549203
215	0x3ddf51b3	0.10904255
216	0x3b8ecec1	0.004358143
217	0x3d9152ec	0.07095894
218	0x3e1c028d	0.15235348
219	0x3e0e7060	0.13910055
220	0xbd110dd2	-0.03541357
221	0x3e8b8daf	0.27256534
222	0x3e44f2e8	0.19233286
223	0x3e8218c9	0.25409535
224	0x3bb659ca	0.005564903
225	0x3e1770b4	0.14789087
226	0x3e0e27d3	0.13882379
227	0xbd72cf2e	-0.059279613
228	0x3e8b9ff8	0.27270484
229	0x3e3ffb2b	0.18748157
230	0x3db69572	0.08915223
231	0x3dbaad7f	0.09115123
232	0xbea4bb8f	-0.32174346
233	0xbd4fd955	-0.050744373
234	0xbe6a373d	-0.22872634
235	0x3d0a3a4c	0.033747002
236	0xbcaad5cd	-0.020853901
237	0xbe617ab6	-0.22019467
238	0x3e5bda2d	0.21469946
239	0xbe3bc547	-0.18336974
240	0xbaf8bfbe	-0.0018978042
241	0xbe6fb64a	-0.23409382
242	0xbdffe499	-0.124947734
243	0xbc9d7355	-0.019220034
244	0x3d97f260	0.07419276
245	0xbd9ac7f5	-0.0755767
246	0xbdd3f5b0	-0.103495955
247	0x3de6502a	0.11245759
248	0xbc9a9b82	-0.01887298
249	0xbd6b48a8	-0.057442337
250	0xbe8d9142	-0.27649885
251	0xbd1048c9	-0.035225663
252	0x3e5c017d	0.21484943
253	0x3b7e0bff	0.0038764474
254	0xbc10428f	-0.008804931
255	0x3ebad26e	0.3648867
