mlp/ANN/seed0/network.pth (torch, 473735 bytes, 3 tensors)

layers.0.0.weight f4 [128, 784]
00000000: 23e1 92bd 7a8a 85be 63ee aabd 9da8 d33d
00000010: a925 353e 5f27 d23c 0bf8 063e 967d a5bd
00000020: 0783 e93d 06d7 14be 979b 45be 9766 173e
00000030: 8232 0fbe 08d9 99be 099e 9cbd a6e6 80bd
00000040: abb6 963c ca96 3ebe 2764 f13d b31a 233b
00000050: 05e7 c6bd e23a 873c 668c 91bd b6cc 2dbd
00000060: b330 58bd a23a 803d c834 ddbd c118 173d
00000070: 00e9 733c 82b5 9bbd ca43 4c3d 5aed ccbc
00000080: 9422 d5bd 27bb 783e 9e37 b73c b751 6fbe
00000090: 6a1e 49bd 456f e1bd bd5d bbbd 2cbb eabc
000000a0: a210 56be 04e7 8cbe b072 b1bd 27ad 0ebe
000000b0: 374d 57be b5dd 97be 3117 b1be 221e 38be
000000c0: 6225 18be 014c cebd ac00 bbbc 16ff 403b
000000d0: deb2 8ebb 058d d23d c372 2b3c 8756 71be
000000e0: 2f10 44be db7c d73b c032 913c 47ec 59bc
000000f0: 5aca 89be 28c9 c5bd 96fe 91be cff3 3c3d
00000100: 8d70 76be c3d2 b0bc c988 a6bc b1a1 02bf
00000110: c46a a5bc 7d99 13be cdef 2dbe dcc6 c2be
00000120: 6407 bbbe 0a85 91be 71a4 e4be f03e f3be
00000130: 1541 d1be 1771 2fbe 5ac9 bfbe d4b4 84be
00000140: b6c6 aabc fbd5 a23d 22f2 d53d 27ff 1a3e
00000150: cd5e 233d f433 9e3d d840 803a d4da 0cbe
00000160: dad7 923d 040e 08be e296 b5be dd40 94be
00000170: a7f0 d6bd c71b b2bd 9c0e 3e3e 3c7b db3d
00000180: 0834 063e 4ea9 80be b4a6 39be c271 1f3e
00000190: 3523 f6bd 1e45 3d3d f445 e43d a475 27be
000001a0: 40ca 613e 9f2c 953e 3c75 b7bd 434d 99be
000001b0: 756b e3bd 7d86 95ba 9975 163e ca2f 5f3d
000001c0: 7ace 743d 1a56 febd 4308 613e e6d2 543e
000001d0: 80e1 6fbd 6ae0 dbbd 5d84 2bbe 6c3c 3abe
000001e0: 9d36 2ebe 10c8 bdbe c53a 2abe 5f22 2ebc
000001f0: 831f 8c3d 35c9 fb3d 6bcf 8bbd 03c3 5f3e
00000200: 0d9a 02be 1a12 163e 6e3c 90bd 321d dfbd
00000210: c513 b63d ed54 993d 48d9 be3d 23eb cc3d
00000220: 3e59 943d 98da 973e f685 9f3d fb15 95be
00000230: 00ec 36bc e554 7ebc 3890 c23c 87f2 833e
00000240: d151 1abe 9c42 62bd 47e8 f5bc 9290 7e3c
00000250: 566b 32bd b341 f3bd 0dc8 59be 33ca 45be
00000260: e51d 16be 32b6 353c 1cd6 c0bd 89df 9cbd
00000270: cce5 4cbc bd5b 64be 2c82 40be 1993 bdbc
00000280: 0c43 a23d 378b 5cbe 4e3b acbd 80d8 52bd
00000290: 1bf8 743c 7375 863d b058 1d3d 16cc 073b
000002a0: cbf6 b23d a266 06be 9830 ea3d 9424 0abe
000002b0: 1546 37be 88b8 203c f84e 803d 0673 0a3e
000002c0: 02d5 09be 158c 843c b366 0e3d 9bce 11be
000002d0: c900 723d 6722 073d 5273 013e bc8c 3abd
000002e0: 9468 e7bd 0fd5 0c3e 023c 223d 41a6 4c3d
000002f0: a41b 0dbe 2ab9 6a3e 00d2 8b3e 2047 99bc
00000300: bec5 48bd 3bdd e03d 3f21 223e 5ee2 28be
00000310: f363 84bd a6f9 cfbd 97b9 053e 6e65 5ebd
00000320: d99c b6be cac2 d0bd 3308 953d 938e 903d
00000330: daa4 ca3c 0b11 133e 4616 b83d 8406 473d
00000340: 7686 32bd e1f1 a8be 18b7 20be 8475 e0bc
00000350: e1fb 603e 6a17 703b 9d09 2f3d fc96 913d
00000360: bef5 e1bd c086 4d3e a58f a73d 0ce2 543e
00000370: a248 98bd 9dee 90bd 7cd8 943d c5c4 f53d
00000380: de32 2abe 4e37 043d eb91 663e 8712 e0bd
00000390: 7f4a 953d 2ced 8c3e 235e 263d 5f09 c9bd
000003a0: 292b 16bd 02fb b93d 50ef 80be 7315 83bd
000003b0: 7fc7 d63c 341d 043e 07dd d9bd 416c 243e
000003c0: 5775 fb3d 7f8c 0d3e 7d0a 94bc 8996 a9bd
000003d0: bfd8 9dbd 75eb 8f3d 3db0 cb3d 5002 2ebe
000003e0: d19c 673e 93b0 67bc b738 793d 5808 7bbd
000003f0: ad1b 173e dc85 d13d e8e6 c2bd 85d7 20be
-0.07171848 -0.26082212 -0.0834625 0.10334895 0.17690147 0.02565354 0.13180558 -0.08080594
0.114019446 -0.1453515 -0.19297634 0.14785229 -0.13984111 -0.30048394 -0.0764733 -0.06293993
0.01839765 -0.18612209 0.11786681 0.002488774 -0.09712032 0.01650757 -0.07106857 -0.042431556
-0.05278082 0.06261183 -0.10801083 0.03688884 0.0148870945 -0.07602979 0.049869336 -0.025015522
-0.10406986 0.24290143 0.022365388 -0.23371015 -0.04910127 -0.11007551 -0.091487385 -0.028653704
-0.20904782 -0.2752 -0.08664453 -0.1393324 -0.21025549 -0.29661337 -0.34588006 -0.17980245
-0.1485801 -0.1007309 -0.022827469 0.0029448918 -0.0043548187 0.102808036 0.010464373 -0.23568164
-0.19146799 0.006576163 0.017724395 -0.013300962 -0.26912194 -0.09657508 -0.28514546 0.04613095
-0.24066372 -0.021584874 -0.020328896 -0.5102797 -0.020192511 -0.1441402 -0.16986008 -0.38042343
-0.36529076 -0.28421813 -0.4465671 -0.47508955 -0.40869966 -0.17132984 -0.37458307 -0.2591921
-0.020846706 0.0795097 0.10446574 0.15136395 0.03988533 0.07724753 0.000978495 -0.13755351
0.07170077 -0.13286597 -0.35466677 -0.28955737 -0.104951195 -0.08696704 0.1856026 0.107168645
0.13105786 -0.2512917 -0.18129998 0.15570739 -0.12018434 0.046208493 0.11146155 -0.1635347
0.22049809 0.29135606 -0.089579076 -0.2994176 -0.1110448 -0.0011407878 0.14693297 0.054488935
0.059767224 -0.12418766 0.21975808 0.20783576 -0.058564663 -0.10736163 -0.16749711 -0.18187112
-0.17013021 -0.37066698 -0.16623981 -0.010628312 0.06841948 0.122942366 -0.06826671 0.21851735
-0.12754078 0.14655343 -0.07042776 -0.108942404 0.088904895 0.074869014 0.09318787 0.10005786
0.07243584 0.2965896 0.07789223 -0.29118332 -0.011164665 -0.01552317 0.02375041 0.2577097
-0.15070273 -0.055239305 -0.030017985 0.015537398 -0.043559395 -0.118777655 -0.2126772 -0.19315414
-0.14659841 0.011090802 -0.09415838 -0.076598234 -0.01250596 -0.2230062 -0.18799657 -0.02314143
0.079229444 -0.21537481 -0.08409749 -0.051476 0.014951731 0.065653704 0.038414657 0.002072101
0.08738478 -0.13125089 0.1143505 -0.13490516 -0.17897828 0.009809621 0.06265062 0.1352044
-0.13460162 0.016180078 0.03476591 -0.1423897 0.05908278 0.032991793 0.12641647 -0.04554437
-0.112992436 0.1375315 0.03960801 0.04996324 -0.13780075 0.22922197 0.27308655 -0.018710673
-0.049016707 0.10979696 0.15832995 -0.16492602 -0.06464376 -0.101550385 0.13059078 -0.05429595
-0.3566654 -0.10193403 0.072769545 0.07058444 0.02473681 0.1436197 0.08988623 0.0485902
-0.043585263 -0.3299704 -0.15694845 -0.027399786 0.21971084 0.003663505 0.042733777 0.07108876
-0.110332 0.20070934 0.08181695 0.20789355 -0.074357286 -0.07076762 0.072678536 0.120004214
-0.16620967 0.032279305 0.22516601 -0.10941034 0.072895996 0.27524698 0.04061712 -0.098162405
-0.036662254 0.09081079 -0.2518258 -0.064005755 0.026218174 0.12901765 -0.10637861 0.1605692
0.1227824 0.13823126 -0.018071407 -0.082806654 -0.07707357 0.07027332 0.09945724 -0.1699307
0.22618414 -0.01414122 0.060845103 -0.061287254 0.14756651 0.1023061 -0.09516698 -0.15707214

layers.1.0.weight f4 [128, 128]
00000000: 4497 25be 6e5e f43c e64f d53d 9682 953d
00000010: 65f3 e93d 68fe 9fbc 9c92 94bd 1732 003d
00000020: dc0c cb3e 5221 133d a019 7abd f1c9 3abe
00000030: 92fa 07bd 8c89 85bd 1c99 3c3e d06a 7f3e
00000040: 3e53 833e 7343 06be 1810 55be d472 c93d
00000050: 0d3c 943e 226d b1be dc58 eb3d 3bac 623e
00000060: f5ae 0fbe 7f22 6d3d ba90 23be 4ddc 5ebe
00000070: 705d f7bc 920c 4c3e d619 cabe 481a 5d3e
00000080: 0424 673e 99ab 94bd 7f88 5e3e 00e5 16be
00000090: 0eb0 b4bb 106b b33c 0190 433e 2a94 303d
000000a0: 7cbc 243e 6e7d 95be 68c5 b23d 66f7 253e
000000b0: 857d 30be ee67 c23d 9b3d 543d 6b21 4dbd
000000c0: ab3e 0a3e 112b 583e a654 a53d 8bb8 f53c
000000d0: 3f20 51be fd7a 31bd fe87 f13d 4da4 e2bd
000000e0: 0b9c 9bba 8c51 0b3d 9a21 a1bd d0d4 0abe
000000f0: d0ca babd a08f c53d caaa ef3d e1ac 7ebe
00000100: 510d 86bd 4980 edbd 285d 1abe 7b14 91be
00000110: d3c4 3bbe efad b93e 1c3f 8bbc f8bc 833c
00000120: 6df6 013e e1b8 753d 852c a6bd dfec 053e
00000130: e257 263e 9942 a2bd c9fd 1a3e c28f 65be
00000140: 9971 ccbd 2342 18be a650 b2bd 177b c0bd
00000150: f1c9 7dbe c163 9abe 58c2 1b3e e104 97bd
00000160: 0d9b 183e 021b 5f3d 0775 943d 8b10 d4bd
00000170: 90d9 ddbd cef8 073d ed4d 9fbd ac67 6c3e
00000180: a364 3c3e 7e3f 9f3e ccab 32be b63b 17be
00000190: 8d02 be3e b5dd 583e 587c 873d 9236 99bd
000001a0: 95cc 263d 6829 bebd 01d4 683c 3491 1f3d
000001b0: 3f57 3b3e 43d9 673d 12ab 873e e887 58be
000001c0: 903e b33d 2122 803e 4cce fd3d fc59 8b3e
000001d0: b713 c03b 0ff9 8fbc 62c9 1f3e 5aed 29bd
000001e0: e46f 91be 5926 b4bb f92b 64be 43ca 0b3e
000001f0: df50 bbbc 47e4 7f3c ab45 4ebe 12e0 09bd
00000200: 8e67 42bd e22c 493e ff8d 9a3d 6feb 313d
00000210: 24d9 a13d 963e 86bd 37fc 3b3d 4f1a a2bd
00000220: b671 083e b15c 1d3e 3e9f 503e 98a8 86bd
00000230: 5272 d6bd 654f d2bd 2822 a83d 13b5 133e
00000240: 5be5 a3bc 0277 993b 9bcf 8c3d 9808 87bd
00000250: a3b1 c03e e9e1 a13d acb5 0f3e 5f43 4cbd
00000260: 085b 303e 572e 903e 55de 65be c165 963e
00000270: 8de7 34bc 5434 76be 3087 5cbe b88d 943d
00000280: 660a a03d 2860 09bf 0655 b13d 9a2d 993e
00000290: 099c da3d 117d 7cbd 77fb 79bd 8d03 23bd
000002a0: 60d8 2fbe 1edb 0ebf 05be 623e 061b 3fbd
000002b0: 96d1 913d ac0c 8cbd d858 d9bd 22fe e9be
000002c0: 8312 883d a1b6 2d3e 271e 0d3d c460 97be
000002d0: 206b 43bc dacd 75be 546e e53c 8363 573e
000002e0: 80c9 553e 57ae b43e d7bd 113e 9133 d2bd
000002f0: 1a54 1ebe b0f5 683e ddad 043d 7047 7b3d
00000300: 621e a8bd a147 d03d 5b2c 863e 83c5 023d
00000310: 811c a53e 1235 9cbd 48c8 863d 5ed1 07be
00000320: dc13 91be 6e88 343e ee69 0f3d cb26 a9be
00000330: 4a2d 283e 6812 dabd 8f8f 473e 3999 febe
00000340: 5f21 473e dae2 f4bc 0edb 8fbe bc10 41bd
00000350: a220 debd b5de 8fbd 2d63 cd3d 9c0c 79be
00000360: a830 26bc c8ec 0e3e cc48 3f3e 4d80 47be
00000370: 90e3 85bd 2bf8 933d cc53 e23c 9143 f33d
00000380: 923b 24be d206 b4bb c5eb 83be 1e5a 443c
00000390: 9c21 c83c ef25 79be 15b0 773d 4133 f7bc
000003a0: 0f50 b9bd bed8 20bd 084b 943e 6093 90bd
000003b0: a4ef a03d b7a4 c43c ee33 a1be ec48 b33e
000003c0: ec0e 9abd b6cf 513e 5d1a ecbd 4368 dc3d
000003d0: 5a57 13be f660 9c3d 1a2e 03be 5460 043d
000003e0: c22a 623e 5ee2 cfbe 18b0 1fbc ffec cfbb
000003f0: 8076 cabd 23de 4d3e 0ea4 c53c 2a23 88be
-0.16170985 0.029830184 0.1041563 0.07300298 0.11423377 -0.01953049 -0.07254526 0.03129777
0.39658248 0.03592045 -0.061059594 -0.18241097 -0.033197947 -0.065203756 0.18417782 0.2494309
0.25649446 -0.13111667 -0.2080692 0.09836355 0.28952065 -0.34653574 0.11491558 0.22136013
-0.14031585 0.057894226 -0.15973178 -0.21763726 -0.030195922 0.1992667 -0.39472836 0.21592057
0.22572333 -0.07259292 0.21731757 -0.14735794 -0.0055141514 0.021901637 0.19097902 0.04311005
0.16087526 -0.29197258 0.087290585 0.16207656 -0.17235382 0.09492479 0.051816564 -0.050080698
0.13500468 0.21110179 0.08072786 0.029995224 -0.20422457 -0.04333018 0.117935166 -0.11066494
-0.0011872066 0.034013316 -0.07867737 -0.13557744 -0.09120715 0.09646535 0.11702497 -0.24870636
-0.06545509 -0.11596734 -0.15074599 -0.28335938 -0.18336801 0.36265513 -0.016997866 0.016081318
0.1269166 0.059990767 -0.0811396 0.1307864 0.16244462 -0.07922859 0.15135874 -0.2241812
-0.099826045 -0.14868979 -0.08706789 -0.093984775 -0.24784066 -0.3015423 0.15210855 -0.073739775
0.14902897 0.054469116 0.07248884 -0.10354718 -0.108325124 0.033196263 -0.07778535 0.23086423
0.18397765 0.31103128 -0.17448348 -0.14768872 0.3711132 0.21178325 0.066155136 -0.074811116
0.04072245 -0.09285241 0.014210702 0.038956836 0.18295 0.05660368 0.26497704 -0.21145594
0.08752167 0.25026038 0.12392864 0.2721709 0.005861725 -0.017574815 0.15604165 -0.04148612
-0.28405678 -0.0054977355 -0.22282399 0.13651375 -0.02286571 0.01561839 -0.20143764 -0.033660956
-0.04746204 0.19646028 0.07546615 0.043437418 0.079027444 -0.06554906 0.045894828 -0.07915174
0.13324627 0.1536739 0.20373246 -0.065751255 -0.104710236 -0.102690496 0.0820964 0.14424543
-0.020006826 0.0046833763 0.06875535 -0.06593436 0.37635526 0.07904417 0.14034146 -0.049868938
0.17222226 0.28160354 -0.22448094 0.29374507 -0.011041534 -0.24043399 -0.21535945 0.07253593
0.07814483 -0.5366235 0.08658795 0.29917604 0.106742926 -0.06164271 -0.06103083 -0.03979831
-0.17172384 -0.55803096 0.22142799 -0.04665663 0.071200535 -0.068383545 -0.10612649 -0.457017
0.06644156 0.16964199 0.034452584 -0.29566014 -0.011927396 -0.24004307 0.02800671 0.21034054
0.20877647 0.3528926 0.14232574 -0.10263742 -0.1546177 0.22749972 0.03239237 0.061347425
-0.0820892 0.10169912 0.26205716 0.031926643 0.3224831 -0.0762731 0.06581169 -0.13263461
-0.28335464 0.17630169 0.03501313 -0.3303741 0.16423526 -0.10648042 0.19488357 -0.49726275
0.19446324 -0.029893328 -0.28096813 -0.0471351 -0.10846068 -0.070249 0.10028682 -0.24321216
-0.0101434365 0.13957512 0.18680114 -0.19482537 -0.06537545 0.07225069 0.027627848 0.11878122
-0.1603835 -0.005493977 -0.25765815 0.011984376 0.024430089 -0.24330877 0.06047066 -0.030175807
-0.09048473 -0.0392692 0.28963494 -0.070593596 0.07858208 0.024004323 -0.31484932 0.35016572
-0.07522377 0.20489392 -0.11528466 0.10762074 -0.1438879 0.07635681 -0.12810555 0.03231843
0.22086623 -0.40602392 -0.009746574 -0.006345391 -0.09885883 0.2010427 0.024126079 -0.26589328

layers.2.0.weight f4 [10, 128]
00000000: 1e55 833e 22bb 243e 56db d6be a686 c73d
00000010: 26a1 543e 3432 ab3d 2ca1 1b3e 41ab a93c
00000020: dea7 473e ffe5 27bd 9f10 73bd af92 65be
00000030: 150b 9a3d 8a62 083e 8c3e c93d 8f04 23be
00000040: e1fb 8ebd f3e3 413e 4a08 17bf 67d6 0cbd
00000050: 7bff 98be 1819 1b3e af7e 6e3d 88c3 4ebc
00000060: cf9c 3cbe 65a8 aabd 8e5a e0bd e1c5 4dbd
00000070: 54cc 503d 0a83 0d3e c1af 3d3e 3738 073e
00000080: e47b 1ebe 9721 0dbf 501b e33d 7c2a aa3e
00000090: 3777 75be 83d2 893d 1165 f2be a6b0 b4be
000000a0: 83dd 7bbc 9380 013e 83a4 c33d ad91 19be
000000b0: 68a7 c7be 3ce6 35bd 4c3d c7bc 074b 1539
000000c0: d443 0a3e 8ff8 bd3d 9ca8 2e3e c4d5 993e
000000d0: 888f 80be 5908 e33c f934 34be 52d5 743e
000000e0: 32e4 1dbe 0649 853e a356 29bb 6038 9b3d
000000f0: 6df3 cc3d 888c 1b3c b48f 2a3e d410 413e
00000100: 3e36 8c3e b2eb c63e d8eb 51be dfba 0c3e
00000110: 45d6 42be c514 b7be 2987 6c3e fc54 aebe
00000120: c6aa 98be 6677 68be f881 7fbc f5a4 80be
00000130: 49c8 8a3e e981 05be 2e29 08be edb7 b3bd
00000140: eeb6 54be 2482 06bf b721 0fbd 3691 babe
00000150: 5e10 86be eef5 b63d 701e 8fbe 446a 7cbd
00000160: 2772 723c ee14 21bc f59f c7bd 4b0e 81be
00000170: cf58 b03d 7b90 183e 6341 883e 183a 3dbe
00000180: a54e 7dbe a97b 17bf b2b5 deb9 937d 47be
00000190: 71c2 57be 9000 c2bd 65e1 94be cb79 84be
000001a0: 8c57 b8be 38a4 3dbe de98 a2be adc5 05bf
000001b0: 7672 8bbd eb49 193e 9b03 3d3d dfcb 60bc
000001c0: b080 08be c0f8 5b3d 32b9 193e f82e 82be
000001d0: 0de2 103e 66e9 853e a3e9 9cbd 0aa8 46be
000001e0: b41b bd3a b8f4 8e3c cb73 6bbe 6814 bc3d
000001f0: 0710 903d 8292 15bd b609 b5be b946 8f3d
00000200: 8c47 563c ae01 01bf 9ec5 223e 7b2d 2abe
00000210: 57aa e1be 4f55 6d3e 11cd 66bc 2e16 1a3e
00000220: f4cc 19be 3b4a 87bd 737a 8f3e 0567 df3c
00000230: 6b75 333d b3b2 fc3d fd8f 2f3e 09d1 023e
00000240: a4cd babe a8f8 69bd 511d 913e 579c 44bc
00000250: 6542 823e a79d 463d d1ad 19bf fe40 25be
00000260: 17df 2dbd 8e7d 73be 6e25 cf3d 27ec 213e
00000270: e9f4 82be d05c 4bbe 4eef abbe 7395 e2be
00000280: c356 663e 3376 b63d 5994 163e 61e8 ef3d
00000290: 6e80 5cbf 7fd0 90be fbba 803d fb79 bb3c
000002a0: 7446 95be f279 763d 54cf 28be 426d 22be
000002b0: eca5 813d 68ba 553e e216 083e d453 43bd
000002c0: c652 9ebe 6412 033e 28da 2e3e 93e1 903e
000002d0: 620e 08bd b0fa 5bbe 1596 40bc 0666 eebe
000002e0: 3bd9 84be cf26 893d ab08 573d 4c96 c8be
000002f0: 668f 0a3e bef6 2bbe 3a23 da3e e86f 9cbe
00000300: 162a 9cbd 29d1 99bd cd4c ff3e 67a2 b0bd
00000310: c274 c9bd 8bfb 8b3e 09a3 cf3d 8826 d0be
00000320: 51bd 153e 7eeb 2dbe 2093 40be c38a ca3d
00000330: 4434 d7bd 048c 25be f310 89be 11f4 2c3d
00000340: 6291 823e 75bb 253d eb93 84bd be59 babe
00000350: a846 213e 3438 a639 85d2 823c fe92 9e3d
00000360: f617 9ebe 353d 763c a50e 5fbc f4e3 b0be
00000370: adaa e1bd bd4d e2bc b743 bf3d 0318 b0bd
00000380: 82a6 4d3e a32f 00be 5009 253e ed5f f8be
00000390: e083 80bd 174d a03e 6d87 3fbe 52e3 7ebc
000003a0: cee8 303d 022e 993e b9e4 a93c e453 bd3e
000003b0: 76eb dfbd 518b 2bbe d5a6 7abe 6757 49be
000003c0: 0fa7 c53d 7ca7 493d 4ce8 67be 74c7 a73e
000003d0: 092c 0fbe 902e e73e c3a4 293e d1b5 15be
000003e0: a71d 103c 51d1 403e cdc9 e1bd cef5 9abe
000003f0: 6d64 99bb 6b0c 8a3e 7e9f c53d 26bf 083d
0.25650877 0.1608701 -0.41964215 0.09742479 0.20764598 0.08359185 0.15198201 0.020711543
0.1949763 -0.040990826 -0.059342023 -0.22419237 0.07521645 0.1331884 0.09826383 -0.15919708
-0.06981636 0.18934612 -0.58997023 -0.034384158 -0.29882416 0.15146291 0.058226284 -0.0126198605
-0.18419193 -0.083329 -0.10954772 -0.05023754 0.050976112 0.13819519 0.18524076 0.13205038
-0.15476948 -0.5512938 0.11089194 0.33235538 -0.23971258 0.06729605 -0.47342733 -0.35291022
-0.015372637 0.12646703 0.095528625 -0.14996977 -0.38994908 -0.04440902 -0.02432122 0.00014237697
0.13502437 0.092759244 0.17056507 0.30045903 -0.25109506 0.027713941 -0.17598332 0.239095
-0.15419081 0.26032275 -0.0025838993 0.07579112 0.10007367 0.0094939545 0.16656381 0.18854076
0.27385134 0.38851696 -0.20500124 0.1374316 -0.1902705 -0.35758033 0.23098435 -0.34049213
-0.2981779 -0.22701797 -0.015594952 -0.25125852 0.2710593 -0.13037838 -0.13296959 -0.087753154
-0.20772907 -0.5254233 -0.034944262 -0.36438912 -0.26184362 0.08933626 -0.2795291 -0.06162478
0.014797724 -0.00983165 -0.09747306 -0.25206217 0.08610689 0.14898865 0.26612386 -0.18479192
-0.24737032 -0.59173065 -0.00042478513 -0.19481497 -0.21070267 -0.094727635 -0.29078212 -0.2587417
-0.36004293 -0.18519676 -0.31757253 -0.52254754 -0.06808941 0.14969604 0.046146017 -0.013720482
-0.1333034 0.053704023 0.15012053 -0.2542646 0.14148732 0.2615463 -0.0766175 -0.1940004
0.0014427812 0.017450675 -0.2299339 0.0918358 0.07034307 -0.036516674 -0.3535897 0.06995911
0.013078582 -0.5039319 0.15895697 -0.16618912 -0.4407527 0.23177074 -0.014086978 0.15047523
-0.1501959 -0.06605955 0.2802311 0.027270803 0.04381315 0.12338772 0.17144771 0.12775053
-0.36485016 -0.057121903 0.2834268 -0.012000165 0.2544128 0.048490193 -0.6003085 -0.16138074
-0.042449083 -0.23778364 0.10114561 0.15812741 -0.25577477 -0.19859624 -0.33581012 -0.44254646
0.22494034 0.089092635 0.14705028 0.11714245 -0.8613347 -0.2828407 0.06285664 0.022885313
-0.29155314 0.06017489 -0.1648534 -0.15861991 0.06330475 0.2087189 0.13289979 -0.047687367
-0.30922526 0.12799984 0.17075408 0.282971 -0.03321684 -0.21482348 -0.011754532 -0.46562213
-0.25946984 0.06696855 0.0524985 -0.39177167 0.13531265 -0.16793343 0.42605 -0.30554128
-0.07625215 -0.07510597 0.49863282 -0.08624726 -0.09836723 0.2734035 0.10138518 -0.40654397
0.14623 -0.16984364 -0.18806124 0.09889748 -0.10508016 -0.16166693 -0.26770744 0.042224947
0.25501543 0.040461976 -0.064735256 -0.36396593 0.1574961 0.00031703862 0.015969524 0.0774288
-0.30877656 0.015029241 -0.013614331 -0.34548914 -0.11018882 -0.02762496 0.093390875 -0.0859833
0.20083049 -0.12518172 0.16116834 -0.48510686 -0.06275153 0.31308815 -0.18704005 -0.015557127
0.04319077 0.29917914 0.020738946 0.36978066 -0.109335825 -0.16752364 -0.24477704 -0.19662248
0.096510045 0.04923199 -0.22647208 0.32769358 -0.13981642 0.45152712 0.16566758 -0.14620139
0.008796132 0.18829848 -0.110248186 -0.3026566 -0.004681161 0.269626 0.09649561 0.03338542
