cnn/ANN/seed2/network.pth (torch, 739663 bytes, 4 tensors)

layers_conv.0.0.weight f4 [32, 1, 5, 5]
0.17163384 0.05827263 0.07506404 0.21671283 0.05646657 0.17072456 0.036366258 0.16695432
0.11362661 -0.044450954 0.084973924 0.3198773 0.2939081 0.11582498 -0.25993457 0.10630384
0.24257214 -0.03026173 -0.45068493 -0.44434744 -0.018257761 -0.14711834 -0.18644391 -0.26657647
-0.12223534 -0.07550113 -0.029559378 -0.20587996 -0.1850955 -0.14865616 0.008958541 -0.05574422
0.09633637 -0.20108421 -0.03171357 -0.12089015 -0.010440603 0.105044894 -0.08907913 0.02832225
0.008628655 0.031212468 0.14162947 0.27573815 0.21412532 -0.031554002 0.016133972 0.10465148
0.015797844 0.13964769 -0.052615125 0.11030158 -0.17724518 -0.07001729 -0.004889997 -0.09887288
0.05394774 -0.12796192 -0.21540886 -0.4680193 0.06923457 0.06971871 0.18378131 0.17753811
-0.12669624 0.030729452 0.09647161 0.18137923 0.36378065 0.14746536 0.0101077175 -0.23506495
0.026781391 0.16328588 0.016156306 -0.36015588 -0.60786885 -0.4991128 -0.33287635 -0.43265137
0.17175949 -0.062849276 -0.13484241 -0.20213208 0.1034466 0.26107985 0.21160711 0.024986655
0.1609705 0.15148552 0.16645744 0.11986204 0.31724563 0.18460457 0.1368334 0.18135694
0.17110854 0.023274414 0.10775593 -0.012651993 -0.13549125 -0.070297666 -0.07925386 0.034902293
0.024315257 -0.25537074 -0.16944009 -0.04428532 0.20899627 0.12466247 -0.02813759 0.084143355
0.31676087 0.060067173 0.044754952 0.3000793 0.13427018 -0.18496111 -0.0700279 0.18776649
-0.17294572 -0.33086893 -0.24214898 -0.13074856 0.044048555 0.0935536 0.29545683 0.14575426
0.119403705 0.103501774 0.13474219 0.22893669 0.41681844 0.24757446 0.21512896 0.15347137
0.15075779 -0.17373686 -0.00750495 -0.23858505 0.11347344 0.13975985 -0.12984356 -0.31018344
-0.35116422 -0.09156418 -0.39790952 -0.2330513 -0.2050492 -0.17090166 0.056841087 -0.054355104
0.051129285 -0.06580968 -0.10085304 -0.30240414 -0.1566736 -0.12025884 0.10061863 -0.061452404
0.37441105 0.14929076 -0.04355657 0.102905594 0.13956247 0.054449383 0.023250435 0.27330318
0.083106466 0.17724328 -0.22556622 -0.07034916 -0.14153309 -0.3411146 -0.15519841 0.13084537
0.061331388 0.007189568 -0.15493083 -0.22978367 0.10183496 -0.09846073 0.35257858 0.15060991
-0.27315244 -0.18600166 -0.24608879 0.30406538 0.22468065 -0.5069632 -0.25923353 -0.07604258
-0.01902339 0.067742765 0.1989316 0.008070798 -0.102893166 0.021299606 0.0922991 0.15286095
0.07102384 0.2322222 0.20258431 0.33117276 0.12224672 0.16376165 0.09988563 0.07641521
0.14259003 0.14109325 0.062701955 0.069494195 -0.120563306 -0.017014837 -0.043980442 -0.31588563
-0.20565148 -0.14010787 -0.15807769 0.12707135 0.012757278 -0.28057 -0.15478936 -0.11338888
-0.06923932 -0.12032788 0.08083312 0.018802376 -0.1420623 -0.23032673 -0.087796256 0.0013887351
0.2907996 0.26737016 -0.17173368 -0.12349922 0.11264508 0.21097526 0.09038495 0.010172879
-0.19177492 0.1666478 0.18675074 -0.060087636 0.010445985 -0.027764566 0.115861036 -0.10814028
0.04351992 0.11012331 0.14979778 0.23338012 0.204755 0.20074172 0.040876962 0.1444991
00000000: c8c0 2f3e 48af 6e3d 2dbb 993d f8e9 5d3e
00000010: 7d49 673d 6bd2 2e3e c9f4 143d 13f6 2a3e
00000020: 11b5 e83d 3412 36bd cf06 ae3d f5c6 a33e
00000030: 1f7b 963e a635 ed3d 2516 85be d4b5 d93d
00000040: d564 783e 73e7 f7bc 2dc0 e6be 8281 e3be
00000050: 4d91 95bc 31a6 16be 27eb 3ebe b67c 88be
00000060: 8656 fabd 56a0 9abd 8226 f2bc 32d2 52be
00000070: ad89 3dbe 5239 18be d8c6 123c 0d54 64bd
00000080: 014c c53d 05e9 4dbe 17e6 01bd 4195 f7bd
00000090: 100f 2bbc c721 d73d 1e6f b6bd 1004 e83c
000000a0: 345f 0d3c 4ab1 ff3c 5107 113e 8d2d 8d3e
000000b0: ab43 5b3e c53e 01bd 642b 843c 8453 d63d
000000c0: 7b6a 813c ceff 0e3e f582 57bd cbe5 e13d
000000d0: c37f 35be 3a65 8fbd 453c a0bb dd7d cabd
000000e0: 4ef8 5c3d 7308 03be 2494 5cbe 3aa0 efbe
000000f0: dbca 8d3d afc8 8e3d 2b31 3c3e 8dcc 353e
00000100: a9bc 01be 55bc fb3c e892 c53d 7abb 393e
00000110: 7541 ba3e 2901 173e d79a 253c deb4 70be
00000120: a664 db3c 6a34 273e 3b5a 843c 5a66 b8be
00000130: 4b9d 1bbf b78b ffbe c56e aabe 7b84 ddbe
00000140: b8e1 2f3e 1fb7 80bd 2114 0abe b6fb 4ebe
00000150: d0db d33d 42ac 853e 89af 583e d0b0 cc3c
00000160: 73d5 243e 051f 1b3e d273 2a3e 3b7a f53d
00000170: 056e a23e fb08 3d3e 0e1e 0c3e a2b5 393e
00000180: 1437 2f3e fca9 be3c 24af dc3d 4e4a 4fbc
00000190: 38be 0abe 39f8 8fbd d94f a2bd b5f5 0e3d
000001a0: ca30 c73c f4bf 82be b481 2dbe 8664 35bd
000001b0: 1e03 563e 094f ff3d ce80 e6bc 5a53 ac3d
000001c0: 7b2e a23e ff08 763d f850 373d fea3 993e
000001d0: 1f7e 093e 7266 3dbe ca6a 8fbd dc45 403e
000001e0: af18 31be a767 a9be e7f5 77be f3e2 05be
000001f0: 426c 343d 0899 bf3d 1e46 973e 9b40 153e
00000200: ee89 f43d bdf8 d33d dbf9 093e 616e 6a3e
00000210: 3a69 d53e 2984 7d3e c44a 5c3e 9927 1d3e
00000220: 4060 1a3e 13e8 31be 15ec f5bb a44f 74be
00000230: c364 e83d 351d 0f3e b6f5 04be 5dd0 9ebe
00000240: cccb b3be 0086 bbbd ccba cbbe 00a5 6ebe
00000250: 6bf8 51be d800 2fbe 33d2 683d 75a3 5ebd
00000260: f16c 513d 3ac7 86bd 0a8c cebd b7d4 9abe
00000270: 0b6f 20be 444a f6bd 2411 ce3d 84b5 7bbd
00000280: ceb2 bf3e addf 183e 6068 32bd 2bc0 d23d
00000290: 77e9 0e3e 5106 5f3d b277 be3c 65ee 8b3e
000002a0: b933 aa3d 437f 353e d5fa 66be 3813 90bd
000002b0: 0dee 10be 93a6 aebe 55ec 1ebe 54fc 053e
000002c0: 9f36 7b3d 7896 eb3b 30a6 1ebe 694c 6bbe
000002d0: d98e d03d c7a5 c9bd 2e85 b43e 7c39 1a3e
000002e0: a3da 8bbe 3877 3ebe b3fe 7bbe 75ae 9b3e
000002f0: af12 663e 57c8 01bf 42ba 84be 36bc 9bbd
00000300: f1d6 9bbc b8bc 8a3d bab4 4b3e 613b 043c
00000310: a7b9 d2bd 837c ae3c 4f07 bd3d 9587 1c3e
00000320: f274 913d a8cb 6d3e 4372 4f3e 7a8f a93e
00000330: 7d5c fa3d 22b1 273e d690 cc3d 947f 9c3d
00000340: 1f03 123e c07a 103e e269 803d f952 8e3d
00000350: e5e9 f6bd b362 8bbc d624 34bd c3bb a1be
00000360: 4d96 52be 7078 0fbe 1edf 21be fe1e 023e
00000370: e703 513c dfa6 8fbe 1a81 1ebe 6e38 e8bd
00000380: 58cd 8dbd 776e f6bd d68b a53d 7107 9a3c
00000390: c878 11be c5da 6bbe 86ce b3bd 3806 b63a
000003a0: afe3 943e bee4 883e f4da 2fbe 29ed fcbd
000003b0: 77b2 e63d e609 583e bf1b b93d 26ac 263c
000003c0: a560 44be b9a5 2a3e 963b 3f3e 741e 76bd
000003d0: a325 2b3c 8472 e3bc 8d48 ed3d a778 ddbd
000003e0: f241 323d 5488 e13d 9764 193e 33fb 6e3e
000003f0: 4bab 513e 3d8f 4d3e 9a6e 273d 92f7 133e

layers_conv.1.0.weight f4 [64, 32, 5, 5]
0.05466875 0.038256124 0.04754814 0.29917327 0.056943037 0.05389416 0.23992006 0.101443924
0.049757924 0.007006749 0.009678157 0.03930267 -0.25387916 -0.07981186 0.06624932 -0.011092633
-0.19430348 -0.31725276 -0.26840746 -0.2796916 -0.15879135 -0.041033555 -0.13431185 -0.040335834
-0.08852855 -0.19404218 0.10534795 -0.10247529 -0.054520078 0.0020939051 0.05865595 -0.15173876
-0.2202774 -0.06816501 -0.020221945 -0.20362411 -0.20316206 -0.06987746 -0.13704076 -0.4565356
-0.009659554 0.15802541 -0.034527887 0.1200474 -0.06560406 -0.13648508 0.16399816 0.09170472
0.09997929 0.052054197 -0.016559461 -0.2102337 -0.24392413 -0.17533255 -0.09416989 0.0017524941
-0.15021336 -0.20221908 0.0047821538 -0.039185904 -0.12842369 0.026200054 -0.18384375 -0.26199922
-0.23397467 0.05467937 -0.019467473 0.15414365 0.18839036 0.11919942 0.019332275 -0.06279004
0.017242335 0.10801079 0.23297004 -0.04930559 -0.09882856 -0.14372669 -0.2169256 -0.087662674
-0.16929442 -0.26173553 -0.3261525 -0.3081779 -0.116038725 -0.308504 -0.026664216 -0.04787697
-0.31436163 0.026988959 0.16167025 0.35059726 0.45609862 0.28831068 0.11814484 0.09341167
0.41242608 0.24877581 0.24214946 0.38191214 0.16399081 0.036510576 0.16916129 -0.11098843
-0.09315553 0.041556433 -0.060786936 0.078695595 -0.022501878 -0.04098163 0.046683438 -0.22246885
-0.18142003 -0.012304031 -0.06077476 -0.1131643 0.06271652 -7.521645e-05 -0.2732955 -0.39547455
-0.16588378 -0.001780999 0.09867794 0.085404254 -0.13295943 0.008409675 -0.14264596 0.011547043
-0.058505494 0.06679355 -0.008073247 0.0021589706 0.14517401 -0.07782542 0.2193882 0.07077762
0.12648188 -0.2802383 -0.0065546907 0.15579493 -0.10123813 -0.037122596 0.0030446493 -0.29720166
-0.35629007 -0.12710002 -0.08546489 0.010478158 0.087744996 0.051524118 0.09151759 0.025476327
0.009026625 -0.14156681 -0.15459545 0.1832168 -0.021272847 -0.018274345 -0.101989545 0.051407453
0.14575222 0.09068456 0.06819304 -0.14554493 -0.085962825 0.04773504 0.062044874 -0.039016683
-0.13387254 0.04034264 -0.099811874 -0.11651406 0.087680236 0.30121604 -0.09288073 0.15443936
-0.2189807 -0.06693109 -0.021007827 0.18381774 0.17723422 -0.1925743 -0.003886091 0.15961418
0.044083044 -0.04596027 0.16718231 -0.08414093 -0.1012079 -0.024590997 0.039860915 0.0329693
0.15194832 -0.16807003 0.026887901 0.112876095 -0.08581239 0.1858411 0.14617272 0.22939363
0.23174958 -0.14642565 -0.067684256 -0.18430054 0.07197235 -0.15440618 -0.053431083 -0.028150909
-0.01648772 0.0028859994 0.12278586 0.22390285 0.0538843 -0.057237312 0.05980047 0.06236531
-0.029987048 -0.046409577 0.010986329 -0.12792066 -0.10773552 0.07550829 -0.01799133 -0.1350926
-0.2543367 -0.121868476 -0.0029535997 0.25868505 0.095735826 -0.005822553 -0.10759991 0.043871913
-0.10414806 -0.14772916 0.09418252 -0.11322325 -0.15852796 -0.4925039 -0.24365732 -0.01848689
-0.11117855 -0.23207015 0.092194274 -0.19692682 -0.11037561 -0.07457631 0.15538615 0.12657116
-0.09270821 0.03468325 -0.05724301 -0.35835445 0.06277451 0.04752015 -0.056768652 -0.26351085
00000000: 57ec 5f3d 74b2 1c3d d7c1 423d 3d2d 993e
00000010: 1a3d 693d 1fc0 5c3d 9bad 753e d5c1 cf3d
00000020: f7ce 4b3d df98 e53b 2291 1e3c d6fb 203d
00000030: 73fc 81be 6774 a3bd b9ad 873d e0bd 35bc
00000040: 7ef7 46be f46e a2be b46c 89be bd33 8fbe
00000050: 339a 22be cd12 28bd 0c89 09be 3037 25bd
00000060: 754e b5bd feb2 46be aac0 d73d 91de d1bd
00000070: 7250 5fbd e639 093b 3941 703d 6861 1bbe
00000080: 6690 61be 199a 8bbd 7ea8 a5bc d782 50be
00000090: b709 50be ea1b 8fbd 6a54 0cbe 09bf e9be
000000a0: 1b43 1ebc 6ad1 213e 1d6d 0dbd 69db f53d
000000b0: 6c5b 86bd bfc2 0bbe 22ef 273e afcf bb3d
000000c0: f1c1 cc3d c836 553d b5a7 87bc 8147 57be
000000d0: 3fc7 79be 608a 33be 25dc c0bd f2b3 e53a
000000e0: 88d1 19be 8512 4fbe 9db3 9c3b 6681 20bd
000000f0: 8081 03be 7fa1 d63c 8941 3cbe c324 86be
00000100: 0e97 6fbe 7af7 5f3d 407a 9fbc d5d7 1d3e
00000110: 67e9 403e d31e f43d b85e 9e3c 1198 80bd
00000120: cc3f 8d3c c334 dd3d b38f 6e3e a9f4 49bd
00000130: a166 cabd 172d 13be bf21 5ebe 7d88 b3bd
00000140: 845b 2dbe 3302 86be 76fd a6be 7ec9 9dbe
00000150: b6a5 edbd 3cf4 9dbe ea6e dabc a41a 44bd
00000160: 02f4 a0be f317 dd3c e38c 253e 7c81 b33e
00000170: c285 e93e 759d 933e ecf5 f13d 9e4e bf3d
00000180: 8329 d33e 16bf 7e3e 07f6 773e fd89 c33e
00000190: 35ed 273e 1d8c 153d 9e38 2d3e e74d e3bd
000001a0: 54c8 bebd 1437 2a3d b9fb 78bd 282b a13d
000001b0: dc55 b8bc 5bdc 27bd 2237 3f3d e0ce 63be
000001c0: 2cc6 39be d996 49bc f4ee 78bd afc2 e7bd
000001d0: 8571 803d 86bd 9db8 63ed 8bbe a47b cabe
000001e0: 70dd 29be 6970 e9ba a917 ca3d 6de8 ae3d
000001f0: 8426 08be bcc8 093c c811 12be cf2f 3d3c
00000200: 75a3 6fbd 0fcb 883d a745 04bc 847d 0d3b
00000210: 7fa8 143e ef62 9fbd 4da7 603e dbf3 903d
00000220: 7784 013e 657b 8fbe bbc8 d6bb b588 1f3e
00000230: f055 cfbd dd0d 18bd bd88 473b d12a 98be
00000240: a76b b6be 8226 02be 3708 afbd 94ac 2b3c
00000250: a6b3 b33d f40a 533d 936d bb3d bbb3 d03c
00000260: 69e4 133c e4f6 10be 454e 1ebe 2f9d 3b3e
00000270: 6544 aebc 14b4 95bc e5df d0bd 9f90 523d
00000280: 1240 153e d4b8 b93d cba8 8b3d bb09 15be
00000290: 470d b0bd d185 433d c422 7e3d f5cf 1fbd
000002a0: e215 09be 533e 253d 2b6a ccbd ec9e eebd
000002b0: b291 b33d fd38 9a3e 4138 bebd 5a25 1e3e
000002c0: 7a3c 60be 2b13 89bd 9b18 acbc b83a 3c3e
000002d0: e37c 353e 3332 45be caad 7ebb e671 233e
000002e0: 6c90 343d d640 3cbd d731 2b3e 1452 acbd
000002f0: 1646 cfbd 0f73 c9bc 3345 233d d10a 073d
00000300: 5798 1b3e 8d1a 2cbe 0444 dc3c 952b e73d
00000310: 68be afbd 214d 3e3e 4dae 153e 2ae6 6a3e
00000320: c34f 6d3e 9bf0 15be 0b9e 8abd 48b9 3cbe
00000330: 3d66 933d a71c 1ebe 8dda 5abd bc9c e6bc
00000340: 4111 87bc 0923 3d3b 2777 fb3d ca46 653e
00000350: c9b5 5c3d ac71 6abd 56f1 743d c472 7f3d
00000360: 66a7 f5bc f817 3ebd 0100 343c a2fd 02be
00000370: 71a4 dcbd 17a4 9a3d 8e62 93bc b755 0abe
00000380: 6c38 82be 2e96 f9bd 2e91 41bb 5e72 843e
00000390: 2511 c43d 1dcb bebb 575d dcbd 09b3 333d
000003a0: 944b d5bd 5046 17be c4e2 c03d 97e1 e7bd
000003b0: 2755 22be 7929 fcbe 4e81 79be d171 97bc
000003c0: 94b1 e3bd cca3 6dbe 5ad0 bc3d 2fa7 49be
000003d0: 9c0c e2bd 77bb 98bd 8c1d 1f3e df9b 013e
000003e0: cddd bdbd 0610 0e3d a577 6abd 3c7a b7be
000003f0: ec8f 803d 7da4 423d 3f86 68bd e5ea 86be

layers_fc.0.0.weight f4 [128, 1024]
-0.008787944 -0.009453718 -0.014697721 -0.0015124026 -0.0002460101 -0.008884066 0.0021536513 -0.018001424
-0.00017855252 0.024304034 0.0035444153 -0.029398361 0.0055962536 -0.021599049 0.014797629 -0.017727662
-0.0072110733 -0.003727989 -0.015767498 -0.0018894448 -0.006129555 4.0599276e-05 -0.025146028 -0.0018144737
0.0019221934 -0.032481104 0.020559244 0.019732654 -0.006625787 -0.0014039956 0.017798115 -0.025143972
-0.008827002 -0.00551516 0.011840274 -0.00715596 0.03066847 -0.00084472384 0.008339866 -0.0033111167
-0.024730248 0.004011172 0.015770592 -0.012696256 0.0109680025 -0.016103616 -0.017667642 -0.013573665
-0.02098126 -0.018255416 -0.009227398 0.0046504443 0.004447122 -0.032184917 -0.0093184505 -0.0056902305
-0.014064405 0.0020899822 0.0031009554 -0.01045628 -0.0023853332 -0.008997177 -0.011477284 -0.009260579
-0.015252761 0.011959966 -0.01739514 -0.009310728 -0.0184024 -0.0129397735 -0.017719695 -0.012465874
-0.0062077898 -0.025891295 0.01871052 0.00055145286 -0.004494833 -0.020896005 -0.003895542 -0.0035789537
-0.025628235 -0.008930582 -0.01242785 0.008341663 -0.004909415 -0.029730368 0.0020101352 -0.0017268246
-0.010114866 -0.018165147 -0.0040468695 -0.018997472 -0.0105924755 -0.0072951186 -0.025232207 -0.013254797
-0.00695686 -0.008364695 0.007912867 0.0031841446 0.0062197237 -0.01853896 -0.0011954433 -0.0015877996
-0.014044442 -0.011540759 -0.024469282 0.016552877 -0.002193559 0.0077764667 -0.012224032 -0.0057527795
-0.01823041 -0.02148438 -0.023354856 0.0018794057 -0.020648612 -0.00967586 -0.012497067 0.0076655713
-0.015884245 -0.038722675 -0.018605718 -0.008269274 -0.0069657387 -0.0016463773 0.003858451 -0.0058012116
-0.008576364 -0.04824986 -0.016581925 0.0007024095 0.0029473351 -0.00019194231 -0.0049953046 0.010377876
0.01833747 -0.023519251 -0.009009621 -0.0112371165 0.0024175055 0.0045744698 0.0025645725 -2.4266947e-05
0.0041130567 -0.0026556018 -0.011178251 -0.0026447063 -0.027241886 -0.022266185 -0.011726655 -0.015348975
-0.020376517 -0.022382135 -0.0065139714 -0.026670557 -0.017734645 -0.011841379 -0.032975875 -0.019491741
-0.028395135 -0.023342002 -0.015733402 -0.026226174 -0.014939033 -0.027157031 -0.014973148 0.0010214512
0.007685577 0.0030083798 -0.004527827 0.020222243 0.0054462226 -0.0050191698 0.0022991977 -0.0014372315
-0.029457048 0.0040385528 -0.03793051 -0.024036914 -0.008252868 0.014482308 0.0071415557 0.0009826693
-0.017780732 -0.00025420295 0.00348958 -0.022365844 0.003298266 -0.0007895318 0.006230719 0.0018893563
-0.030504094 -0.013797908 -0.00626107 -0.014198727 -0.019671017 -0.00316876 0.0010953029 -0.027441539
-0.006222725 0.0038374716 0.018881919 -0.013638141 0.010518362 -0.006572202 -0.00044337858 0.0016878507
-0.023056181 -0.015189727 -0.038491562 0.004158562 0.0056022024 0.0020753045 0.004907685 -0.028918635
0.01214779 -0.014026435 -0.008730865 -0.0051975586 0.020589579 -0.0038343929 0.0057241586 -0.008929835
0.008482106 -0.021049947 -0.012519146 -0.033361435 -0.018026771 -0.016214922 -0.007948149 -0.0047928505
0.0012335049 -0.0013063975 -0.020996304 -0.00638952 -0.013290901 -0.013039039 -0.018437782 0.009297424
0.0077882027 0.01338453 -0.029566804 -0.018797772 -0.011017125 -0.0087166615 -0.010253221 -0.0061859163
-0.023393536 -0.0168547 -0.017443122 0.0039131427 -0.003918819 -0.0001410908 0.0021892108 0.0021858858
00000000: 4ffb 0fbc c4e3 1abc b6ce 70bc cf3b c6ba
00000010: ebfa 80b9 798e 11bc 4624 0d3b b977 93bc
00000020: d439 3bb9 4119 c73c 6c49 683b d5d4 f0bc
00000030: c760 b73b 7df0 b0bc c171 723c 9a39 91bc
00000040: de4a ecbb 4751 74bb d72a 81bc 3fa7 f7ba
00000050: 6fda c8bb 2449 2a38 0bff cdbc a2d3 edba
00000060: 1cf2 fb3a e80a 05bd dc6b a83c 60a6 a13c
00000070: 211d d9bb 4606 b8ba 5acd 913c bbfa cdbc
00000080: 219f 10bc 84b8 b4bb b5fd 413c 8b7c eabb
00000090: 713c fb3c 7570 5dba efa3 083c 52ff 58bb
000000a0: 1797 cabc 2670 833b 5431 813c f503 50bc
000000b0: 23b3 333c bbeb 83bc bbbb 90bc 1464 5ebc
000000c0: e4e0 abbc 628c 95bc 832e 17bc c162 983b
000000d0: 2ab9 913b 55d4 03bd 6aac 18bc 1d75 babb
000000e0: 646e 66bc 15f8 083b 6639 4b3b d150 2bbc
000000f0: 4053 1cbb e568 13bc 380b 3cbc afb9 17bc
00000100: b7e6 79bc bcf3 433c 4180 8ebc 068c 18bc
00000110: a1c0 96bc 5801 54bc e528 91bc aa3d 4cbc
00000120: b76a cbbb fb19 d4bc ce46 993c 608f 103a
00000130: 6449 93bb 192e abbc 594c 7fbb e18c 6abb
00000140: 4ef2 d1bc 9351 12bc 2e9e 4bbc 78ab 083c
00000150: 28df a0bb 1a8d f3bc 79bc 033b 9e56 e2ba
00000160: d3b8 25bc 13cf 94bc 9a9b 84bb 96a0 9bbc
00000170: 108c 2dbc e40b efbb c6b3 cebc a62a 59bc
00000180: 5ff6 e3bb 130c 09bc f8a4 013c 15ad 503b
00000190: d3ce cb3b 04df 97bc 6cb0 9cba b71d d0ba
000001a0: a91a 66bc 7415 3dbc ce73 c8bc e699 873c
000001b0: d0c1 0fbb bbd1 fe3b 4e47 48bc d081 bcbb
000001c0: f157 95bc 0300 b0bc af52 bfbc 6456 f63a
000001d0: 4727 a9bc 8087 1ebc 80c0 4cbc 792f fb3b
000001e0: ad1f 82bc ab9b 1ebd 056b 98bc d97b 07bc
000001f0: da40 e4bb 41cb d7ba 11de 7c3b 1718 bebb
00000200: e183 0cbc a5a1 45bd d1d6 87bc e721 383a
00000210: 1428 413b 1f44 49b9 a7af a3bb f807 2a3c
00000220: 7638 963c 72ab c0bc 179d 13bc e21b 38bc
00000230: 036f 1e3b 6fe5 953b 6312 283b df90 cbb7
00000240: d2c6 863b 9b09 2ebb fc24 37bc cf52 2dbb
00000250: 602a dfbc 9367 b6bc 2821 40bc 447a 7bbc
00000260: a7ec a6bc bd5a b7bc 2773 d5bb 367c dabc
00000270: 3f48 91bc 5802 42bc b611 07bd 25ad 9fbc
00000280: ea9c e8bc ba37 bfbc 56e3 80bc 46d8 d6bc
00000290: d9c2 74bc 6c78 debc ef51 75bc 37e2 853a
000002a0: 4bd7 fb3b 3d28 453b 2a5e 94bb 1ea9 a53c
000002b0: 3a76 b23b d977 a4bb 23ae 163b 7d61 bcba
000002c0: e84f f1bc d655 843b 065d 1bbd 10e9 c4bc
000002d0: 0a37 07bc 3447 6d3c b603 ea3b e9cc 803a
000002e0: e6a8 91bc 8b46 85b9 70b1 643b 9338 b7bc
000002f0: b927 583b 95f8 4eba 0f2b cc3b 47a4 f73a
00000300: b9e3 f9bc 9f10 62bc a929 cdbb c7a1 68bc
00000310: 1d25 a1bc f9aa 4fbb 4490 8f3a 14cd e0bc
00000320: 00e8 cbbb 177e 7b3b 41ae 9a3c 8272 5fbc
00000330: 3555 2c3c a05b d7bb 4475 e8b9 df3a dd3a
00000340: 51e0 bcbc 55de 78bc 54a9 1dbd 8c44 883b
00000350: ae92 b73b d501 083b a5d0 a03b c6e6 ecbc
00000360: 8607 473c 22cf 65bc e70b 0fbc 4850 aabb
00000370: 7aab a83c 704a 7bbb b991 bb3b 714e 12bc
00000380: 88f8 0a3c f070 acbc 1b1d 4dbc 00a6 08bd
00000390: e1ac 93bc 28d5 84bc f438 02bc 580d 9dbb
000003a0: 8ead a13a 6d3b abba 7100 acbc 2e5f d1bb
000003b0: 14c2 59bc b2a1 55bc d50a 97bc 3954 183c
000003c0: 2e34 ff3b ca4a 5b3c 1536 f2bc c9fd 99bc
000003d0: 2c81 34bc 54d0 0ebc 20fd 27bc 3ab3 cabb
000003e0: cda3 bfbc de12 8abc e1e4 8ebc d239 803b
000003f0: 7069 80bb c6f1 13b9 dd78 0f3b 1441 0f3b

layers_fc.1.0.weight f4 [10, 128]
-0.002307813 -0.109480344 -0.2249328 0.025528813 0.100583866 0.041181978 -0.06705319 0.053835813
-0.1310016 0.060396135 -0.107863136 0.12595533 -0.014081011 -0.3189106 0.0005039904 -0.12963454
0.04759867 -0.03312763 0.050674457 -0.0867675 0.018664254 0.08165844 0.009171871 -0.12627149
0.019054899 0.09691843 0.038842987 0.111105286 0.08414446 -0.23978132 -0.014400089 -0.033140812
0.018322991 0.06760395 -0.15572749 -0.00446428 -0.032715194 -0.19674048 0.07385645 -0.0677969
-0.042452674 0.09612195 0.05526945 -0.08822994 0.123150714 0.03752152 -0.016415918 -0.13753712
-0.11677099 0.056446753 -0.24223307 -0.015548637 -0.062440753 -0.060347304 -0.010170662 0.031421755
0.028484276 -0.26443288 0.014242751 0.029797586 0.060362373 -0.050127584 -0.03339464 -0.1562321
0.038100988 0.061337378 0.016884906 0.082852155 0.052829135 0.007174535 -0.04855343 0.039707135
0.010512991 0.07823128 0.010533324 -0.03190587 0.04451601 0.11775684 0.03522005 -0.0006088649
0.112932794 -0.1680052 0.03221498 -0.117794305 -0.14854291 -0.018798608 0.028243108 0.051922627
-0.1865845 -0.14180046 -0.06722899 -0.017225211 -0.16841799 -0.14964384 0.01619817 -0.010877082
-0.10206041 -0.001529198 -0.023280732 0.15055576 0.015936838 -0.14124045 0.02940866 -0.08645977
-0.27046803 -0.07874659 0.002994205 -0.028045068 -0.15180333 0.084297575 -0.13802181 -0.110760994
0.013162518 0.09609373 0.010447063 0.026251435 -0.0435855 0.010301388 -0.040083915 0.057215355
-0.1308254 -0.11591633 0.06275515 -0.1560398 -0.05753358 -0.035182696 -0.13324372 -0.016768884
-0.0068512857 0.061026014 0.008146255 -0.03474113 0.09874787 -0.013767736 0.027587334 -0.06957788
0.0037386594 -0.04534652 -0.04256404 -0.00090393634 -0.0497827 -0.0043611764 -0.052583884 -0.03326127
-0.0048829275 -0.17833863 -0.1629238 -0.005785004 -0.125141 0.038973283 -0.014274513 0.042992376
0.018130306 0.01824406 -0.035255887 0.05058498 -0.025512166 -0.00429878 -0.1062235 0.013891794
-0.113141865 0.18700211 0.04719411 0.024178728 0.0549186 -0.025505353 -0.28969955 -0.06248111
0.025459256 -0.0035062034 -0.04065891 -0.019366357 0.09419038 0.0021873077 -0.15950447 -0.12722121
0.08538311 -0.06031956 0.10171593 -0.004086093 0.10066865 0.062076747 -0.017186267 -0.0055253697
-0.3255965 -0.004958225 0.084882274 -0.0827102 0.06818797 -0.15065409 0.012452114 0.0022888458
-0.013272052 -0.07397023 -0.01730555 0.117359735 -0.048267115 -0.21885738 -0.016262542 0.031842493
-0.064593084 0.05860478 -0.08217632 -0.04121896 0.068509 -0.0151029 -0.03432179 -0.0007838661
-0.15928838 0.035856113 -0.056207415 -0.044880677 0.061015654 0.028275985 -0.21880993 -0.22449219
0.0418792 -0.07511669 -0.010289206 0.0014391626 0.09612839 0.04933504 -0.059723098 -0.014558769
0.066229485 0.0032599217 0.011155211 0.1320618 0.0003019921 -0.15966286 -0.09989321 -0.032769524
0.060484245 0.0023384911 0.12072653 -0.15409742 -0.11193508 -0.12860416 0.039778028 -0.020496747
-0.09784628 0.08837437 -0.010167741 -0.04472698 0.1279397 0.028200205 -0.076232985 -0.20335685
0.034622267 0.013488814 -0.09721203 -0.15479456 0.047149852 -0.022471093 0.054649994 0.08656075
00000000: ad3e 17bb 3b37 e0bd c954 66be cd21 d13c
00000010: eafe cd3d 6fae 283d 2f53 89bd f182 5c3d
00000020: 4925 06be f061 773d 59e7 dcbd 6ffa 003e
00000030: 0ab4 66bc 4048 a3be 391e 043a ebbe 04be
00000040: d3f6 423d d6b0 07bd 0590 4f3d 29b3 b1bd
00000050: c7e5 983c 8a3c a73d 9d45 163c 504d 01be
00000060: 0519 9c3c 2b7d c63d d319 1f3d 2b8b e33d
00000070: ee53 ac3d 3c89 75be 5aee 6bbc a9be 07bd
00000080: 191a 963c f173 8a3d 0777 1fbe 1849 92bb
00000090: 5e00 06bd 5676 49be 0d42 973d 1ad9 8abd
000000a0: dbe2 2dbd 96db c43d 3862 623d e6b1 b4bd
000000b0: 7136 fc3d 2ab0 193d ad7a 86bc 88d6 0cbe
000000c0: a125 efbd b634 673d f20b 78be b6bf 7ebc
000000d0: e0c1 7fbd bc2e 77bd d9a2 26bc 19b4 003d
000000e0: db57 e93c bf63 87be 6d5a 693c 111a f43c
000000f0: 893e 773d 9552 4dbd d1c8 08bd 4ffb 1fbe
00000100: c80f 1c3d e73c 7b3d 3752 8a3c 64ae a93d
00000110: 5d63 583d 5d18 eb3b f6df 46bd f3a3 223d
00000120: ae3e 2c3c b937 a03d f793 2c3c bbaf 02bd
00000130: 6b56 363d 802a f13d e642 103d 3b9c 1fba
00000140: 4f49 e73d 8e09 2cbe dbf3 033d 243e f1bd
00000150: a21b 18be 8aff 99bc 175e e73c d2ac 543d
00000160: 0210 3fbe 2434 11be 5aaf 89bd e31b 8dbc
00000170: c475 2cbe 3c3c 19be 06b2 843c ca35 32bc
00000180: 0c05 d1bd 5f6f c8ba 3cb7 bebc 4a2b 1a3e
00000190: f98d 823c 56a1 10be 6eea f03c d211 b1bd
000001a0: c97a 8abe e445 a1bd 6d3a 443b c5be e5bc
000001b0: 5572 1bbe 35a4 ac3d 9755 0dbe a9d6 e2bd
000001c0: 9aa7 573c cacc c43d 282a 2b3c 400d d73c
000001d0: b686 32bd 27c7 283c 082f 24bd a65a 6a3d
000001e0: 18f7 05be 8a65 edbd c685 803d e6c8 1fbe
000001f0: 55a8 6bbd bb1b 10bd 0b71 08be e65e 89bc
00000200: c080 e0bb 6af6 793d df77 053c b74c 0ebd
00000210: 533c ca3d 1292 61bc d5fe e13c d97e 8ebd
00000220: 4c04 753b 46bd 39bd a157 2ebd 24f6 6cba
00000230: f2e8 4bbd 33e8 8ebb 3362 57bd f83c 08bd
00000240: f700 a0bb 679e 36be 7fd5 26be 2190 bdbb
00000250: f624 00be 73a2 1f3d a6df 69bc c618 303d
00000260: 0286 943c 9174 953c 7a68 10bd 3232 4f3d
00000270: e4fe d0bc c8dc 8cbb b58b d9bd 689a 633c
00000280: ecb6 e7bd 7b7d 3f3e 9c4e 413d 7812 c63c
00000290: 53f2 603d 9af0 d0bc 8053 94be 31ec 7fbd
000002a0: ee8f d03c 55c8 65bb f589 26bd 32a6 9ebc
000002b0: e3e6 c03d ef58 0f3b 2455 23be 4746 02be
000002c0: 57dd ae3d a511 77bd 7150 d03d a2e4 85bb
000002d0: 5d2b ce3d 3044 7e3d 37ca 8cbc 290e b5bb
000002e0: 96b4 a6be 9b78 a2bb c2d6 ad3d f763 a9bd
000002f0: 22a6 8b3d 1145 1abe f403 4c3c 7600 163b
00000300: 0573 59bc b47d 97bd 5ec4 8dbc 4d5a f03d
00000310: bdb3 45bd 261c 60be 0639 85bc 466d 023d
00000320: 6149 84bd 910b 703d 0f4c a8bd 36d5 28bd
00000330: 724e 8c3d 2772 77bc 0195 0cbd 5d7c 4dba
00000340: 7e1c 23be dcdd 123d bf39 66bd cdd4 37bd
00000350: 8deb 793d 0aa3 e73c b60f 60be 48e1 65be
00000360: 8689 2b3d c7d6 99bd 0f94 28bc 49a2 bc3a
00000370: f6de c43d 8a13 4a3d 35a0 74bd e787 6ebc
00000380: 53a3 873d 69a4 553b 59c4 363c 353b 073e
00000390: b254 9e39 a97e 23be d094 ccbd 5639 06bd
000003a0: 54be 773d 5f41 193b 793f f73d b7cb 1dbe
000003b0: 383e e5bd cfb0 03be 49ee 223d cbe8 a7bc
000003c0: a163 c8bd 9ffd b43d 9996 26bc a333 37bd
000003d0: a002 033e 1e04 e73c 0a20 9cbd c73c 50be
000003e0: 14d0 0d3d 3000 5d3c 1a17 c7bd 7782 1ebe
000003f0: 3420 413d 4c15 b8bc acd8 5f3d c346 b13d
