mlp/ONN/seed3/network.pth (torch, 473735 bytes, 3 tensors)

layers.0.0.weight f4 [128, 784]
000000 d3 d2 a6 3d 03 e2 1b 3e b8 7e 65 3a cc f7 0a be
       0.0814568 0.15222935 0.00087545393 -0.1357109
000010 5f 04 b4 3d f7 3a 9b bc 59 0c 10 3e c1 45 96 3a
       0.08789896 -0.018949015 0.1406721 0.001146488
000020 6b ff 30 bd 0d 87 ee 3c da 90 e7 bd 73 2b 02 3e
       -0.043212336 0.029117132 -0.11306925 0.12711887
000030 ba 6b 3e be f8 36 91 bd c6 40 2a 3d 7f 72 1a 3e
       -0.18595782 -0.070905626 0.04156568 0.1508274
000040 82 ec 5a bc 70 6a 08 3e 80 9e 16 bb 06 30 0c 3d
       -0.013362052 0.13321853 -0.0022982657 0.034225486
000050 2f d9 9d bd cf 4a b8 3c 02 a5 86 bd 87 7e 82 bd
       -0.0770744 0.022496609 -0.065744415 -0.063717894
000060 1f 50 2b 3e f4 81 47 3c d0 04 03 be 3b ec 87 bd
       0.16729783 0.012176979 -0.12794805 -0.06636854
000070 3f bb 33 3d 5d 6e 50 3e 67 4d 13 3e 6a 19 55 3d
       0.043879744 0.203546 0.14384995 0.05202619
000080 66 49 ae bd 65 eb 19 be cb 64 29 3d 10 f0 f8 bc
       -0.085100934 -0.15031202 0.04135589 -0.030387908
000090 c7 47 e7 3c 93 97 62 bc 55 c8 2d 3d 14 19 d0 bd
       0.028232468 -0.013830083 0.04242738 -0.10161033
0000a0 0c f7 51 bc 8b ea 0c 3e 2e ed ce 3d de 61 98 3e
       -0.012815248 0.13761346 0.10103832 0.29762167
0000b0 36 be 03 3e 1b 4d 7c 3e cb 49 d1 bc ed 44 bd 3d
       0.12865528 0.24638788 -0.025547883 0.09241662
0000c0 21 f5 5d 3e 96 8e c0 3d 83 81 8e ba 11 e8 2a be
       0.2167554 0.09402196 -0.0010872338 -0.16690089
0000d0 03 9c bc 3d f5 e3 a7 3d 8f 6a c0 3c 62 3f e2 bb
       0.092094444 0.08197776 0.023488311 -0.0069045285
0000e0 a7 5d 4c 3d f2 b9 05 bb 39 f2 04 bd b6 cd 42 3e
       0.049894 -0.0020405021 -0.032457564 0.19023785
0000f0 56 77 95 3e 1a 80 ef 3d a0 43 13 bd 08 1c 27 be
       0.2919261 0.11694355 -0.035953164 -0.16319287
000100 31 5f 12 3d 64 ad 2c be 59 7f 59 bd e2 5a 7e 3e
       0.035735313 -0.16863018 -0.053099964 0.24839357
000110 6a e6 0c 3e c0 90 0f 3e b4 e7 b5 3b a0 47 ab 3d
       0.13759771 0.14020061 0.005551303 0.08363271
000120 ad a9 79 bd 28 e6 0d bd 93 b0 54 3e bb ce 84 3c
       -0.06095283 -0.034643322 0.20770483 0.016211858
000130 5a 89 44 3e 33 6b ab 3d 6c 9c 1a 3e e6 2f 8b 3e
       0.1919302 0.08370056 0.15098733 0.2718498
000140 81 cc 7e bd ad 2c 21 3e c0 e6 d9 3b d4 1a b5 bd
       -0.06220675 0.15739699 0.006649822 -0.08843008
000150 4b ad 57 bc 08 a8 94 3e 82 cb 5b 3c 8c 4d 63 3e
       -0.013163875 0.29034448 0.013415219 0.2219755
000160 8d df 54 3e b7 ff e6 3c f4 d5 b7 3d af 15 3f be
       0.20788403 0.028198106 0.08976355 -0.18660615
000170 20 ce 46 be fa 77 0e be a1 91 73 be 1a 2a ae 3d
       -0.19414568 -0.13912955 -0.23786022 0.08504124
000180 39 88 1a bd 78 03 78 bd 25 d5 e8 bb e3 32 6c bd
       -0.03772757 -0.060550183 -0.007105487 -0.057665717
000190 88 87 cb bd 11 3b 15 be 30 4e 64 3e e0 ea d0 bd
       -0.0993796 -0.14573313 0.22295451 -0.10201049
0001a0 ea 4e 5c 3e 2c 31 2d 3e 82 7d e0 3e fe 59 d5 3e
       0.21514478 0.16913289 0.43845755 0.4167022
0001b0 4c a1 84 bc 6c 02 0b be b4 a2 79 3d b8 44 11 3e
       -0.016190194 -0.13575143 0.06094618 0.1418637
0001c0 35 bf f7 3d 94 0b f6 3d 5a de 49 3e 1e ee 89 3e
       0.12097017 0.12013927 0.19713727 0.26939481
0001d0 25 66 59 bd dc 8b 6f 3e 57 b8 a3 bd 40 2f 22 3e
       -0.05307593 0.23393196 -0.079941444 0.15838337
0001e0 17 cf 87 3c 5d 08 77 bd 86 f0 96 3e 66 fe 75 3d
       0.01657824 -0.06031071 0.2948038 0.060057066
0001f0 44 39 92 3c a7 24 85 bc ee e1 0d be e2 bb 36 3e
       0.017849572 -0.016252829 -0.13855717 0.17845109
000200 a3 b4 70 3d 6f 2b 3e 3d 5f dd c1 3d d3 3a 0c 3e
       0.05876602 0.04642814 0.09466051 0.13694315
000210 25 f7 84 bd f4 dc 7a 3d 9f 4a 41 3e 56 f8 57 39
       -0.064924516 0.061245874 0.18876122 0.0002059651
000220 31 71 bc 3e ac 05 47 3e ff 2e 8a bd 92 56 9f bd
       0.36805108 0.19435757 -0.06747245 -0.07780184
000230 80 6c 79 bd 4b 2b a5 bd 1b 2d a8 3e 18 39 67 be
       -0.06089449 -0.08064898 0.32846913 -0.22580373
000240 c3 54 4f 3e c5 b7 28 bd 20 92 f7 3c 52 10 17 3e
       0.20247178 -0.04119088 0.030221045 0.1475232
000250 c6 da a0 3d 32 4b 53 bd c3 ae 0c be c7 04 8b 3d
       0.07854228 -0.051585384 -0.13738541 0.067880206
000260 12 49 89 bc 15 94 1f be 37 e4 ae bd 5c d2 fa 3c
       -0.016758475 -0.15583833 -0.08539622 0.030617885
000270 92 19 48 bd 6c 9c b7 bc b5 fc b6 3d 5c 4e c5 bd
       -0.04885251 -0.022413455 0.08934919 -0.096340865
000280 69 70 48 3e 1f aa 1a 3e 77 26 23 bd 0a 17 cd 3d
       0.19574131 0.15103959 -0.039831605 0.1001416
000290 72 85 09 3c 10 fa 96 3d 4e 80 dd 3e 46 84 12 3d
       0.008393632 0.073719144 0.4326195 0.035770677
0002a0 eb e2 09 3e 0f ef 58 bd 97 1e e2 3d 65 b3 48 be
       0.13465469 -0.05296236 0.11040991 -0.19599684
0002b0 11 d3 a3 be 1a ee c8 bc 62 d6 2f 3b 3e da 3b bd
       -0.31996968 -0.024527598 0.0026830663 -0.04586243
0002c0 37 1a 87 3e d6 7d 07 3e b6 95 51 3e 37 57 22 3e
       0.26387188 0.13231596 0.20467266 0.15853582
0002d0 f7 25 84 3e bd 44 8a 3e c3 04 6f 3e 80 36 45 3e
       0.25810215 0.27005568 0.2334166 0.19259071
0002e0 c3 b1 d2 bd ee 61 bb 3c 83 4f e7 bd 7b f9 ca 3d
       -0.102878116 0.022873845 -0.112944625 0.09910866
0002f0 a3 26 f2 bd 70 5c 9b bb a3 19 3d be 4e 90 51 be
       -0.118237756 -0.004741244 -0.18466811 -0.20465204
000300 76 f5 2e 3e 65 22 15 3e b1 04 8e 3e 78 2f bb 3d
       0.17085823 0.14563902 0.27737954 0.09139913
000310 b4 54 b1 bc 99 5d 46 bc e1 51 7e be 5e 26 62 be
       -0.021646835 -0.012107276 -0.24835922 -0.22084948
000320 e9 cc 00 3e 9b e5 03 be 69 82 bd bd 78 0a 70 3c
       0.12578167 -0.12880556 -0.092533894 0.014650933
000330 5d b1 1a 3e f7 b7 42 3e e9 d1 bf 3d 38 d7 84 3e
       0.15106721 0.1901549 0.09366209 0.2594545
000340 4b 8d ec bc f4 b7 40 3e d1 87 3a 3e e4 8c 22 3e
       -0.028875967 0.18820173 0.18215872 0.15874058
000350 e8 76 65 3e 8a cb 69 bd 3b 9f ab 3d c2 90 aa 3b
       0.2240864 -0.057078876 0.0837998 0.0052052448
000360 53 2d 9d 3c b3 c0 d5 39 ef ce b9 3d e4 f7 80 be
       0.019186651 0.00040770098 0.090726726 -0.25189126
000370 01 7e 17 be ba 41 9d 3c ff 28 84 3a 66 ee 19 be
       -0.1479416 0.01919638 0.0010083019 -0.15032348
000380 23 06 19 bd a2 8a 35 be 11 76 d0 bd 4f 98 95 3c
       -0.037359368 -0.17728665 -0.101787694 0.018261103
000390 cf 1c 7a 3d b1 64 a7 bb db 99 e1 bd 84 ea 17 3e
       0.06106263 -0.005108439 -0.11015674 0.14835554
0003a0 dd c9 fa bd 13 e0 d7 3d 7f 94 f2 3d bc 21 fe bc
       -0.122455336 0.10540786 0.1184473 -0.031021945
0003b0 8f 4d be 3d 04 b7 61 bd 3f 8e d3 3d 4a f7 26 3e
       0.09292137 -0.055106178 0.10329866 0.16305271
0003c0 5a 94 82 3c 01 ed 87 3e e8 a7 a2 3d 6d b8 a6 bd
       0.01593988 0.26548007 0.07942182 -0.08140645
0003d0 a0 d1 5d 3d 4c b9 e2 bd a2 03 af 3c 70 36 49 bc
       0.054154992 -0.11070499 0.021364037 -0.012281045
0003e0 30 e9 6c 3d 57 c1 82 be f9 f0 28 bd 13 c2 15 bd
       0.057839572 -0.25538132 -0.041245434 -0.036562037
0003f0 a5 35 ce 3d 4f 50 7c 3b 0a 13 8b be 4f b4 3c bd
       0.10068826 0.0038500016 -0.27162963 -0.046070393

layers.1.0.weight f4 [128, 128]
000000 84 8f 15 3e 7f d6 4c be 67 01 c9 bc 37 f9 eb 3d
       0.14605528 -0.20003699 -0.024536802 0.11522143
000010 7d 77 0d be d5 be 20 be c8 67 ef 3d 23 10 b8 be
       -0.13815112 -0.15697797 0.116897166 -0.3594981
000020 be 71 32 be 59 47 6f bd c1 16 10 bd 93 53 28 be
       -0.17426202 -0.05841765 -0.03517795 -0.16438131
000030 0d 61 bc bd 62 39 a5 bd 93 23 80 bc 9c 12 80 3d
       -0.091981985 -0.080675855 -0.015641963 0.062535495
000040 7e 23 b8 3c 0d 00 b3 3d 43 72 ea bd 26 04 e2 bd
       0.022477861 0.08740244 -0.11447575 -0.110359475
000050 8d 04 fc 3a 94 1f 81 3d c6 b7 ca 3d a1 65 59 be
       0.001922743 0.06304851 0.09898333 -0.21230175
000060 2a 6c 75 3d 95 cd 96 bd 50 87 b0 bd 6b d3 c1 bd
       0.059917606 -0.073634304 -0.08619559 -0.09464153
000070 3b f4 00 be 2b 49 26 bd ea e4 e2 3c a1 47 0d 3e
       -0.12593167 -0.040597122 0.027697045 0.13796856
000080 d1 7a 74 3d 73 d7 a3 bd 77 08 75 3d 36 7a 15 be
       0.05968744 -0.08000078 0.059822526 -0.14597401
000090 df 40 fe bd 16 d6 ac bd 7f 44 40 3d 09 e4 41 3e
       -0.12414717 -0.08439271 0.046940323 0.18934645
0000a0 77 ff d6 3d 20 c4 4a 3d da 4c 2a 3e 9b 53 de bd
       0.10497945 0.049503446 0.16630879 -0.1085579
0000b0 bd 80 83 bd 1b 8c 9a bd 45 1f f6 3b 3b 3f 11 be
       -0.06421039 -0.07546254 0.007511052 -0.14184277
0000c0 0b a3 0e 3e 3e 9f 85 3d 19 8d 65 3d 94 c3 1a 3e
       0.13929383 0.06524514 0.056042764 0.1511367
0000d0 53 64 22 be ba ad 85 bb 90 3d 8d 3b 2d 0a 64 bb
       -0.15858583 -0.0040795477 0.0043103173 -0.0034796104
0000e0 fe 3c 06 3e b7 63 bc bd a0 0e 12 bd 4a c7 4a 3d
       0.13109204 -0.091987066 -0.03565848 0.049506463
0000f0 48 e8 9c 3d 84 30 07 be 57 72 1d 3e a0 d3 17 3e
       0.07661492 -0.13202101 0.15375648 0.14826822
000100 b5 87 a2 bc 1a 71 9d 3d 2a 31 42 bd ed b3 d5 3d
       -0.0198401 0.07687588 -0.047410168 0.10434709
000110 05 40 86 be 03 b7 e8 3d 45 26 38 3d bc 92 05 ba
       -0.26220718 0.11363032 0.04495837 -0.00050954125
000120 de 47 63 bd e6 c3 15 3e f4 17 39 be 84 70 41 bd
       -0.05548846 0.1462551 -0.18075544 -0.047226444
000130 00 0e cb 3d 69 54 ea 3c 10 9e 90 bd 95 58 ab bc
       0.0991478 0.028604703 -0.07061398 -0.020916263
000140 14 c1 04 3e b4 2f b0 bd 9e 28 f4 3d 03 2f 51 3d
       0.12964278 -0.08602849 0.119218096 0.051070224
000150 22 e4 ce bd bf 3f 20 3c ca 02 21 3e 6f cb 64 bc
       -0.10102107 0.009780823 0.1572372 -0.013964518
000160 19 aa cd 3d 83 8c 13 bd a2 7e 00 bd c2 8b 10 3e
       0.10042209 -0.036022674 -0.031370766 0.14115813
000170 25 e4 e4 3d 08 05 17 3e fc 44 ad 3d 4d df a2 3d
       0.111763276 0.14748013 0.08460423 0.079527475
000180 7c b1 f0 3d 0b c2 72 3d 81 9b fa bd 72 d4 3f b8
       0.117526025 0.059267085 -0.12236691 -4.5735804e-05
000190 b9 26 76 bd 2d 61 15 be af 2d 2a 3d ea 17 14 3e
       -0.060095523 -0.14587851 0.041547474 0.14462247
0001a0 54 3e f7 bb f6 7b 43 be 54 11 bf bd c9 6c 4e bd
       -0.007545272 -0.19090256 -0.09329477 -0.050396714
0001b0 fe 50 3f bb 50 12 48 be e9 01 02 be c7 a5 34 3d
       -0.0029192562 -0.19538236 -0.12696041 0.04410341
0001c0 21 09 21 bd 79 1a af 3d 73 58 ca b9 cc 62 6b bd
       -0.039315347 0.08549971 -0.00038594342 -0.057467267
0001d0 e7 cc fb bd 4f 2a 14 bd de d9 56 bd 6a 7d ac 3c
       -0.122949414 -0.03617316 -0.052453868 0.021055896
0001e0 94 f4 42 3e 4d cc 5d 3d b1 9e 69 3e 83 67 03 be
       0.19038612 0.054149915 0.22814442 -0.12832455
0001f0 f1 df ee 3c db 95 b8 3c f5 02 d8 bc 2f 95 7f be
       0.029159518 0.022532394 -0.026368598 -0.24959253
000200 52 7d d5 3d b6 8e 22 ba 80 0a 0d 3e 32 c1 19 3e
       0.104242936 -0.0006201075 0.13773537 0.15015104
000210 76 aa f6 3c 05 6c 1f be 0d 8f d0 bd e9 f4 9a 3e
       0.030110579 -0.1556855 -0.10183535 0.30264977
000220 c2 d3 3e be c0 ab c7 3c 90 b0 57 3d 4a 11 56 bd
       -0.18635467 0.024373889 0.052658617 -0.052262582
000230 48 bf 35 3c 5c d2 b5 3d c5 54 9d 3d 4b ef 7d 3d
       0.011092968 0.088780135 0.07682184 0.061995786
000240 cd 37 87 be e6 f4 22 bd 42 e9 bf bc 78 cf 53 be
       -0.2640976 -0.039784335 -0.023426656 -0.20684612
000250 39 b9 52 bc 83 53 72 3d b4 cc ca bd 31 45 1e 3e
       -0.012861543 0.059161674 -0.09902325 0.15456082
000260 e7 af 16 3e 37 7e fb bd 21 d7 08 3e 30 8f 61 ba
       0.14715539 -0.12279933 0.13363315 -0.00086044054
000270 7c 06 ac 3d 01 3c a5 3c 65 da f6 3c c8 77 84 3b
       0.08399674 0.020170214 0.030133436 0.0040425994
000280 56 d7 6e 3e 0e 1c 8e 3d 70 6c 16 3e 4b dc 23 3e
       0.23324332 0.06938945 0.14689803 0.16002004
000290 b9 ef 49 be 71 54 78 3c 15 4d 02 3e 94 e4 e7 bc
       -0.19720353 0.015156851 0.12724717 -0.028307237
0002a0 2c 8d b2 bd 66 bd 58 be 85 f3 e3 3c 05 be a4 bd
       -0.08718333 -0.21166 0.02782608 -0.08044056
0002b0 b2 e2 81 bc 79 06 98 bd d8 25 9a 3c 5e 39 7a bc
       -0.015855167 -0.074231096 0.018816873 -0.0152724665
0002c0 76 d4 0f be c4 3f 3a 3e 37 b9 4a 3d 83 c3 d5 bd
       -0.14045891 0.18188387 0.04949304 -0.104376815
0002d0 93 aa 39 3e b9 02 56 be ff fd c6 bc a6 67 a9 3e
       0.18131475 -0.20899476 -0.024291037 0.3308689
0002e0 63 8c 67 3e 90 f4 a2 be 1f 4f f7 bd 5f d4 19 be
       0.22612147 -0.3182721 -0.12075638 -0.1502242
0002f0 a4 f4 bc 3c ac b5 e7 3d 17 a3 0c be b3 3c c4 bd
       0.023065872 0.11313948 -0.13734089 -0.0958189
000300 fd 31 b3 bc b5 98 04 bd f9 68 7c bd 68 a0 43 bd
       -0.021874422 -0.032372195 -0.061623547 -0.047760397
000310 b6 f7 00 be 0d 9f 1e 3e 5a 1c 09 bf 06 c2 36 3e
       -0.12594494 0.1549036 -0.53558886 0.17847452
000320 17 6f 25 3d 64 45 a9 3e 5f 83 52 3e e7 25 74 bd
       0.040389147 0.33060753 0.20557927 -0.05960646
000330 38 fc bf 3e 1a b7 08 bd 42 91 e5 bc 77 6c 90 bd
       0.37497115 -0.033377744 -0.028023366 -0.07051938
000340 68 4b ce bd 32 06 a9 bd 07 cb c2 bc 8f 03 44 3d
       -0.10072976 -0.08253135 -0.023778452 0.047854956
000350 c5 f6 b7 bd 37 43 f7 bd 18 4e fb 3c 4d 4b f4 3d
       -0.089826144 -0.12073367 0.030676886 0.11928425
000360 b4 13 b2 3d c9 c3 a3 3c 9e 0b b1 3c f7 68 44 be
       0.08695164 0.019990819 0.021611985 -0.19180666
000370 b1 5d 12 bd fd 2e 87 be 91 68 cf bd 24 ac 8e 3d
       -0.035733882 -0.26403037 -0.10127366 0.06966427
000380 5f 03 9c 3d 4a 54 7d 3e 06 cd 42 bd 2a c4 23 bd
       0.076178305 0.24739185 -0.047558807 -0.039982
000390 3c 0b 94 bd 29 1b 27 bd b7 86 2f bd dc 84 63 bd
       -0.07228705 -0.040797386 -0.042853083 -0.055546626
0003a0 2e 60 2a be 46 15 e7 bc 1b ce b0 3b 6e c3 23 be
       -0.16638252 -0.028208386 0.0053956634 -0.1599252
0003b0 ab 7b dd bb 09 97 56 3e f1 7d 8d 3b 67 b3 ee bd
       -0.006759127 0.20956053 0.004317992 -0.11655312
0003c0 a6 6a ce bd 3a 42 0d be 96 b9 53 bd d0 59 03 bd
       -0.10078935 -0.13794795 -0.05169066 -0.032068074
0003d0 4c 7f 13 be 70 61 5e 3e b4 96 3a be 00 73 3c be
       -0.14404029 0.21716857 -0.18221551 -0.18403244
0003e0 0e 4d a4 bd 25 c1 98 3e 27 43 0a 3e 57 76 f7 3c
       -0.080225095 0.29834858 0.13502179 0.030207796
0003f0 95 2f a6 3d f3 0b 07 3f a1 e8 a9 3c 59 ff 85 3e
       0.08114544 0.5275261 0.020740809 0.26171377

layers.2.0.weight f4 [10, 128]
000000 a0 bb ce 3b cb e3 93 bb d5 48 43 be 26 7e 21 3d
       0.0063089877 -0.004513239 -0.19070752 0.039426945
000010 fb 71 f7 bb 40 a5 0e be df 96 25 3b 8e 9e 92 3e
       -0.0075514293 -0.13930225 0.0025266928 0.28636593
000020 9d aa 97 bc bd d7 47 bd f3 2a a8 3b c0 8d c0 bb
       -0.018513972 -0.04878973 0.005132073 -0.005876273
000030 38 b5 28 bc a1 a8 aa bc 39 36 a1 bd 21 a3 de bb
       -0.010297112 -0.020832362 -0.0787167 -0.006794349
000040 98 00 0b bb fc 5c a6 ba 42 7e 78 bb 53 97 44 3c
       -0.002121007 -0.0012692506 -0.0037917052 0.011998969
000050 9a 4a 87 bc 75 3b 3d 3d 15 e6 ba 3b 1e e7 e2 bb
       -0.016515065 0.04619928 0.0057036974 -0.006924524
000060 06 a4 24 3d de 15 46 bd 25 29 fc 3b a1 2a 4a ba
       0.040195487 -0.048360698 0.0076953345 -0.00077120407
000070 5f a2 cf bb d4 f4 b0 b8 ba a7 41 3c ca dc c7 ba
       -0.006336495 -8.437937e-05 0.011819774 -0.0015248295
000080 5f 7a 19 3c 11 20 ee bb d2 e0 cd 3b 1c 5b 8f bb
       0.009367554 -0.007267006 0.006282904 -0.0043748748
000090 54 5d 38 3a 61 10 db ba 2b 54 80 bc f8 5c 95 3b
       0.000703295 -0.0016713255 -0.015665134 0.004558202
0000a0 0b 14 81 bc 50 6f 24 3c 38 99 61 bb 21 16 18 3b
       -0.015756628 0.010036305 -0.00344236 0.002320655
0000b0 5b c2 18 3e d5 3a cd bc 7f 0a 8e 3b 92 38 ad bc
       0.1491789 -0.025052467 0.0043347473 -0.021145139
0000c0 86 ca fb bb ea ea 06 3c 74 a2 ff 3b fc b0 bf ba
       -0.007684055 0.008234719 0.0078013483 -0.0014624889
0000d0 da 97 2a 3c e0 8b 45 3d 90 7d d1 bb c5 ed de 3c
       0.010412181 0.0482291 -0.006393142 0.027212987
0000e0 51 2c ca 3b f8 fa 7d 3c f3 06 4b bc 08 e2 a2 3d
       0.0061698337 0.01550173 -0.012391794 0.07953268
0000f0 d2 95 ff 3b bf 57 da 3a 51 f7 00 3b 8c 3c d6 bb
       0.0077998424 0.001665823 0.0019678662 -0.0065379795
000100 70 af ca bb 7b 11 74 3b d2 e9 44 3d d3 e7 48 bc
       -0.0061854646 0.0037241864 0.04807455 -0.012262302
000110 3a 0f ca 3a 79 4d 9d bb a6 8e 79 bb 2c b8 85 3c
       0.0015415915 -0.004800495 -0.003807941 0.016323172
000120 42 83 51 3c 9a 50 3c b9 d8 80 84 bc b7 02 f1 3b
       0.012787642 -0.00017959104 -0.016174719 0.00735506
000130 97 b4 15 3d cc 4a 20 bd 9c 2c da 3c 79 67 5c 3c
       0.036549177 -0.03913383 0.0266326 0.013452404
000140 fb b8 6b bb 65 d7 ac 3c 7e 68 a0 bc cc 2e 53 bb
       -0.0035968411 0.021098802 -0.019581076 -0.0032223938
000150 88 19 27 3d 34 cd 84 bc fe b5 9c 3d 74 65 0d 3d
       0.040795833 -0.01621113 0.076519 0.03452058
000160 e6 bd a3 bc 62 02 7b bc 0b f4 8f 3c b2 89 22 3c
       -0.019988012 -0.015320392 0.017572423 0.009920524
000170 6b 27 03 3c 12 b5 bc bb c4 44 6e bb 71 f6 a2 bb
       0.008005003 -0.00575889 -0.0036356905 -0.0049732258
000180 33 58 7e bc 63 33 06 bd c3 13 47 bd f1 92 d5 3e
       -0.015523958 -0.03276385 -0.04860283 0.4171367
000190 49 98 d6 bb a1 67 b8 3b 0e ad 47 bd 71 e0 8b bc
       -0.0065489155 0.005627588 -0.048749022 -0.017074795
0001a0 32 db 8c 3c f3 b8 8a 3c 24 f5 08 bc 2e 31 d9 bb
       0.017194364 0.016933894 -0.008359227 -0.006628177
0001b0 44 e4 a9 3c 76 47 89 3b 04 3a d8 3d 4a 34 81 bc
       0.020738728 0.004189427 0.105579406 -0.015772004
0001c0 d2 f9 f3 bc 87 e6 ef bb 9f 7f 03 bd 66 e3 83 3c
       -0.02978221 -0.007321182 -0.03210413 0.016099643
0001d0 65 c8 22 3c 52 1d 00 3b 6c 07 da 3c 51 30 0c 3c
       0.009935473 0.0019548726 0.026614867 0.008556441
0001e0 d5 5a 06 3c d8 b0 29 3d 1b 26 8a 3c 52 ae 05 ba
       0.008200367 0.041428417 0.016863873 -0.0005099523
0001f0 13 5e e1 bd 13 96 cb ba 49 6c 98 3b 33 a6 6f bb
       -0.11004271 -0.0015532397 0.0046515805 -0.0036567568
000200 08 ab 5d 3b 00 5e 9e 39 27 90 c4 3b 64 8d 4c 3c
       0.0033823866 0.00030206144 0.0059986296 0.012484882
000210 3c 93 d4 bb 90 f4 de 3b 16 83 89 3a 3a 24 85 bc
       -0.0064872783 0.0068040565 0.0010491337 -0.016252626
000220 c0 9b 44 bc 22 43 cf bb 04 ca 9f 3d ae c7 ae 3b
       -0.012000024 -0.0063251415 0.07802203 0.0053338623
000230 6d d3 7d bb 26 2e 5b 3a 3b 1a da 3b dd ca 3e be
       -0.0038730756 0.00083610637 0.006655959 -0.18632074
000240 ca 6c 79 ba ca 4e da bb f3 29 41 bb 23 c9 7e be
       -0.0009514807 -0.0066622244 -0.0029474467 -0.24881415
000250 6c bb 9e bc 50 cb 1d 3d c9 41 eb bb df 34 33 3e
       -0.01937648 0.038523972 -0.007179473 0.17500637
000260 f5 a1 63 3c df c7 e2 ba 88 7e ef bb 3a a3 21 3a
       0.013893594 -0.0017301998 -0.007308785 0.0006165985
000270 3d a7 8c 3c ee 9b 2b 3e f2 14 32 bc 4a 57 8a 3b
       0.01716959 0.16758701 -0.010869252 0.0042218314
000280 1e ec 51 bc 20 c8 dc b9 33 ff 38 bc f6 cc 0d bb
       -0.012812642 -0.00042110775 -0.011291313 -0.0021637059
000290 07 90 a4 ba f9 f7 08 3b 64 21 e3 bb d8 6b 3d 3c
       -0.001255513 0.0020899756 -0.0069314707 0.0115613565
0002a0 63 3c 50 3c 84 bd d2 3b f7 4d b2 bc 2f 59 60 ba
       0.01270971 0.0064312834 -0.021765692 -0.0008558211
0002b0 59 3e e7 3a 41 ab 9e bb 97 f9 49 be 33 05 de 3c
       0.0017642482 -0.0048421924 -0.19724117 0.027102089
0002c0 cd 1e 3b ba a9 79 2d 3a eb ac ee 3b e9 66 ac 3c
       -0.00071380736 0.0006617555 0.007283797 0.021045165
0002d0 8d bf 87 3b a3 e1 96 3c d3 a7 80 bc d8 23 bc 3c
       0.0041427077 0.018418139 -0.015705025 0.02296631
0002e0 8e d7 c2 bb 08 16 b6 3c cc 57 a4 bc 06 47 10 3b
       -0.0059461063 0.022227302 -0.020061396 0.002201499
0002f0 55 e6 fa bc d4 f4 14 3b 7a 68 8d bc 8f 5b 5a b9
       -0.030627409 0.0022728937 -0.017261732 -0.00020824208
000300 53 52 ed b8 6c 56 92 3b 3c c9 42 bd 43 62 d1 3c
       -0.00011316375 0.0044658687 -0.047555193 0.02555955
000310 3c 5b 07 bc 76 92 c6 3a b1 bb 47 bc 5a 89 be 3c
       -0.008261498 0.001514985 -0.012190745 0.023258854
000320 a9 0c 12 3c 6b c5 0e be 0c 5e c7 3a a7 73 c5 3b
       0.008914151 -0.13942496 0.0015210523 0.0060257497
000330 e7 b9 65 3c ea 03 87 bb 03 33 1c 3c b9 c0 1a 3c
       0.014021373 -0.0041203396 0.0095336465 0.009445363
000340 ac 72 dd 3b b8 3a 7d bc 3e 45 b2 ba f2 2a 8a bb
       0.0067580547 -0.015455894 -0.0013600958 -0.0042165453
000350 ea 39 80 bc e2 16 e5 bb e8 76 aa 3a e8 bf c3 bb
       -0.015652616 -0.0069912532 0.0013005408 -0.0059738047
000360 bb 35 f8 bb 52 a6 e5 3b 87 d0 00 be aa 03 38 3e
       -0.0075747645 0.0070083523 -0.12579547 0.17970148
000370 cd 2c 8a 3b f2 1b 40 3b 2d fb d7 3b 7c 98 08 3f
       0.0042167665 0.0029313532 0.006591222 0.5335767
000380 13 c4 00 bc 52 1b f3 bb 2e 8e 86 bc ab 45 c3 b9
       -0.007859248 -0.0074190283 -0.016425218 -0.00037245205
000390 43 45 0e bd 02 3d 23 3c 4d 53 23 bb 1e 19 0f ba
       -0.034734022 0.009963276 -0.0024921477 -0.000545876
0003a0 aa d7 e0 3e 75 24 ea bb 7c 60 76 ba 5d eb 4c 3d
       0.4391454 -0.0071454593 -0.00093985326 0.050029147
0003b0 49 bc c2 bb bb 83 ef b9 e3 9f 27 bc 5a 3d a8 3b
       -0.0059428555 -0.0004568378 -0.010230991 0.005134267
0003c0 12 5e 60 bc dd 9f 12 3c 3d 98 43 bc 15 2b fc bb
       -0.013694303 0.008949247 -0.011938152 -0.0076955655
0003d0 62 77 40 3b ff 89 0f 3b c3 4c 67 bc e6 e3 c6 bc
       0.0029368033 0.002190232 -0.0141174225 -0.024278592
0003e0 6f c1 65 3b 34 5c 85 bb 29 69 95 3d 17 c4 97 be
       0.0035057922 -0.0040698294 0.07295448 -0.29641792
0003f0 82 2a 43 bd b6 90 ef 3b 6a cc 0d bb e3 ad 53 be
       -0.04764796 0.007310952 -0.0021636733 -0.20671801
