cnn/ONN/seed3/network.pth (torch, 739599 bytes, 4 tensors)

layers_conv.0.0.weight f4 [32, 1, 5, 5]
-0.16672178 -0.09222659 -0.16032878 -0.050846115 0.16652018 0.09454808 -0.2012581 0.24389239
0.01838643 0.0010511806 0.00012411107 0.27495348 0.16681892 -0.11791274 -0.016843177 0.10240413
-0.033482242 -0.32226685 -0.060666632 -0.0024845793 0.26133865 -0.101293586 -0.04102104 -0.29130852
0.34681457 -0.01518896 0.00022263861 0.02240362 0.07830252 0.08476124 -0.0053839423 0.17180942
0.03566769 -0.20266809 0.0058854963 -0.036142066 0.022203147 -0.12989374 -0.1309928 0.1508825
-0.07819085 -0.07320241 -0.013099315 0.40767726 0.0118011255 -0.002284506 0.2189142 0.10152738
-0.38402426 -0.061507188 0.02888886 -0.03362968 0.008998775 -0.051884387 0.13318895 0.15507826
0.026648194 0.13020372 0.17567198 -0.20328632 0.09127085 0.17892021 -0.0616786 -0.10905206
-0.009720948 -0.09921682 -0.26402974 -0.19171323 -0.012007779 0.018265983 0.0012672399 0.0006182987
0.083194934 -0.009445265 -0.12593839 0.11779198 0.14078912 -0.30300823 0.06523168 0.1307139
0.006714611 0.1342409 -0.35438874 0.18181211 0.12574624 0.08165081 0.15402494 -0.07870731
0.20163468 -0.11912634 0.019026482 -0.23045526 -0.024752583 -0.11869772 0.088090286 0.16495611
-0.047146123 -0.00987169 0.047381148 0.016010908 0.040246267 0.09623205 -0.09716354 0.07036391
-0.008001795 0.17318907 0.0028313035 -0.07213574 -0.08878246 -0.0013259127 -0.10438548 -0.042318314
-0.31460997 0.18003088 0.094781265 -0.07962759 -0.1297059 0.20563303 0.3791732 -0.061487753
0.022953518 0.10080336 0.3221959 -0.2910185 -0.18855928 0.23725319 0.02986896 -0.06729143
0.1721547 0.055418104 0.09432058 -0.33832285 0.14376213 0.057241753 0.030396698 -0.05743147
-0.30033267 0.051907644 0.0693659 0.052730832 -0.06813617 -0.018600613 0.01458098 0.056768775
-0.057346288 -0.07962282 0.080710225 0.06276521 0.039472546 0.0033257958 -0.0292395 -0.033482336
-0.0956147 0.045040123 0.14422129 -0.044779744 -0.060575776 0.2768398 -0.0048432383 0.037699055
-0.22740829 0.2129068 -0.034205537 -0.23670334 0.10750154 0.00958571 0.03967912 -0.21377705
-0.042912852 0.031942427 -0.016625224 0.13820446 0.13629599 0.14349185 -0.039228104 0.09230489
-0.14252035 -0.043648005 0.03245639 -0.0036967904 -0.07816322 -0.14212604 0.07797981 -0.15292275
-0.081556365 -0.10592884 -0.13929431 0.14935388 -0.08643403 -0.04655532 -0.12917492 0.118376054
0.19059025 0.50916237 -0.14537615 -0.041291017 -0.10210993 -0.23019253 0.04082395 0.25633463
0.018100359 0.0381219 -0.00878779 -0.08807844 -0.1923006 0.14316083 0.08393565 0.20078424
0.16512811 0.056602277 -0.13403864 -0.17638278 -0.255074 -0.038980402 0.08971897 -0.25452474
-0.22991052 0.03537599 -0.09330147 0.030594856 0.1542924 0.14596732 0.08359759 0.0137154
-0.0002431986 0.04607238 -0.1382447 0.08997328 -0.162994 0.15255667 0.22535644 -0.05514368
-0.17424624 -0.07187824 0.1842322 0.14976276 -0.20082974 -0.11955764 0.14246681 -0.13198997
0.019373858 -0.1652623 -0.1373786 -0.081496574 0.09484051 0.15812634 -0.40791598 -0.09430105
0.1961204 0.06292717 -0.07056503 -0.008004363 0.043455917 -0.05612293 -0.071572006 -0.07844749
00000000: 1db9 2abe 4be1 bcbd 3a2d 24be 0444 50bd
00000010: 4484 2a3e 6ca2 c13d 9a16 4ebe edbe 793e
00000020: 239f 963c c5c7 893a d023 0239 b4c6 8c3e
00000030: 94d2 2a3e 3c7c f1bd b4fa 89bc 42b9 d13d
00000040: ad24 09bd 2900 a5be 937d 78bd 53d4 22bb
00000050: 2ece 853e 0373 cfbd ae05 28bd 6426 95be
00000060: ae91 b13e 1edb 78bc 1974 6939 cc87 b73c
00000070: 125d a03d 4d97 ad3d c86b b0bb cfee 2f3e
00000080: 4918 123d 3988 4fbe 1fdb c03b b409 14bd
00000090: 60e3 b53c dd02 05be fa22 06be f180 1a3e
000000a0: 8622 a0bd 25eb 95bd 829e 56bc 13bb d03e
000000b0: 8259 413c a7b7 15bb 0b2b 603e 96ed cf3d
000000c0: d49e c4be f6ee 7bbd 55a8 ec3c 46bf 09bd
000000d0: 996f 133c b984 54bd af62 083e d6cc 1e3e
000000e0: 504d da3c 2054 053e 5be3 333e 4a2a 50be
000000f0: 36ec ba3d dc36 373e b3a2 7cbd b056 dfbd
00000100: 9c44 1fbc 3032 cbbd e82e 87be 7950 44be
00000110: 47bc 44bc 8ba2 953c 8419 a63a 5315 223a
00000120: 1b62 aa3d 50c0 1abc fef5 00be ec3c f13d
00000130: 062b 103e e523 9bbe 3098 853d ddd9 053e
00000140: 3d06 dc3b 7276 093e 7172 b5be f42c 3a3e
00000150: 9fc3 003e 8a38 a73d b7b8 1d3e 4c31 a1bd
00000160: 5279 4e3e 83f8 f3bd 6ddd 9b3c 77fc 6bbe
00000170: eec5 cabc ca17 f3bd ae68 b43d 41ea 283e
00000180: 4b1c 41bd debc 21bc bc12 423d 4f29 833c
00000190: 45d9 243d 4f15 c53d aefd c6bd f41a 903d
000001a0: f619 03bc 7a58 313e 648d 393b e7bb 93bd
000001b0: 94d3 b5bd 3fca adba 0ec8 d5bd f855 2dbd
000001c0: 8f14 a1be 045a 383e ae1c c23d ca13 a3bd
000001d0: a0d1 04be 7791 523e fd22 c23e 95da 7bbd
000001e0: 0409 bc3c fe71 ce3d dcf6 a43e 6000 95be
000001f0: af15 41be 80f2 723e c0af f43c 17d0 89bd
00000200: 5249 303e 18fe 623d 262b c13d a738 adbe
00000210: 6136 133e 5476 6a3d 7f02 f93c 433d 6bbd
00000220: 34c5 99be 1c9d 543d b50f 8e3d 49fc 573d
00000230: fa8a 8bbd 5060 98bc 10e5 6e3c 6086 683d
00000240: f1e3 6abd 4a11 a3bd 674b a53d 0c8b 803d
00000250: f7ad 213d 98f5 593b ad87 efbc c624 09bd
00000260: a4d1 c3bd fe7b 383d bfae 133e f76a 37bd
00000270: 4e1e 78bd f2bd 8d3e 07b4 9ebb 536a 1a3d
00000280: b8dd 68be 3d04 5a3e 1b1b 0cbd 5c62 72be
00000290: c429 dc3d 620d 1d3c 9386 223d 5fe8 5abe
000002a0: 63c5 2fbd 10d6 023d 9f31 88bc 7885 0d3e
000002b0: 2d91 0b3e 87ef 123e a6ad 20bd 590a bd3d
000002c0: dbf0 11be 40c8 32bd fef0 043d da45 72bb
000002d0: 0a14 a0bd 7d89 11be e1b3 9f3d c897 1cbe
000002e0: 0607 a7bd 38f1 d8bd 2ba3 0ebe 39f0 183e
000002f0: 5304 b1bd cbb0 3ebd 6e46 04be 256f f23d
00000300: 172a 433e 7758 023f 7cdd 14be c520 29bd
00000310: 031f d1bd 97b7 6bbe 0437 273d 4b3e 833e
00000320: 3447 943c b625 1c3d aafa 0fbc 7862 b4bd
00000330: 73ea 44be c198 123e 74e6 ab3d 629a 4d3e
00000340: 5817 293e cad7 673d 6d41 09be b09d 34be
00000350: 0f99 82be eaa9 1fbd 94be b73d 1151 82be
00000360: aa6d 6bbe 6ae6 103d d714 bfbd 10a2 fa3c
00000370: d4fe 1d3e 7578 153e 3735 ab3d 8fb6 603c
00000380: 2103 7fb9 64b6 3c3d 0590 0dbe e943 b83d
00000390: e6e7 26be d137 1c3e d7c3 663e 57de 61bd
000003a0: 9b6d 32be e634 93bd 5ea7 3c3e 695b 193e
000003b0: 50a6 4dbe a3da f4bd d2e2 113e 6128 07be
000003c0: edb5 9e3c 853a 29be faac 0cbe ade7 a6bd
000003d0: be3b c23d dfeb 213e 5dda d0be e920 c1bd
000003e0: c9d3 483e f6df 803d 6684 90bd bb24 03bc
000003f0: d5fe 313d 28e1 65bd 5894 92bd 14a9 a0bd

layers_conv.1.0.weight f4 [64, 32, 5, 5]
0.18670158 0.0737479 0.021250326 0.2329617 -0.09374726 0.15820916 0.25968403 0.18169832
0.0060651945 -0.16760737 0.5071107 0.29435456 0.15660399 0.13493748 -0.18415608 0.10758138
0.08414443 -0.08871002 0.059336923 -0.03706642 -0.0076716724 0.26596728 -0.048829034 -0.019044789
0.1872826 0.18423185 -0.017873988 -0.13524811 -0.048523378 0.1124363 0.07264154 0.069682725
-0.022085203 0.052952882 -0.1237902 -0.17222622 0.17362799 0.0047437646 -0.050786767 -0.25939745
-0.16757865 0.13628161 -0.20792466 -0.040687136 0.0056987233 -0.18158942 0.08440796 -0.19921269
-0.25713417 0.020463647 0.05361567 -0.11349866 0.13888952 0.14507665 -0.00901054 -0.14803518
0.035870243 0.018694278 0.14191669 -0.007797959 0.015340204 0.13930336 0.0027027219 -0.103035875
-0.04178879 0.10765119 -0.02968866 -0.06901156 -0.11583996 0.07661931 -0.052849524 -0.06514696
-0.051135715 0.21438143 -0.11070458 0.10086552 -0.15950704 0.08850507 -0.0063031707 0.06825068
-0.13532911 -0.13423498 0.07785028 -0.13953668 -0.3019022 0.08073673 -0.011174522 0.12666042
-0.05799314 0.24101165 -0.06733604 -0.13485031 -0.025055282 0.15381245 0.16261728 -0.14794248
-0.013773206 -0.059504755 -0.033979315 0.13115765 0.16257611 0.013741843 0.005294646 0.19194987
0.3575745 0.17821407 0.16148968 0.47819406 0.20440502 0.045043867 0.12192977 0.048728414
-0.03332069 -0.16650352 -0.23678115 -0.040895827 -0.16007307 0.04150109 -0.19790255 -0.21042992
-0.015336337 0.025514944 -0.03510001 -0.31591076 0.025436506 -0.06923975 -0.17723583 -0.04118662
0.10214985 -0.23297721 0.004380722 -0.10761419 0.04800443 -0.15037838 -0.15886138 0.049895752
-0.21993856 -0.0052848607 -0.009627928 0.0063633644 0.07089063 -0.047261216 0.082865 -0.054235604
0.060296696 0.124910176 0.12176512 0.19388327 0.17104079 0.09211441 -0.1728616 -0.04808603
-0.042243812 -0.06405801 -0.07225547 0.00070956745 -0.046030752 0.16410123 -0.14691198 -0.13448606
-0.058230337 -0.040748872 -0.075108886 -0.1489629 -0.07161931 0.08455212 0.16308136 0.0063997423
-0.044810258 0.05334928 -0.18324701 -0.023663027 0.024988377 0.028449472 -0.0652157 -0.14595382
-0.0058653364 -0.055893056 -0.16993009 -0.13686733 -0.1411424 -0.21482705 -0.056754615 -0.15766442
-0.058266077 0.042410165 -0.102983624 0.018079236 -0.0066003436 0.09258847 0.13273725 -0.110746205
-0.070608675 0.07801194 0.22482727 -0.16975431 -0.135102 -0.24855945 -0.093784094 0.006861482
0.15752436 0.024150088 -0.024773903 0.12028668 0.02218694 0.087754205 0.054427024 0.29901925
0.046388358 -0.05194883 -0.00873969 0.031345308 0.12320786 0.020615514 -0.08002132 0.046731777
0.13271411 -0.018759174 -0.08783882 0.04692163 0.050150603 -0.07469145 0.08814633 0.02585145
0.14348607 -0.15172973 0.00010277856 -0.012895846 0.03446254 -0.0547649 -0.09775532 0.16501926
-0.11968681 -0.19216035 0.02440067 -0.13083796 -0.06848248 -0.08181291 0.12548357 0.15777889
-0.19154538 -0.09179112 0.11396968 0.28959695 0.10338834 -0.13760617 -0.19171979 0.09966648
0.023678422 0.034152634 -0.08575077 0.016706228 -0.12635607 -0.2066367 -0.026362406 0.027878286
00000000: b32e 3f3e 2409 973d 2a15 ae3c 838d 6e3e
00000010: 90fe bfbd 9501 223e 4ef5 843e 200f 3a3e
00000020: 8abe c63b 44a1 2bbe 02d2 013f a4b5 963e
00000030: cc5c 203e 0d2d 0a3e 6993 3cbe a053 dc3d
00000040: ea53 ac3d 99ad b5bd 460b 733d f5d2 17bd
00000050: a762 fbbb dd2c 883e f400 48bd d103 9cbc
00000060: 03c7 3f3e 46a7 3c3e 786c 92bc 7b7e 0abe
00000070: 73c0 46bd 0145 e63d 16c5 943d d1b5 8e3d
00000080: 07ec b4bc 1fe5 583d b785 fdbd 125c 30be
00000090: 89cb 313e 9571 9b3b c905 50bd becf 84be
000000a0: bd99 2bbe 688d 0b3e 34ea 54be 8ea7 26bd
000000b0: 5bbc ba3b 94f2 39be 15de ac3d 69fe 4bbe
000000c0: 17a7 83be 61a3 a73c 1b9c 5b3d fc71 e8bd
000000d0: 0e39 0e3e f98e 143e f2a0 13bc 8996 17be
000000e0: adec 123d be24 993c 9c52 113e 0586 ffbb
000000f0: 7b55 7b3c 8aa5 0e3e 2620 313b 7904 d3bd
00000100: b92a 2bbd 3a78 dc3d a235 f3bc ef55 8dbd
00000110: 803d edbd 96ea 9c3d be78 58bd c56b 85bd
00000120: af73 51bd ce86 5b3e 15b9 e2bd 9592 ce3d
00000130: d055 23be 2542 b53d d48a cebb 03c7 8b3d
00000140: b793 0abe e574 09be f86f 9f3d b4e2 0ebe
00000150: ed92 9abe 4c59 a53d 5815 37bc 45b3 013e
00000160: 378a 6dbd c2cb 763e 7ae7 89bd 3316 0abe
00000170: bc40 cdbc 0381 1d3e 2585 263e 3c7e 17be
00000180: 03a9 61bc 42bb 73bd e52d 0bbd 314e 063e
00000190: 5a7a 263e 7825 613c b67e ad3b 828e 443e
000001a0: 0114 b73e c07d 363e 8d5d 253e dad5 f43e
000001b0: 8d4f 513e eb7f 383d 51b6 f93d 7297 473d
000001c0: 477b 08bd e67f 2abe c276 72be 6282 27bd
000001d0: 32ea 23be 0cfd 293d f7a6 4abe f17a 57be
000001e0: 4245 7bbc b704 d13c 07c5 0fbd 0ebf a1be
000001f0: 3860 d03c 92cd 8dbd 4f7d 35be 4db3 28bd
00000200: f133 d13d 9491 6ebe 298c 8f3b d464 dcbd
00000210: 4ba0 443d cafc 19be 8fac 22be 7d5f 4c3d
00000220: 9337 61be a02c adbb 75be 1dbc c583 d03b
00000230: 1b2f 913d fa94 41bd 20b5 a93d 2726 5ebd
00000240: abf9 763d e8d0 ff3d fe5f f93d 5689 463e
00000250: 5125 2f3e 7ba6 bc3d a202 31be dbf5 44bd
00000260: d907 2dbd d930 83bd adfa 93bd 4402 3a3a
00000270: be8a 3cbd 270a 283e 1870 16be b7b6 09be
00000280: ef82 6ebd 4ae8 26bd b0d2 99bd bb89 18be
00000290: 25ad 92bd a929 ad3d cdfe 263e eeb4 d13b
000002a0: f68a 37bd c684 5a3d 1ba5 3bbe f7d8 c1bc
000002b0: 6db4 cc3c de0e e93c cf8f 85bd eb74 15be
000002c0: 0232 c0bb 1ef0 64bd 2702 2ebe f326 0cbe
000002d0: a287 10be 9ffb 5bbe 8777 68bd c872 21be
000002e0: 69a8 6ebd 48b6 2d3d 14e9 d2bd e81a 943c
000002f0: b247 d8bb 069f bd3d 46ec 073e e8ce e2bd
00000300: 489b 90bd b9c4 9f3d 1f39 663e 13d4 2dbe
00000310: 2e58 0abe 5e86 7ebe e011 c0bd 48d6 e03b
00000320: 114e 213e 68d6 c53c a4f2 cabc dd58 f63d
00000330: 63c1 b53c 7ab8 b33d dfee 5e3d 0d19 993e
00000340: b801 3e3d 4cc8 54bd eb30 0fbc f063 003d
00000350: 6754 fc3d dee1 a83c 38e2 a3bd d269 3f3d
00000360: 35e6 073e d7ac 99bc d7e4 b3bd e530 403d
00000370: b86a 4d3d d5f7 98bd 1086 b43d 6cc6 d33c
00000380: 03ee 123e 0a5f 1bbe d28a d738 1949 53bc
00000390: 9828 0d3d 2951 60bd f133 c8bd cffa 283e
000003a0: 5c1e f5bd afc5 44be eae3 c73c 63fa 05be
000003b0: 8b40 8cbd 878d a7bd c47e 003e ca90 213e
000003c0: 7924 44be fcfc bbbd f068 e93d 0d46 943e
000003d0: 44bd d33d a2e8 0cbe 3152 44be f11d cc3d
000003e0: 40f9 c13c a2e3 0b3d 1a9e afbd 80db 883c
000003f0: 7c63 01be 9298 53be f9f5 d7bc 0161 e43c

layers_fc.0.0.weight f4 [128, 1024]
0.007707982 0.039950944 -0.022108087 0.04061866 -0.039117437 -0.06665819 -0.026216356 0.07147938
-0.12702042 -0.09443391 -0.036699127 -0.012943322 -0.026734512 -0.08125792 0.047261987 -0.0013945618
-0.03242553 0.0510739 0.1690817 0.10997298 -0.03274491 -0.049743768 0.043201346 0.03544795
-0.052851185 -0.09402066 -0.06814622 -0.052648947 0.00405958 -0.017908676 0.037767097 -0.06300236
-0.076696634 -0.005179185 -0.04791066 -0.0026738604 0.019853627 0.09677207 0.075133145 0.0003242952
0.028830605 0.0196473 -0.019941563 -0.026636895 -0.001323489 0.030098224 -0.023851845 0.0016274957
-0.042518288 -0.027478008 0.01862066 -0.0728354 -0.007290861 0.01637789 0.051238 -0.016339535
0.0014226895 0.13428535 -0.0025745232 -0.04556688 -0.11059369 0.002676926 0.045371212 0.035417516
-0.03825557 0.11299366 0.06746689 0.07343417 0.08266864 0.08362812 0.056665413 0.018508788
-0.03216381 0.004177323 0.019527117 -0.053580087 0.027465768 -0.083883815 -0.07235782 0.03771526
0.10074073 0.0833126 -0.0010577738 -0.017236274 -0.007968566 0.024588972 0.012822897 -0.04641059
-0.013428494 0.049996335 -0.035233013 -0.075566664 0.004204194 -0.024376653 -0.027336597 0.046121985
-0.04810378 -0.0023341745 0.012080848 -0.07060011 0.060213163 0.08040649 0.07254899 0.03452623
0.012623082 0.0033733828 0.08466057 0.090679504 0.065994486 -0.011742513 -0.074862376 -0.05081284
0.022317195 -0.07090353 -0.019731293 -0.03509492 0.024297427 -0.0456741 -0.09607695 -0.065235026
0.05335253 -0.04152562 -0.02645695 0.012356786 0.026237205 -0.078214996 0.04264476 0.030169712
0.014805777 0.004913971 -0.068536356 -0.057564557 -0.09948356 -0.072584435 0.046575475 -0.013529313
0.049902454 0.009961848 0.033965148 0.029161375 -0.011290187 0.038711086 0.15664123 0.07016851
0.033957258 -0.0190362 0.006275364 -0.059655745 0.04258806 -0.016105104 0.014928494 0.025937516
0.07955393 -0.0024529905 0.08181226 0.15516897 0.07337954 0.069168106 0.08582369 0.017682986
-0.053026285 -0.021317324 -0.020779481 -0.005018903 0.009515493 -0.016292432 -0.05360905 -0.020002786
0.020556826 -0.027379302 0.012107974 0.058282237 0.030359287 -0.029658154 0.011737745 0.011448894
0.0026000482 0.0074969074 -0.001956878 -0.009898947 -0.049802415 -0.008513885 0.017925333 0.10378187
0.02301004 0.09872519 0.10216833 -0.02439691 0.019020902 0.1130704 0.028396709 -0.034937467
-0.04900403 -0.022587849 -0.025289048 -0.045091923 -0.0648564 -0.003457077 -0.008911427 0.0525975
0.104762375 -0.0011521301 -0.02803412 0.006657712 0.08226378 -0.07745287 -0.11968445 0.051096883
-0.007955011 0.007919999 0.056022935 0.037485305 -0.025106069 0.051866125 0.017700695 -0.08799952
0.04897709 0.040153686 -0.054964 -0.002183732 0.013702378 -0.03329343 -0.10552884 0.05179056
-0.064435594 0.036303807 -0.0277381 0.04775368 0.12457209 -0.03408067 0.04714823 -0.01191341
0.009318643 0.029039154 -0.102525756 -0.022475054 0.034970313 0.079636596 -0.07981568 0.009146574
-0.09000769 -0.011081503 0.02739593 0.02566861 -0.014989152 0.038959384 -0.036272753 -0.06058261
0.030470034 0.07081915 0.019123519 0.078161284 0.046685252 0.056269005 0.0154422615 0.056198098
00000000: 3d93 fc3b 9aa3 233d 051c b5bc c15f 263d
00000010: 9b39 20bd 1784 88bd afc3 d6bc c863 923d
00000020: a411 02be 9166 c1bd d351 16bd 3a10 54bc
00000030: 5602 dbbc 8d6a a6bd c995 413d bbc9 b6ba
00000040: a2d0 04bd de32 513d c123 2d3e 8439 e13d
00000050: 871f 06bd 1fc0 4bbd e5f3 303d df31 113d
00000060: 7c7a 58bd e78d c0bd 3f90 8bbd 6ca6 57bd
00000070: 3a06 853b 37b5 92bc acb1 1a3d 6207 81bd
00000080: 2013 9dbd 27b6 a9bb f83d 44bd ef3b 2fbb
00000090: 13a4 a23c 6f30 c63d 68df 993d 2a06 aa39
000000a0: 292e ec3c 60f3 a03c 7d5c a3bc 9e35 dabc
000000b0: ec78 adba 8d90 f63c f264 c3bc b251 d53a
000000c0: a827 2ebd 8f19 e1bc 5b8a 983c ba2a 95bd
000000d0: 2de8 eebb ed2a 863c f0de 513d 7dda 85bc
000000e0: 8a79 ba3a 1982 093e 55b9 28bb 56a4 3abd
000000f0: f27e e2bd 5e6f 2f3b 2ad7 393d f511 113d
00000100: dfb1 1cbd 3869 e73d 152c 8a3d a764 963d
00000110: 2d4e a93d 3845 ab3d fe19 683d be9f 973c
00000120: 33be 03bd ede1 883b 55f7 9f3c cb76 5bbd
00000130: e4ff e03c 47cb abbd 5630 94bd 517b 1a3d
00000140: 2851 ce3d cc9f aa3d 00a5 8aba 1633 8dbc
00000150: 978e 02bc d06e c93c 2117 523c 0819 3ebd
00000160: 3003 5cbc f5c8 4c3d 7e50 10bd b2c2 9abd
00000170: 56c3 893b 8cb1 c7bc 00f1 dfbc 68ea 3c3d
00000180: 7808 45bd f3f8 18bb c0ee 453c ca96 90bd
00000190: 14a2 763d 28ac a43d 9194 943d 606b 0d3d
000001a0: 0bd1 4e3c f913 5d3b 8562 ad3d 2db6 b93d
000001b0: 1e28 873d ab63 40bc 7251 99bd 2021 50bd
000001c0: 8dd2 b63c df35 91bd 85a3 a1bc b1bf 0fbd
000001d0: 660b c73c c414 3bbd fec3 c4bd f199 85bd
000001e0: 2f88 5a3d c516 2abd 3fbc d8bc 1e74 4a3c
000001f0: 68ef d63c 2f2f a0bd 46ac 2e3d 7926 f73c
00000200: ee93 723c 6005 a13b ca5c 8cbd d0c8 6bbd
00000210: 09be cbbd 26a7 94bd edc5 3e3d 0daa 5dbc
00000220: 8466 4c3d 0537 233c 0a1f 0b3d d6e3 ee3c
00000230: 7afa 38bc 848f 1e3d 8f66 203e 82b4 8f3d
00000240: c416 0b3d cef1 9bbc 92a1 cd3b 9559 74bd
00000250: d170 2e3d daee 83bc a496 743c ea7a d43c
00000260: 2ced a23d 5ac2 20bb 308d a73d 9de4 1e3e
00000270: 0348 963d 02a8 8d3d 55c4 af3d e9db 903c
00000280: 1732 59bd aba1 aebc bb39 aabc 9c75 a4bb
00000290: dfe6 1b3c b577 85bc 2a95 5bbd e2dc a3bc
000002a0: ca66 a83c 8f4a e0bc 8660 463c 5bb9 6e3d
000002b0: 0ab4 f83c a8f5 f2bc ac4f 403c 2494 3b3c
000002c0: 9265 2a3b 9ea8 f53b f73e 00bb 312f 22bc
000002d0: 9efd 4bbd d27d 0bbc 26d8 923c 978b d43d
000002e0: 8d7f bc3c 6f30 ca3d a13d d13d 07dc c7bc
000002f0: b9d1 9b3c 7491 e73d 37a0 e83c 971a 0fbd
00000300: 73b8 48bd 270a b9bc fa2a cfbc 4fb2 38bd
00000310: 6fd3 84bd 2190 62bb 3c01 12bc 7a70 573d
00000320: a88d d63d 1203 97ba d0a7 e5bc f028 da3b
00000330: ea79 a83d 9c9f 9ebd 1f1d f5bd f74a 513d
00000340: bc55 02bc e2c2 013c 4e78 653d 318a 193d
00000350: 3eab cdbc 9371 543d 0c01 913c 1839 b4bd
00000360: 339c 483d 3178 243d ee21 61bd f21c 0fbb
00000370: f07f 603c b15e 08bd 811f d8bd 5722 543d
00000380: cff6 83bd 4db3 143d 033b e3bc 5d99 433d
00000390: a71f ff3d 2c98 0bbd 811e 413d 7730 43bc
000003a0: 39ad 183c 85e3 ed3c 06f9 d1bd 9b1d b8bc
000003b0: 083d 0f3d 8318 a33d 6776 a3bd 83db 153c
000003c0: f455 b8bd 318f 35bc 6e6d e03c fa46 d23c
000003d0: 0f95 75bc e093 1f3d bd92 14bd 7925 78bd
000003e0: 4b9c f93c a109 913d eda8 9c3c 0613 a03d
000003f0: 0939 3f3d 547a 663d 8a01 7d3c fa2f 663d

layers_fc.1.0.weight f4 [10, 128]
-0.006919816 0.19536886 0.0031099673 -0.008547071 -0.001332517 -0.0005614061 0.0007732146 -0.05547736
-0.00015019579 0.011548779 -0.026701093 0.0022542058 0.0047117164 -0.0032993644 0.0044868854 -0.013833889
-0.0013805168 0.00031151684 0.0036304926 -0.005101512 0.025411226 0.0051253187 -0.09081659 0.0058769053
0.005802898 0.0043561086 -0.002106645 0.18156606 0.003297899 0.025988512 -0.008389039 -0.0043520764
-0.0043478888 0.05130446 0.0064752437 -0.0033033523 0.002192013 -0.092327304 -0.08036539 0.0037207813
0.12421161 -0.0030055328 -0.110276826 0.008921491 0.001326671 0.001942389 0.00020344212 0.004577167
-0.0009370304 -0.0021632104 0.0066441298 0.12023771 0.028230641 -0.01323552 -0.0038252596 0.008428589
-0.0017901034 -0.055407517 -0.00020425138 0.020652926 0.0077154366 -0.007345319 0.0009019621 0.0025977779
0.005141969 -0.07601091 -0.009621405 0.0034303532 -0.0035674656 0.0029616284 0.030985603 0.0026559113
-0.088374555 -0.0015345655 4.4134424e-05 0.0035740037 -0.002028371 -0.008367093 0.026654322 -0.012398488
0.01358478 0.0046335547 -0.002620591 0.0031782119 -0.009668971 0.0012651552 0.06294438 -0.0066506704
0.102818154 -0.108229846 0.0018317234 -0.020310998 0.0075846296 -0.0043659993 -0.008118998 0.0064005456
0.003927047 0.008649743 0.017034186 0.0005347733 -0.0009188061 0.102508314 0.0042853034 0.01213677
-0.012224158 0.0019746376 0.005645942 -0.051620346 0.0008607814 -0.0069224564 0.0047791908 -0.0037874517
0.021216754 -0.08385265 0.024579234 0.008980688 0.011586534 -0.0004525109 -0.05949198 -0.005101401
-0.0028793097 0.0060720146 0.002994468 0.0019051974 0.027626451 -0.0049482463 0.0064905416 -0.0012910586
0.008469705 0.0014038293 0.004833621 -0.04345831 -0.150171 0.029389312 -0.003166722 0.0004887089
0.08915391 -0.008437922 3.8319326e-05 0.0348168 0.00649316 -0.0043690465 0.00874109 0.0039316434
-0.1305861 0.0016217825 -0.0021561214 -0.0011399894 -0.00043720787 0.009178146 0.0029566344 0.006104206
0.0074707298 -0.0024688945 -0.13758662 -0.00093643944 0.0031999582 0.006234453 -0.0081028165 0.00024112656
0.087783135 -0.002930608 0.0007311157 -0.0034620275 -0.000502279 -0.0024030055 0.0019255712 0.0018393741
-0.0010021487 -0.0030515094 -0.0011745635 -0.0009971679 -0.00024371452 -0.001500264 0.008857895 0.0040818085
0.004962095 0.121145315 -0.0056822486 0.00280812 0.012700303 0.001326682 -0.0032035916 0.011130509
-0.01810359 0.00047989681 -0.13812287 -0.006772359 0.10063472 -0.016312398 -0.0010931947 0.009457916
-0.042050768 -0.0053175897 -0.000455459 -0.0001624342 0.018294519 0.0025329683 0.000114035945 0.009736028
0.001896347 0.0037495084 -0.0035823763 -0.0052089035 0.0044408385 0.00064385316 -0.005781596 0.07616678
0.031469174 0.064780444 -0.047847778 -0.0005811206 0.014303611 -0.004081015 0.003687097 -0.010602325
-0.0008381242 0.0021897557 0.016783481 0.0038053286 0.01840166 0.004038636 0.0031128488 -0.012212115
-0.11304619 -0.041891493 0.023635542 -0.0014327108 0.06464241 -0.0026077796 0.0044704005 0.0006219607
0.0045000333 0.0017634964 0.1506235 0.0015773101 0.0016650262 0.0071652387 -0.00046646377 0.0026097891
0.014102955 -0.00017583519 0.010278032 -0.0011747204 -0.0021450892 0.0023285726 0.0037161103 -0.0002760656
0.008420624 -0.0008303037 -0.09289983 0.0031950972 -0.0009929085 0.09480898 -0.22562726 -0.0025298556
00000000: a0bf e2bb c60e 483e 98d0 4b3b 0409 0cbc
00000010: daa7 aeba 532b 13ba 8eb1 4a3a 3a3c 63bd
00000020: e07d 1db9 1737 3d3c 40bc dabc 4cbb 133b
00000030: be64 9a3b 263a 58bb b906 933b 89a7 62bc
00000040: 75f2 b4ba 1553 a339 8fed 6d3b 962a a7bb
00000050: 342b d03c 4af2 a73b 0cfe b9bd 0e93 c03b
00000060: 3d26 be3b b0bd 8e3b a30f 0abb 74ec 393e
00000070: 9021 583b dce5 d43c 2e72 09bc dd9b 8ebb
00000080: bc78 8ebb a024 523d 482e d43b 0e7d 58bb
00000090: e0a7 0f3b 1916 bdbd 9c96 a4bd 5ad8 733b
000000a0: a862 fe3d 79f8 44bb d1d8 e1bd 722b 123c
000000b0: b1e3 ad3a c297 fe3a 1453 5539 0ffc 953b
000000c0: 0ca3 75ba a6c4 0dbb 00b7 d93b 303f f63d
000000d0: f243 e73c cbd9 58bc 35b1 7abb 1118 0a3c
000000e0: e7a1 eaba fef2 62bd 502c 56b9 5330 a93c
000000f0: c6d1 fc3b 00b1 f0bb a771 6c3a 7b3f 2a3b
00000100: f67d a83b 9cab 9bbd 19a3 1dbc c7cf 603b
00000110: 24cc 69bb e117 423b 85d5 fd3c cc0e 2e3b
00000120: b8fd b4bd 7923 c9ba fa1c 3938 d539 6a3b
00000130: 6bee 04bb 2216 09bc 2a5a da3c 0723 4bbc
00000140: b292 5e3c 13d5 973b 39be 2bbb 8c49 503b
00000150: 9b6a 1ebc 90d3 a53a fce8 803d deed d9bb
00000160: 5392 d23d 9ca7 ddbd 7016 f03a 4063 a6bc
00000170: 7c88 f83b a810 8fbb 8c05 05bc abbb d13b
00000180: 75ae 803b a7b7 0d3c 478b 8b3c 0730 0c3a
00000190: 09dc 70ba e1ef d13d bb6b 8c3b 4ed9 463c
000001a0: d647 48bc ec68 013b 9801 b93b db6f 53bd
000001b0: 10a6 613a c6d5 e2bb c29a 9c3b e536 78bb
000001c0: c2ce ad3c f0ba abbd 645a c93c bc23 133c
000001d0: 72d5 3d3c fc3e edb9 ddad 73bd a729 a7bb
000001e0: cdb2 3cbb c0f7 c63b d63e 443b d1b7 f93a
000001f0: de50 e23c e624 a2bb 9cae d43b bd38 a9ba
00000200: 84c4 0a3c b200 b83a 5a63 9e3b 5701 32bd
00000210: 6dc6 19be dbc1 f03c c788 4fbb b31c 003a
00000220: 5396 b63d 363f 0abc 10b9 2038 109c 0e3d
00000230: 93c4 d43b 382a 8fbb ca36 0f3c 04d5 803b
00000240: 5db8 05be fe91 d43a b74d 0dbb b26b 95ba
00000250: 0c39 e5b9 ef5f 163c 18c4 413b cb05 c83b
00000260: 06cd f43b 2dcd 21bb 82e3 0cbe 637b 75ba
00000270: 64b6 513b 624a cc3b adc1 04bc ebd6 7c39
00000280: a5c7 b33d 720f 40bb 58a8 3f3a 2fe3 62bb
00000290: 60ab 03ba be7b 1dbb 7363 fc3a 2717 f13a
000002a0: 885a 83ba d5fb 47bb d0f3 99ba 67b3 82ba
000002b0: 9e8d 7fb9 82a4 c4ba b420 113c b1c0 853b
000002c0: 1299 a23b 091b f83d 2832 babb 7008 383b
000002d0: ef14 503c 10e4 ad3a 59f3 51bb bd5c 363c
000002e0: fb4d 94bc a99a fb39 1570 0dbe aaea ddbb
000002f0: 9319 ce3d 94a1 85bc 8749 8fba 60f5 1a3c
00000300: 6d3d 2cbd 2d3f aebb acca eeb9 1953 2ab9
00000310: 63de 953c 2800 263b 9526 ef38 dc83 1f3c
00000320: d98e f83a 50ba 753b 4dc6 6abb 73af aabb
00000330: 7484 913b 41c8 283a 8b73 bdbb 54fd 9b3d
00000340: d2e5 003d 9cab 843d 08fc 43bd 5856 18ba
00000350: b159 6a3c 09ba 85bb 39a3 713b 60b5 2dbc
00000360: 90b5 5bba 0182 0f3b 837d 893c d262 793b
00000370: 14bf 963c 8956 843b f000 4c3b 5315 48bc
00000380: c384 e7bd 6a96 2bbd 539f c13c ccc9 bbba
00000390: 3d63 843d 48e7 2abb 707c 923b 130b 233a
000003a0: 0475 933b 1f25 e73a 0c3d 1a3e bfbd ce3a
000003b0: 023d da3a 61ca ea3b b58f f4b9 ff08 2b3b
000003c0: 1510 673c 6660 38b9 3165 283c 13f9 99ba
000003d0: a094 0cbb f79a 183b fc89 733b e6bc 90b9
000003e0: a8f6 093c bda8 59ba 4442 bebd d664 513b
000003f0: 7b24 82ba 362b c23d d50a 67be efcb 25bb
