cnn/ONN/seed1/network.pth (torch, 739599 bytes, 4 tensors)

layers_conv.0.0.weight f4 [32, 1, 5, 5]
0.18172006 -0.029773867 -0.08969906 0.15989497 -0.030505007 -0.005303508 -0.24787663 -0.017020239
0.34316447 -0.19621508 0.15744421 -0.17893092 -0.084925756 -0.018388048 -0.070832595 0.21127717
0.1875216 0.04965703 0.057730656 -0.067240514 -0.20317738 -0.04657026 -0.08417179 0.03838087
-0.0511376 0.21571468 -0.08552226 -0.05951364 -0.11147423 0.2089591 0.152674 0.10030772
-0.14596176 -0.2621097 0.05928014 -0.17299794 0.26824263 0.3848141 0.041139547 -0.15082541
-0.06383245 -0.214062 -0.06691346 0.1938076 -0.0134257125 -0.090953864 0.041656625 -0.06431197
-0.13463086 0.011573019 0.021846779 -0.05375713 0.10923048 -0.061136987 0.030897845 0.1628046
0.026034454 0.05484622 0.12538378 0.05419045 -0.06279667 -0.20399913 -0.08241209 0.05878909
0.002476632 0.30743763 -0.13812006 -0.09865345 -0.14718287 0.03241037 0.1862099 -0.119471215
-0.03281153 -0.035903893 0.048832126 0.08297189 0.15221931 0.013315563 0.027390415 -0.0059761168
-0.010547024 -0.094211854 -0.09427326 0.21824238 -0.00927924 0.13663614 -0.34134963 0.014370217
-0.09730399 0.09896243 0.02052379 -0.20781389 0.050558 0.01841896 -0.024306538 0.059418347
0.12323527 0.032678258 0.124594204 -0.026291871 0.07460961 -0.019458363 -0.13798508 0.09856553
-0.13726965 -0.003879445 -0.05643014 -0.057034194 0.038729288 0.044468146 -0.040741373 -0.10664487
0.08857508 -0.068423264 -0.08793851 -0.0051337387 -0.04487816 -0.10663477 -0.08363757 -0.0061866604
0.2535539 0.35071045 -0.029027632 0.20596474 -0.12735721 0.032111313 0.01750786 0.15301159
-0.01920492 0.0140059125 0.013505681 -0.0867852 0.15619427 0.09153975 0.075155064 0.062452722
-0.16359338 -0.15796418 -0.057239976 0.10261985 -0.24214385 0.06419309 0.116202235 -0.21966818
-0.13207652 0.04027065 0.12896997 -0.16020536 0.07644469 -0.07744545 -0.12263081 -0.17825118
0.07511877 -0.03589702 0.055545934 -0.12999325 -0.14177805 0.11623463 0.048056625 -0.028519295
0.28147864 0.037426867 0.051903162 -0.19291751 0.050756313 -0.08202202 0.1520346 0.053233694
-0.0027121494 -0.054456603 -0.066942826 -0.1526621 0.08668405 0.08377011 0.11358028 -0.0008007416
-0.09077497 0.012980397 0.118103825 -0.14108317 0.1725862 0.068965524 -0.0011885671 0.034899198
-0.22638522 -0.068731435 0.029960716 0.11825576 -0.11758768 -0.1039625 0.06426145 0.06971376
0.11299951 -0.29856786 0.07571627 -0.031694572 0.08771806 0.021572545 -0.12642658 0.078448616
-0.050358284 -0.012564311 0.072239 0.10769691 -0.25439107 0.13888438 -0.10393556 -0.03205967
-0.19474626 -0.10687154 0.02116048 -0.23783869 0.021612301 0.04724916 0.06095737 0.10356618
0.098662 0.024706177 -0.1084398 0.13145594 0.16502447 -0.020891266 0.04339421 0.022526894
0.038763665 0.073634796 -0.020359432 -0.043896656 0.0815364 -0.06821282 0.10802039 -0.1212063
-0.023534566 -0.14928038 -0.023933038 -0.01768792 -0.18622737 0.17399634 -0.039463703 0.08565392
0.03371129 0.034570344 -0.160622 0.013311942 0.12401829 0.15364712 -0.031216478 -0.23768586
0.11110805 0.18396634 0.111375384 -0.021855291 0.11432319 0.17942716 -0.15760852 0.07352766
00000000: d314 3a3e 53e8 f3bc 24b4 b7bd 82bb 233e
00000010: a3e5 f9bc 0dc9 adbb 5fd3 7dbe 076e 8bbc
00000020: 41b3 af3e 9bec 48be 0e39 213e ab39 37be
00000030: 8eed adbd 88a2 96bc ae10 91bd 0b59 583e
00000040: aa05 403e 2b65 4b3d fb76 6c3d 65b5 89bd
00000050: bb0d 50be 75c0 3ebd 4262 acbd 4235 1d3d
00000060: a975 51bd 4fe4 5c3e 4b26 afbd 93c4 73bd
00000070: 9a4c e4bd 60f9 553e 9356 1c3e 226e cd3d
00000080: 0077 15be 3e33 86be bbcf 723d 5f26 31be
00000090: 1957 893e 5b06 c53e f181 283d fa71 1abe
000000a0: 96ba 82bd 1233 5bbe ed09 89bd 8075 463e
000000b0: 85f7 5bbc 0546 babd 23a0 2a3d feb5 83bd
000000c0: acdc 09be c39c 3d3c 04f8 b23c 7030 5cbd
000000d0: 3bb4 df3d c76a 7abd 7a1d fd3c 40b6 263e
000000e0: 3546 d53c 6ea6 603d 9b64 003e cef6 5d3d
000000f0: 8a9b 80bd 26e5 50be abc7 a8bd d4cc 703d
00000100: fd4e 223b 7768 9d3e 586f 0dbe d20a cabd
00000110: 1bb7 16be bcc0 043d cfad 3e3e 53ad f4bd
00000120: 6265 06bd f60f 13bd 3204 483d 2bed a93d
00000130: 61df 1b3e 8529 5a3c dd61 e03c 4dd3 c3bb
00000140: 6dcd 2cbc 25f2 c0bd 5712 c1bd ee7a 5f3e
00000150: f407 18bc 58ea 0b3e 61c5 aebe 0f71 6b3c
00000160: 5047 c7bd d1ac ca3d 8221 a83c 2acd 54be
00000170: e815 4f3d 5ce3 963c 811e c7bc a760 733d
00000180: c662 fc3d a3d9 053d 3f2b ff3d 0d62 d7bc
00000190: eccc 983d 2567 9fbc f64b 0dbe b9dc c93d
000001a0: 6a90 0cbe 493e 7ebb 4a23 67bd b09c 69bd
000001b0: 9aa2 1e3d 3b24 363d 6de0 26bd a068 dabd
000001c0: da66 b53d 7f21 8cbd 1b19 b4bd ec38 a8bb
000001d0: 29d2 37bd 5563 dabd 2d4a abbd 78b9 cabb
000001e0: d1d1 813e 5290 b33e 5bcb edbc 6ce8 523e
000001f0: ee69 02be 2787 033d a56c 8f3c 12af 1c3e
00000200: a353 9dbc 0e79 653c ef46 5d3c 70bc b1bd
00000210: 64f1 1f3e 3179 bb3d e6ea 993d 6dce 7f3d
00000220: 0685 27be 5dc1 21be 7774 6abd 5b2a d23d
00000230: 8ff4 77be ab77 833d 70fb ed3d b2f0 60be
00000240: 113f 07be d6f2 243d b410 043e e00c 24be
00000250: 098f 9c3d b89b 9ebd dd25 fbbd 7a87 36be
00000260: dfd7 993d c108 13bd 2284 633d f31c 05be
00000270: 442e 11be 6c0c ee3d 06d7 443d 4ca1 e9bc
00000280: f81d 903e ea4c 193d 6998 543d 2b8c 45be
00000290: dae5 4f3d 29fb a7bd f5ae 1b3e 930b 5a3d
000002a0: 51be 31bb e30d 5fbd 5219 89bd 7453 1cbe
000002b0: 6887 b13d aa8f ab3d c79c e83d dce8 51ba
000002c0: 3ae8 b9bd bbab 543c 6be0 f13d 1b78 10be
000002d0: 70ba 303e cc3d 8d3d b2c9 9bba 76f2 0e3d
000002e0: 87d1 67be 11c3 8cbd 2d70 f53c 1330 f23d
000002f0: cfd1 f0bd 4bea d4bd 829b 833d 16c6 8e3d
00000300: 496c e73d e3dd 98be 2211 9b3d 2bd2 01bd
00000310: 87a5 b33d e8b8 b03c f875 01be aba9 a03d
00000320: 7d44 4ebd 8ada 4dbc 0af2 933d 3390 dc3d
00000330: 8c3f 82be b537 0e3e 2bdc d4bd 0051 03bd
00000340: 906b 47be 77df dabd be58 ad3c fc8b 73be
00000350: 480c b13c 5688 413d 6fae 793d 811a d43d
00000360: 4d0f ca3d 9c64 ca3c b015 debd 639c 063e
00000370: 2dfc 283e 2924 abbc 21be 313d 528a b83c
00000380: a6c6 1e3d d7cd 963d d3c8 a6bc fbcc 33bd
00000390: 8efc a63d 2ab3 8bbd cb39 dd3d 023b f8bd
000003a0: 90cb c0bc f5dc 18be 380f c4bc 42e6 90bc
000003b0: 63b2 3ebe 192c 323e b1a4 21bd 536b af3d
000003c0: da14 0a3d a299 0d3d 187a 24be 551a 5a3c
000003d0: 4dfd fd3d ac55 1d3e b3b9 ffbc ec63 73be
000003e0: 9e8c e33d ac61 3c3e c718 e43d de09 b3bc
000003f0: 4722 ea3d c1bb 373e 2164 21be ab95 963d

layers_conv.1.0.weight f4 [64, 32, 5, 5]
0.052220438 0.076255254 -0.09326787 0.06124918 0.053058416 0.13659188 -0.052483886 -0.055061575
-0.10779243 0.07905366 0.03131896 0.013626585 0.008842703 -0.036579236 0.04155816 -0.03214376
0.19942486 0.107272826 0.029672237 0.08147463 0.101926774 0.12424092 0.060256828 -0.08157814
0.11487322 -0.20576721 -0.12749851 -0.17745754 0.18162793 0.08598536 -0.0591109 -0.1667204
-0.13967441 0.08141294 0.27698117 0.023567915 -0.061357453 0.037299484 0.12543201 0.037532873
-0.07670094 -0.16085628 0.17057657 -0.062223606 0.0032571843 -0.19307145 -0.16139722 -0.020932812
-0.024884807 0.08455881 -0.006404952 -0.1285163 0.014113929 0.06849457 -0.01958281 -0.07632568
-0.100974575 0.22127764 -0.033602376 -0.020090766 0.0526727 0.06672412 0.11525782 0.18685865
-0.008877458 -0.059996307 0.24315806 0.16299656 0.21474098 -0.08807187 -0.2001882 0.015224557
0.10866789 -0.047498967 -0.029937416 0.03045148 -0.14162676 -0.123947576 -0.155983 -0.08270227
-0.09248691 0.03339498 0.06496984 0.006231617 0.12183478 0.08309922 -0.025773607 0.012128601
0.008545517 -0.033073723 0.16091847 -0.22698183 -0.04829919 0.02869159 -0.22042133 -0.018574601
-0.15511724 -0.3047567 0.01281044 -0.16440736 -0.025983868 -0.09664704 -0.00654257 0.13138807
0.24797586 -0.0033260463 -0.09791329 0.037874177 0.08024752 0.1885721 0.15004493 -0.004424709
0.06384988 0.07442976 -0.018921241 -0.076717466 0.02295126 0.10490522 0.057322748 -0.030672746
0.04922169 -0.11726726 -0.048052307 -0.016575394 0.27868253 0.08930331 0.0326755 0.062440682
-0.08350271 -0.09337893 0.00018610833 0.21497862 0.021954602 -0.0076704067 0.016636487 -0.17772089
-0.10047271 -0.06895037 0.02783351 0.02630833 -0.23229994 -0.22745849 0.24007663 0.09421307
0.0007313706 0.11994494 0.18078238 0.16953042 0.15895374 -0.06486921 -0.13644001 0.010921425
-0.024865549 -0.11987972 -0.026725516 0.1251461 -0.002257822 0.21480279 0.1275207 -0.09021174
0.032241616 0.04508143 -0.021886809 0.14821237 0.070653304 -0.15531884 0.07790101 0.14144048
-0.0025551196 0.10868795 -0.19588006 0.1951715 0.1571594 -0.015660321 -0.1314944 -0.12798862
-0.10119619 -0.177339 -0.07292624 0.07617859 0.09044459 0.045755126 0.14552608 -0.10523511
0.12908751 0.14907807 0.03857136 -0.13432819 0.06898471 0.03176458 -0.19137387 0.0019671777
0.040610094 0.033230096 0.063902974 -0.33404726 -0.095502056 -0.07946422 -0.12577 0.047050912
-0.020071918 -0.026001772 -0.1071449 -0.08535242 0.16410674 -0.12688187 0.22828852 -0.07633981
0.03272686 0.18471493 0.103944175 0.100336336 0.06645905 0.025593042 0.008910338 0.04514774
0.116377905 0.1302074 0.054359347 -0.0058560967 0.09209148 -0.10381909 0.3457884 0.06998349
0.10892477 -0.143334 -0.05253189 0.015461495 -0.09593212 0.2133943 -0.011233163 0.0065405904
0.046449155 -0.21767859 0.042154424 -0.14173084 -0.2302742 -0.081437804 -0.07489744 -0.068140894
-0.0060011237 0.012914542 -0.19988975 0.019588731 -0.11452812 -0.23624584 -0.19296098 -0.1528976
-0.081741735 0.13153921 -0.059364244 -0.03913839 0.061118316 -0.116854414 -0.046032928 0.08090157
00000000: 19e5 553d b72b 9c3d 3a03 bfbd 6ce0 7a3d
00000010: c853 593d bede 0b3e 58f9 56bd 3f88 61bd
00000020: 47c2 dcbd e3e6 a13d 4f48 003d 0a42 5f3c
00000030: fce0 103c 1cd4 15bd e438 2a3d 2da9 03bd
00000040: 0836 4c3e dbb1 db3d 3113 f33c 2cdc a63d
00000050: fcbe d03d 0672 fe3d ddcf 763d 7112 a7bd
00000060: a742 eb3d a4b4 52be f88e 02be 6eb7 35be
00000070: acfc 393e 1819 b03d 451e 72bd c1b8 2abe
00000080: cf06 0fbe d4bb a63d 7ad0 8d3e 8011 c13c
00000090: f451 7bbd 58c7 183d 4071 003e 12bc 193d
000000a0: 6215 9dbd 82b7 24be a0ab 2e3e 2ede 7ebd
000000b0: 7c76 553b 86b4 45be 5045 25be 4a7b abbc
000000c0: 39db cbbc 2b2d ad3d a2e0 d1bb c799 03be
000000d0: 1c3e 673c e246 8c3d 216c a0bc a350 9cbd
000000e0: c2cb cebd 9b96 623e a5a2 09bd 6495 a4bc
000000f0: 54bf 573d a8a6 883d 4b0c ec3d e057 3f3e
00000100: c272 11bc b0be 75bd 6dfe 783e 92e8 263e
00000110: 0fe5 5b3e 065f b4bd 23fe 4cbe 6c70 793c
00000120: 458d de3d 478e 42bd 503f f5bc 6275 f93c
00000130: 9b06 11be 3ad8 fdbd 02ba 1fbe cf5f a9bd
00000140: c769 bdbd 2dc9 083d e80e 853d 9832 cc3b
00000150: 8384 f93d ed2f aa3d 2c23 d3bc 0ab7 463c
00000160: 7f02 0c3c 5078 07bd d0c7 243e ed6d 68be
00000170: 5fd5 45bd a00a eb3c 21b6 61be c329 98bc
00000180: 0ed7 1ebe 1209 9cbe e1e2 513c 675a 28be
00000190: 1fdc d4bc e2ee c5bd 0e63 d6bb 988a 063e
000001a0: 62ed 7d3e ccf9 59bb c386 c8bd f421 1b3d
000001b0: d058 a43d 0b19 413e 61a5 193e 26fd 90bb
000001c0: bac3 823d a16e 983d b800 9bbc 0c1e 9dbd
000001d0: 4804 bc3c 8cd8 d63d 42cb 6a3d 6945 fbbc
000001e0: af9c 493d d129 f0bd 7fd2 44bd 1fc9 87bc
000001f0: 7aaf 8e3e a7e4 b63d bfd6 053d cdc1 7f3d
00000200: 7803 abbd 743d bfbd 1326 4339 5b23 5c3e
00000210: 23da b33c 0958 fbbb 3e49 883c 77fc 35be
00000220: a3c4 cdbd da35 8dbd 1a03 e43c 9184 d73c
00000230: 09e0 6dbe e1ea 68be a6d6 753e c8f2 c03d
00000240: 73b9 3f3a b1a5 f53d 041f 393e 6299 2d3e
00000250: c5c4 223e 26da 84bd eeb6 0bbe c7ef 323c
00000260: d6b2 cbbc 8083 f5bd 78ef dabc 4d26 003e
00000270: f8f7 13bb 43f5 5b3e c994 023e efc0 b8bd
00000280: c90f 043d 4ea7 383d f74b b3bc fcc4 173e
00000290: aeb2 903d e70b 1fbe 918a 9f3d c6d5 103e
000002a0: cb73 27bb ca97 de3d c894 48be 0adb 473e
000002b0: 65ee 203e 134a 80bc 78a6 06be 730f 03be
000002c0: f33f cfbd 5b98 35be 5a5a 95bd 8503 9c3d
000002d0: 033b b93d ba69 3b3d ca04 153e 8185 d7bd
000002e0: 842f 043e eca7 183e 01fd 1d3d 548d 09be
000002f0: db47 8d3d 941b 023d 83f7 43be c4eb 003b
00000300: c556 263d 481c 083d 90df 823d 3e08 abbe
00000310: 9596 c3bd 23be a2bd dac9 00be 75b8 403d
00000320: dd6d a4bc ab01 d5bc c96e dbbd 40cd aebd
00000330: 990b 283e 52ed 01be 77c4 693e 0c58 9cbd
00000340: 9a0c 063d e925 3d3e afe0 d43d 237d cd3d
00000350: af1b 883d 80a8 d13c abfc 113c d6ec 383d
00000360: 8a57 ee3d 1755 053e e8a7 5e3d 80e4 bfbb
00000370: 759a bc3d 1a9f d4bd 2d0b b13e 8153 8f3d
00000380: f313 df3d 26c6 12be ae2b 57bd 3652 7d3c
00000390: 0f78 c4bd 0984 5a3e 4d0b 38bc 7352 d63b
000003a0: 7841 3e3d 23e7 5ebe 1eaa 2c3d e421 11be
000003b0: 00cd 6bbe ddc8 a6bd d463 99bd 748d 8bbd
000003c0: 13a5 c4bb 8497 533c e6af 4cbe 8c78 a03c
000003d0: b88d eabd 6eea 71be 9097 45be 3091 1cbe
000003e0: 3668 a7bd 37b2 063e ec27 73bd 944f 20bd
000003f0: 3357 7a3d 5e51 efbd 068d 3cbd b9af a53d

layers_fc.0.0.weight f4 [128, 1024]
-0.022385867 -0.08383679 -0.080049224 0.033321932 0.016274512 -0.020345515 -0.005440525 -0.04277617
-0.044092067 0.00056407193 -0.04405896 -0.024963183 -0.10731954 -0.040328074 0.019138386 0.014539902
-0.04435363 -0.055788506 0.04685618 0.096352376 -0.11580478 0.024221124 -0.058163725 -0.029784335
-0.029364653 0.025008313 0.0023218275 -0.044462956 0.08060177 0.09254769 0.0042885533 -0.030061983
0.1567627 -0.01700702 -0.031063797 -0.06825179 0.099474125 -0.008429743 0.07380463 0.03458194
0.051778555 -0.0040326198 0.018587228 0.04646327 0.02272546 0.024248216 0.020968795 -0.018299367
0.0072554154 -0.04850331 -0.05544013 -0.0071969717 -0.011125815 0.0015541425 -0.013120923 0.07199151
0.017898636 -0.034127433 -0.02652728 -0.0156814 0.017847342 0.0046586925 -0.01048032 -0.008036449
-0.049577486 -0.043885466 -0.03570547 0.003397586 -0.02852908 -0.0487444 -0.028687183 0.0029923841
-0.016369736 -0.027297817 0.026186185 0.030426411 -0.012582373 0.10743522 0.014762649 0.060716864
0.13143952 0.03680623 -0.021674193 -0.055355616 0.04514471 -0.018806996 0.00868001 -0.07525402
0.05455293 0.041557983 0.06254595 -0.02995817 0.005649344 0.08925756 -0.018425744 -0.012585699
-0.12426396 -0.0013321385 0.099117346 0.17237197 -0.0047931536 -0.008878028 -0.04343053 -0.016190117
-0.0432528 0.012120707 -0.0013226008 -0.098299876 -0.00111605 0.021749567 0.049034983 0.008667802
-0.012910595 0.03700594 0.08560113 0.04739311 0.018059803 -0.032050457 0.024031065 0.11459446
-0.07348737 0.0617792 0.100691654 0.04787838 0.0013358126 -0.013470758 -0.043554533 0.00802094
-0.018237036 -0.021272602 0.088753715 0.10380768 -0.016363151 -0.03294479 -0.069790706 -0.07983374
0.022704137 0.10022016 0.005061183 0.042276826 -0.04726344 0.0018052994 0.030918462 -0.07113561
-0.08381308 -0.02678022 -0.0043087634 0.0576205 -0.10497227 -0.10664539 0.050841287 -0.0630676
0.050664067 -0.039737232 -0.016460411 0.009411859 -0.04156273 0.014467575 0.010890858 -0.047422603
0.08155218 -0.02673576 0.08068026 0.035514776 0.0101484815 -0.11506319 -0.06270205 -0.037888825
-0.0054990626 -0.0077460175 -0.00033024853 -0.03147038 0.017107055 -0.019086335 -0.02670442 0.008885519
0.029899003 0.049810294 -0.028408397 -0.10300101 0.00043646726 0.07922499 0.003751053 0.11132911
-0.08611741 0.01030046 -0.073218346 -0.023881713 -0.004044257 0.02040581 0.018886054 -0.005868366
-0.032739207 -0.05587557 -0.0021367688 0.013946654 0.0076988037 -0.016125858 0.005957242 -0.026691418
-0.03972321 0.01708695 -0.017879227 -0.058888372 -0.0061393254 -0.017244544 0.079641804 0.09377821
-0.019983776 0.023820065 0.06649217 0.022662856 -0.06005325 -0.005919148 0.026090747 0.04326315
0.037686884 0.064257726 -0.07936637 -0.050811063 -0.069079414 0.052142173 0.027641287 0.0011099892
-0.06152451 -0.014073675 -0.08323341 -0.040441185 0.03717144 -0.04227717 -0.022243993 -0.0016543434
0.009770062 -0.024386654 -0.0095731765 -0.042672034 0.041486934 0.054694396 -0.035391252 -0.082759336
0.0011627948 -0.026684666 -0.056514006 0.089609884 -0.10249063 -0.046577316 -0.019614592 -0.029102951
-0.0034085584 0.020307522 -0.002602511 0.002454408 -0.094785914 0.03794418 0.0329997 0.118398696
00000000: 9162 b7bc 9fb2 abbd d9f0 a3bd 947c 083d
00000010: 2052 853c a3ab a6bc 6e46 b2bb 1136 2fbd
00000020: e299 34bd 3ade 133a 2b77 34bd 977f ccbc
00000030: 59ca dbbd 0d2f 25bd 1bc8 9c3c c538 6e3c
00000040: 27ac 35bd 7d82 64bd 44ec 3f3d 6554 c53d
00000050: 0e2b edbd 616b c63c 163d 6ebd 47fe f3bc
00000060: 248e f0bc 3cde cc3c cd29 183b ca1e 36bd
00000070: 8a12 a53d a589 bd3d fe86 8c3b 8c44 f6bc
00000080: 6786 203e 4e52 8bbc 8179 febc 98c7 8bbd
00000090: 17b9 cb3d e81c 0abc e226 973d cba5 0d3d
000000a0: c015 543d 1124 84bb 3e44 983c 4550 3e3d
000000b0: be2a ba3c 32a4 c63c c0c6 ab3c 8ee8 95bc
000000c0: d6be ed3b 68ab 46bd 3115 63bd 93d4 ebbb
000000d0: 0d49 36bc 5eb4 cb3a 24f9 56bc 4970 933d
000000e0: 29a0 923c 35c9 0bbd bd4f d9bc 4876 80bc
000000f0: 9734 923c f2a7 983b a6b5 2bbc 4fab 03bc
00000100: c311 4bbd 3fc1 33bd e63f 12bd 09aa 5e3b
00000110: d1b5 e9bc 35a8 47bd 6201 ebbc e01b 443b
00000120: d319 86bc ac9f dfbc 6984 d63c cf40 f93c
00000130: 4c26 4ebc ff06 dc3d 0adf 713c 3fb2 783d
00000140: 1598 063e 21c2 163d 148e b1bc 92bc 62bd
00000150: a9e9 383d 2111 9abc 9a36 0e3c c81e 9abd
00000160: e572 5f3d b438 2a3d 1718 803d d66a f5bc
00000170: 221e b93b abcc b63d 96f1 96bc 3f34 4ebc
00000180: 1a7e febd 279b aeba 09fe ca3d 4782 303e
00000190: e30f 9dbb 2675 11bc 36e4 31bd 23a1 84bc
000001a0: d929 31bd ee95 463c 1e5b adba 7251 c9bd
000001b0: 6d48 92ba 262c b23c e8d8 483d 6603 0e3c
000001c0: f686 53bc 8a93 173d a54f af3d 471f 423d
000001d0: 27f2 933c 5747 03bd ccdc c43c 80b0 ea3d
000001e0: 8c80 96bd 300c 7d3d 6d37 ce3d 1f1c 443d
000001f0: 6f16 af3a 74b4 5cbc 3d66 32bd 436a 033c
00000200: d665 95bc e143 aebc 82c4 b53d 1f99 d43d
00000210: 040c 86bc 1ef1 06bd 6eee 8ebd df7f a3bd
00000220: 07fe b93c 3a40 cd3d 48d8 a53b 772a 2d3d
00000230: 4f97 41bd cc9f ec3a b748 fd3c 8caf 91bd
00000240: 31a6 abbd 3162 dbbc 8730 8dbb 7903 6c3d
00000250: b4fb d6bd e668 dabd f43e 503d 9629 81bd
00000260: 2085 4f3d 82c3 22bd fcd7 86bc 3334 1a3c
00000270: ae3d 2abd 6809 6d3c 926f 323c 343e 42bd
00000280: d404 a73d f404 dbbc b13b a53d f177 113d
00000290: d145 263c 40a6 ebbd ef69 80bd 5031 1bbd
000002a0: 7b31 b4bb 4ed2 fdbb 3525 adb9 16e7 00bd
000002b0: 1824 8c3c f25a 9cbc 3ac3 dabc 9194 113c
000002c0: c1ee f43c e105 4c3d bab8 e8bc 32f2 d2bd
000002d0: a5d5 e439 b640 a23d 3ad4 753b 8400 e43d
000002e0: 535e b0bd 43c3 283c 80f3 95bd 95a3 c3bc
000002f0: b085 84bb 162a a73c edb6 9a3c 6c4b c0bb
00000300: 8c19 06bd c8dd 64bd 0809 0cbb 8280 643c
00000310: 3f46 fc3b 601a 84bc f834 c33b f6a7 dabc
00000320: ceb4 22bd eef9 8b3c 7577 92bc ef34 71bd
00000330: 652c c9bb 6e44 8dbc 3e1b a33d ca0e c03d
00000340: 04b5 a3bc 4c22 c33c 0c2d 883d 74a7 b93c
00000350: 66fa 75bd 6af5 c1bb 43bc d53c b334 313d
00000360: 905d 1a3d 8e99 833d d68a a2bd 431f 50bd
00000370: 8279 8dbd 0893 553d fb6f e23c 0f7d 913a
00000380: 2001 7cbd 4595 66bc 4776 aabd a8a5 25bd
00000390: 1441 183d d32a 2dbd 0939 b6bc 8ed6 d8ba
000003a0: 9c12 203c 85c6 c7bc d0d8 1cbc dfc8 2ebd
000003b0: 34ee 293d 3b07 603d 6bf6 10bd ba7d a9bd
000003c0: eb68 983a cd99 dabc 3b7b 67bd 6385 b73d
000003d0: 9be6 d1bd dbc7 3ebd c8ae a0bc 5069 eebc
000003e0: 1f62 5fbb f65b a63c e48e 2abb 22da 203b
000003f0: 1e1f c2bd 5b6b 1b3d b22a 073d 047b f23d

layers_fc.1.0.weight f4 [10, 128]
-0.035038628 0.0023546452 -0.0037278964 0.003340145 -0.017409435 0.026125409 0.0032502683 0.1624014
-0.00410051 0.07740842 -0.00015922284 -0.0034286934 0.006438029 0.10289054 -0.00027428527 0.0007292541
-7.808489e-05 -0.058858775 0.0070524067 0.033102386 0.0014914286 -0.00014341569 0.06495511 -0.0024209311
0.00039750684 -0.00022404685 -0.001748913 0.00228409 -0.0043566455 -0.0019136576 -0.005897265 0.014709405
-0.0058962074 0.0003100862 -0.0004808263 0.0033844875 -0.00021246081 -0.0014980743 0.0043802205 0.00071032875
0.0033787503 0.001003291 -0.0011246263 0.018592574 0.003049282 -0.0003896192 0.014051559 -0.0007375994
0.0010557594 0.005621453 0.012748622 -0.008029167 -0.00067447557 -0.000103422324 -0.0038763268 -0.0036675513
0.09018416 0.0019637523 -0.004864149 0.0010375825 -0.0007290623 0.00041971216 0.0020346711 -0.006290307
0.00030098992 0.0019267552 -0.0031843465 0.00957994 0.0018069403 -0.0021738042 0.014115866 -0.0012575097
-0.009261461 -0.056403205 0.06854118 -0.0006906741 0.0037282207 0.0035619535 -0.000722347 0.00061606243
0.001098063 -0.0012122013 -0.08399698 -0.019332562 0.0030135564 0.026171824 0.004586237 -0.0005127158
0.00083169463 0.0004154168 -0.001493553 -0.00065552274 -0.08099988 -0.009479605 -0.0031156775 -0.0016127093
0.009115683 -0.019636542 0.004570461 -0.04658408 0.061573047 0.005224405 0.001067259 0.00532753
0.005423198 0.00057978457 -0.0069854595 0.06989362 0.0028836385 0.0017776574 -0.015808795 -0.026916908
-0.0012601452 0.0019977973 0.0024679808 -0.069438346 -0.011033043 -0.008497255 -0.047243174 0.0079397075
0.002147654 5.597976e-07 0.01719905 -0.00841418 -0.0065318015 0.0002898998 -0.0016434531 0.0024213681
-0.0005651086 -0.072860114 -0.0043010386 0.014225646 -0.0023623882 -0.0011067817 0.00025917214 0.00049027835
0.039866213 0.00027857767 -0.0027521981 -0.0029984221 0.0029922514 0.0025477733 -0.0010885422 0.00026716798
-0.0011367956 -0.00016573179 -0.0059341635 0.003453267 0.00047559253 0.0012267097 -0.010715191 0.0010789183
-0.17159356 0.002800788 -0.000668482 -0.01108358 -0.001344225 -0.0011773293 0.006456535 0.0072753355
-0.004106929 0.0009003378 -0.0021937608 0.0005977943 -8.5899796e-05 0.0023735703 -0.004704357 -0.11350389
0.0014795637 0.07032483 0.0014004357 0.0024412666 -0.0016344999 -0.00022541723 0.004108714 0.002282115
-0.005117844 0.003363798 1.884408e-05 0.00078156154 -0.0034761964 0.001624424 0.00188877 -0.0010089675
-0.00029804604 0.07767799 0.0021753632 0.00118855 -0.1359081 0.0004792035 -0.008968887 0.0029034202
0.00027717545 0.00057220715 -0.0040648393 0.00054156635 0.0003054197 0.0011238779 0.007898396 0.0078731375
-0.0026819694 -0.0014465842 -0.0006218229 -0.00044590107 -0.0083138645 0.05700604 -0.0036581925 -0.0021414822
0.0033704448 -0.0011291672 0.0040709823 0.0047832825 0.00018186941 -0.047385007 0.004986682 -0.005983241
0.0041662036 0.07734998 0.001491695 -0.0008220651 0.0022604906 -0.017725479 0.069912486 0.048488118
-0.00095130375 0.004612168 0.00022548807 -0.0004821852 -0.0025590542 0.001695504 -0.06362925 0.0034052187
0.0055881375 -0.00029316044 0.0019918142 0.0012842224 0.0015195695 -0.0008846005 -0.008619784 -0.011184842
0.07380081 0.0030754062 0.0040410906 0.0022087817 0.0022402005 -0.005497412 0.002055453 -0.005202279
0.002227853 -0.0019628438 0.0045273704 0.0029703053 0.0024091904 0.0005561646 0.0032320847 -0.061879683
00000000: aa84 0fbd 6450 1a3b b94f 74bb 56e6 5a3b
00000010: 3b9e 8ebc f404 d63c 7402 553b 8d4c 263e
00000020: 925d 86bb 4e88 9e3d 0ef5 26b9 eeb3 60bb
00000030: 1af6 d23b 47b8 d23d f2cd 8fb9 6a2b 3f3a
00000040: 82c1 a3b8 e615 71bd e017 e73b 5e96 073d
00000050: 0a7c c33a db61 16b9 2f07 853d 7ca8 1ebb
00000060: 7768 d039 1eee 6ab9 c83b e5ba acb0 153b
00000070: 31c2 8ebb b2d3 faba d83d c1bb b7ff 703c
00000080: f934 c1bb 1193 a239 6a17 fcb9 47ce 5d3b
00000090: 04c8 5eb9 085b c4ba f487 8f3b 5b35 3a3a
000000a0: 066e 5d3b dc80 833a 3268 93ba 744f 983c
000000b0: 76d6 473b ce45 ccb9 8338 663c 755b 41ba
000000c0: 6861 8a3a 2a34 b83b 99df 503c c48c 03bc
000000d0: 4acf 30ba 70e4 d8b8 f909 7ebb 4d5b 70bb
000000e0: 79b2 b83d 4cb2 003b 7063 9fbb 7eff 873a
000000f0: 8b1e 3fba d00c dc39 1e58 053b eb1e cebb
00000100: 2fce 9d39 2d8b fc3a 78b0 50bb 2ef5 1c3c
00000110: dbd6 ec3a 6276 0ebb 3c46 673c 06d3 a4ba
00000120: 62bd 17bc 0c07 67bd 515f 8c3d 5b0e 35ba
00000130: 2a55 743b aa6f 693b e35b 3dba 407f 213a
00000140: e1ec 8f3a bae2 9eba 9c06 acbd 525f 9ebc
00000150: 167f 453b 4b66 d63c 2548 963b c667 06ba
00000160: 1506 5a3a 4dcc d939 53c3 c3ba 63d7 2bba
00000170: 44e3 a5bd 5850 1bbc 6530 4cbb 8b61 d3ba
00000180: f259 153c d0dc a0bc cec3 953b f3ce 3ebd
00000190: 0534 7c3d 7c31 ab3b 45e3 8b3a 9092 ae3b
000001a0: 15b5 b13b affc 173a 48e6 e4bb 6324 8f3d
000001b0: 6dfb 3c3b 4900 e93a 7281 81bc d980 dcbc
000001c0: 752b a5ba 7aed 023b d9bd 213b b135 8ebd
000001d0: f0c3 34bc 1238 0bbc 0f82 41bd 8c15 023c
000001e0: a8bf 0c3b 0045 1635 06e5 8c3c a1db 09bc
000001f0: b908 d6bb b1fd 9739 2369 d7ba d1af 1e3b
00000200: cc23 14ba af37 95bd baef 8cbb af12 693c
00000210: 4cd2 1abb 6e11 91ba 7fe1 8739 0686 003a
00000220: c14a 233d 100e 9239 395e 34bb 2d81 44bb
00000230: a619 443b 8bf8 263b 6aad 8eba ae12 8c39
00000240: 8800 95ba 4ac8 2db9 5f73 c2bb 3550 623b
00000250: f358 f939 8cc9 a03a c58e 2fbc 7e6a 8d3a
00000260: 39b6 2fbe 6d8d 373b 113d 2fba e797 35bc
00000270: b530 b0ba 9e50 9aba 5791 d33b f065 ee3b
00000280: 6b93 86bb a604 6c3a 33c5 0fbb 4cb5 1c3a
00000290: 1a25 b4b8 e78d 1b3b 0227 9abb ba74 e8bd
000002a0: ebed c13a 7706 903d d38e b73a a8fd 1f3b
000002b0: b73c d6ba fa5d 6cb9 64a2 863b 898f 153b
000002c0: 96b3 a7bb 2a73 5c3b 5b13 9e37 b5e1 4c3a
000002d0: e6d0 63bb a0ea d43a 9b90 f73a 553f 84ba
000002e0: 1043 9cb9 a315 9f3d 8a90 0e3b 1fc9 9b3a
000002f0: 7e2b 0bbe 9b3d fb39 3df2 12bc 4f47 3e3b
00000300: dc51 9139 2c00 163a 5832 85bb e7f7 0d3a
00000310: bd20 a039 164f 933a 4668 013c 55fe 003c
00000320: fbc3 2fbb 509b bdba d401 23ba d4c7 e9b9
00000330: e036 08bc 2a7f 693d 49be 6fbb 1c58 0cbb
00000340: aee2 5c3b 9000 94ba e065 853b 15bd 9c3b
00000350: 33b4 3e39 c816 42bd 5267 a33b 100f c4bb
00000360: a684 883b ab69 9e3d fa84 c33a db7f 57ba
00000370: bd24 143b 0635 91bc 472e 8f3d 7a9b 463d
00000380: ea60 79ba ab21 973b fe70 6c39 cdcd fcb9
00000390: ceb5 27bb ac3b de3a 0d50 82bd 172a 5f3b
000003a0: b21c b73b 54b3 99b9 1989 023b 5a53 a83a
000003b0: 4b2c c73a 89e4 67ba ff39 0dbc a140 37bc
000003c0: e124 973d c18c 493b 206b 843b 35c1 103b
000003d0: 54d0 123b a223 b4bb c7b4 063b e177 aabb
000003e0: 2c01 123b 0ea3 00bb 565a 943b 74a9 423b
000003f0: 82e3 1d3b 93cb 113a 62d1 533b 8d75 7dbd
