mlp/ONN/seed4/network.pth (torch, 473735 bytes, 3 tensors)

layers.0.0.weight f4 [128, 784]
0	0x3dbb9ecb	0.09161147
1	0xbde9ccf3	-0.11416044
2	0xbe3d4736	-0.18484196
3	0xbd8b0eda	-0.06789942
4	0x3df459df	0.11931204
5	0x3e2bdcb8	0.16783416
6	0xbc2b117d	-0.010441181
7	0xbd1a780f	-0.037712153
8	0x3e88c24f	0.26710746
9	0xbd1e819e	-0.03869783
10	0x3c9a6e05	0.01885129
11	0xbdc71ff9	-0.09722895
12	0x3e632188	0.2218076
13	0xbdb014c6	-0.08597712
14	0xbd8640ac	-0.06555304
15	0xbd28bca4	-0.041195527
16	0x3bddb7f2	0.0067663128
17	0x3d44b63e	0.048025362
18	0x3c64eabb	0.01397198
19	0x3dfb60ef	0.12274348
20	0x3e574837	0.21023642
21	0xbd893a07	-0.06700521
22	0xbdae2d72	-0.08504762
23	0xbd2a2813	-0.041542124
24	0x3e96bbc6	0.29440135
25	0xbcf528f7	-0.02992676
26	0x3cf85a72	0.030316565
27	0xbd4e3503	-0.050343525
28	0x3b34ad4a	0.0027569109
29	0x3ca2082d	0.01977929
30	0xbb894c5c	-0.004190011
31	0x3e17a7f3	0.14810161
32	0x3d948c1f	0.072532885
33	0xbc4d8cf4	-0.012545813
34	0xbd8c80dd	-0.06860516
35	0xbcd876bb	-0.026423803
36	0xbd773d6d	-0.060361315
37	0xbe5bb6a6	-0.21456394
38	0x3d253372	0.040332265
39	0xbdb4038a	-0.087897375
40	0x3dde11cc	0.10843238
41	0xbd00d967	-0.03145733
42	0x3c6290eb	0.013828496
43	0x3e0e91f7	0.13922869
44	0x3e9b36d4	0.30315268
45	0x3dc90232	0.09814872
46	0xbe8adae7	-0.27120134
47	0x3ebc60c5	0.3679258
48	0x3d52ed89	0.051496062
49	0xbe32ab26	-0.174481
50	0x3da6d09a	0.08145256
51	0x3de5d251	0.11221755
52	0x3ac61458	0.0015112264
53	0x3d953d4f	0.07287084
54	0xbcaaeef1	-0.02086589
55	0xbd3c96a5	-0.046042103
56	0xbdd453c3	-0.10367539
57	0xbe39ce69	-0.18145145
58	0xbe47655c	-0.1947226
59	0x3e506e55	0.20354588
60	0xbe90da94	-0.28291762
61	0xbde504e3	-0.11182573
62	0xbe86a38d	-0.26296654
63	0xbe235c06	-0.15953073
64	0xbe6c88b2	-0.2309902
65	0xbeae2152	-0.34009796
66	0xbc51efa4	-0.012813482
67	0xbd22ad44	-0.03971602
68	0xbe876003	-0.2644044
69	0xbd079f56	-0.03311094
70	0x3dbd67fc	0.09248349
71	0x3e35a8fd	0.17740245
72	0x3da2b240	0.07944155
73	0x3e867a14	0.26265013
74	0x3e02782f	0.12741159
75	0xbdbaaba0	-0.09114766
76	0xbd715e23	-0.058927666
77	0xbd96b5d9	-0.073589034
78	0xbdc9dd45	-0.09856657
79	0xbe00c61d	-0.12575574
80	0xbe9631ca	-0.2933486
81	0xbe274aba	-0.163371
82	0xbda1851a	-0.07886715
83	0x3db516a2	0.088422075
84	0x3dac5acf	0.08415758
85	0x3cbb7ebf	0.022887586
86	0xbe30cfc4	-0.17266756
87	0x3c00f648	0.007871218
88	0x3e2ca8da	0.16861287
89	0xbd32077e	-0.043464176
90	0x3e4c8c64	0.1997543
91	0x3cb584ea	0.022158105
92	0xbe64740c	-0.22309893
93	0xbe14128f	-0.14460205
94	0xbe8120bb	-0.25220284
95	0x3e214f7d	0.15752979
96	0xbbcd537a	-0.0062660547
97	0xbd3769a0	-0.044778466
98	0x3e379fd7	0.17932068
99	0x3c2934eb	0.010327558
100	0x3e14b060	0.14520407
101	0x3e698d33	0.2280777
102	0x3e3c9c08	0.18418896
103	0x3d27ae21	0.040937547
104	0xbe960e83	-0.29307947
105	0xbd5702fb	-0.052493077
106	0xbdfa18c2	-0.122117534
107	0x3df565f8	0.119823396
108	0x3e5177c1	0.20455839
109	0xbde60b4d	-0.11232624
110	0x3eafbd5d	0.3432416
111	0xbe0aecf5	-0.13566954
112	0xbda773df	-0.081763975
113	0x3df284f1	0.11841763
114	0xbe25e39e	-0.1620011
115	0x3e8075ea	0.2508996
116	0xbd5c17a9	-0.0537335
117	0x3e46dd61	0.19420387
118	0x3baeb2fd	0.0053313957
119	0x3e02ae1a	0.12761727
120	0xbc9e2968	-0.019306853
121	0xbe1b2730	-0.15151668
122	0x3dc087dd	0.09400914
123	0x3dd980aa	0.10620244
124	0xbe6097be	-0.21932885
125	0xbd913505	-0.07090191
126	0x3d9f25db	0.07770892
127	0x3bbee71f	0.0058258916
128	0x3e07f730	0.13277888
129	0x3ea9a04c	0.3313011
130	0xbd3a8f2c	-0.045546696
131	0xbde9c4e4	-0.11414507
132	0x3c8c0c66	0.017095756
133	0xbe8acadd	-0.27107897
134	0xbe2b216b	-0.16711967
135	0xbc66fc27	-0.014098204
136	0x3e640162	0.22266153
137	0xbc263017	-0.010143301
138	0xbe7f6c5c	-0.2494368
139	0x3e19c159	0.15015163
140	0x3d3e3665	0.046438593
141	0xbd9476c8	-0.07249218
142	0x3e745868	0.2386185
143	0x3d85d7a7	0.06535273
144	0xbe44d489	-0.192217
145	0xbe2a82cf	-0.16651462
146	0x3e48c450	0.19606137
147	0xbe46a294	-0.19397956
148	0x3d64c5a0	0.055852532
149	0xbe4abb0e	-0.19797918
150	0xbbfbe231	-0.007686876
151	0xbd3b1e22	-0.045683034
152	0xbda048da	-0.07826395
153	0xbdb84220	-0.08996987
154	0xbcebe501	-0.028795721
155	0x3e413081	0.18866159
156	0x3e906323	0.28200635
157	0x3d4d8007	0.050170925
158	0x3c43f6b8	0.011960678
159	0xbe073671	-0.13204361
160	0xbe2083f5	-0.15675338
161	0x3e0ce691	0.13759829
162	0xbd535082	-0.05159045
163	0xbdfd0f3a	-0.1235642
164	0x3e033d54	0.12816364
165	0xbdffbac9	-0.12486798
166	0xbe4dfc79	-0.20115842
167	0x3e8ceec9	0.2752593
168	0x3be81f08	0.0070837773
169	0x3d102502	0.035191543
170	0xbe6895a7	-0.22713338
171	0xbde4bd51	-0.11168922
172	0xbe1e5fa2	-0.15466169
173	0xbe23ef17	-0.16009174
174	0x3d2812d7	0.041033592
175	0x3e87d30a	0.26528198
176	0xbde17a16	-0.11009614
177	0x3e0aa2a9	0.13538612
178	0xbd9774c9	-0.07395322
179	0x3cf5f363	0.030023282
180	0xbdf2f98d	-0.11864004
181	0xbd569c53	-0.052395176
182	0x3b703606	0.0036653294
183	0x3d6a6466	0.057224654
184	0x3d860530	0.06543958
185	0xbea7b5a4	-0.32755768
186	0xbe274073	-0.16333179
187	0xbe3101df	-0.1728587
188	0xbd32057f	-0.043462273
189	0xbd26331e	-0.040576093
190	0xbe470a71	-0.19437577
191	0xbd07ac63	-0.033123385
192	0xbdd9b21f	-0.10629677
193	0xbd1815be	-0.03713011
194	0xbea47989	-0.32123974
195	0xbda3b5a1	-0.07993627
196	0x3e53bbed	0.20677157
197	0x3dc86118	0.09784144
198	0x3e5ba1f9	0.21448506
199	0x3e457a20	0.19284868
200	0xbe3c4808	-0.18386853
201	0x3dd1b2bd	0.1023917
202	0xbd91e185	-0.071230926
203	0x3d97dc78	0.07415098
204	0x3c4deab7	0.012568167
205	0xbe234cfe	-0.15947339
206	0x3c6c289c	0.014413979
207	0xbd936a86	-0.07198052
208	0xbeba5896	-0.3639571
209	0x3e4d0f65	0.20025404
210	0x3e36123e	0.17780396
211	0x3df6b1a7	0.12045603
212	0xbd2f7cd1	-0.042843644
213	0xbda943bc	-0.082648724
214	0x3c3fffd4	0.011718709
215	0xbecaaab7	-0.3958337
216	0xbd2e0245	-0.042482633
217	0xbe3e0a99	-0.1855873
218	0xbd22747a	-0.039661862
219	0xbdc310d7	-0.09524696
220	0x3e0329fb	0.12808983
221	0x3e128068	0.14306796
222	0x3d2c9424	0.042133465
223	0x3d245ea6	0.040129326
224	0xbe0a50ac	-0.13507336
225	0xbed144d3	-0.4087282
226	0x3c915b96	0.017743867
227	0x3e43f943	0.19138055
228	0xbe2b496d	-0.16727228
229	0xbd476b54	-0.04868634
230	0x3bf907e3	0.007599817
231	0xbe22843e	-0.15870759
232	0x3e19191d	0.14950986
233	0xbe0526ac	-0.13003033
234	0xbdd893c8	-0.10575062
235	0xbdf98e02	-0.12185289
236	0xbe00ae66	-0.12566528
237	0x3da4ee48	0.08053261
238	0x3df69c27	0.120415024
239	0xbd81d870	-0.0634011
240	0xbe7a64cb	-0.24452512
241	0x3da244df	0.07923292
242	0xbe63536b	-0.2219979
243	0x3d6337d9	0.055473182
244	0xbe42582a	-0.18978944
245	0xbd4773b2	-0.04869432
246	0x3e12d57b	0.14339249
247	0xbcba8e9d	-0.022773081
248	0x3db43a2d	0.08800159
249	0x3e25eb5f	0.16203068
250	0xbddfbdbd	-0.109248616
251	0xbeb5021f	-0.3535318
252	0x3dc86ae2	0.09786011
253	0xbdc83558	-0.097757995
254	0xbd7886c5	-0.0606754
255	0x3d37a6d0	0.04483682

layers.1.0.weight f4 [128, 128]
0	0xbb65f13f	-0.003508642
1	0x3e2c5832	0.16830519
2	0xbd4f404b	-0.050598424
3	0x3d6a299b	0.057168584
4	0x3d86f24d	0.06589184
5	0xbaf67bd8	-0.0018805219
6	0xbe433c1c	-0.19065899
7	0xbd814618	-0.063121974
8	0xbe266a57	-0.16251503
9	0x3d24b38d	0.040210295
10	0x3e250653	0.16115694
11	0x3d1a7aa3	0.03771461
12	0xbe0eac91	-0.13933016
13	0x3d7c297a	0.061562993
14	0xbd3104a7	-0.043217327
15	0x3ca56763	0.0201909
16	0x3db23762	0.0870197
17	0x3d9f83fe	0.077888474
18	0xbe873efc	-0.2641524
19	0xbdefe216	-0.11713044
20	0xbd18b79f	-0.03728449
21	0x3e144328	0.14478743
22	0xbdee742c	-0.11643252
23	0x3d63ea4a	0.055643357
24	0x3cea7b5b	0.028623274
25	0x3d0bb1cc	0.034105107
26	0x3d887710	0.06663334
27	0xbe1f00e8	-0.1552769
28	0xbe69df24	-0.22839028
29	0xbdad5ce7	-0.08464985
30	0x3dcbde76	0.099545404
31	0x3e279286	0.16364488
32	0x3e514685	0.20437057
33	0x3da06dcc	0.07833442
34	0x3deccfec	0.115630955
35	0x3e5e29a6	0.21695575
36	0x3dbf2b99	0.093344875
37	0xbe04d922	-0.12973455
38	0xbe720c6f	-0.23637556
39	0x3e0be7bb	0.13662617
40	0xbd89428c	-0.06702146
41	0x3de4a191	0.11163629
42	0x3cd15710	0.02555421
43	0xbe1cc4c4	-0.15309435
44	0x3e4520ee	0.19250843
45	0xbe10cb6d	-0.14140101
46	0xbda310d0	-0.07962191
47	0xbd82df58	-0.06390256
48	0xbd57888d	-0.05262046
49	0xbdf30a1c	-0.118671626
50	0x3d54dcda	0.051968433
51	0xbbbccdb2	-0.0057618255
52	0x3d043af1	0.032282773
53	0x3d94c5ef	0.07264315
54	0x3d330af5	0.04371162
55	0xbdf34cdd	-0.11879895
56	0xbd46d86b	-0.048546236
57	0xbcd9cd58	-0.026587173
58	0xbcdee300	-0.027207851
59	0xbd962515	-0.073312916
60	0x3d05bd83	0.032651436
61	0xbd1bdbc3	-0.038051378
62	0xbdf2c787	-0.11854463
63	0xbe5c2632	-0.21498945
64	0xbdde10a2	-0.10843016
65	0x3d81651b	0.063181125
66	0x3db0e4f6	0.08637421
67	0x3d2a66ce	0.04160195
68	0x3d69e029	0.05709854
69	0x3c6caa7e	0.014444945
70	0xbd870a15	-0.0659372
71	0xbe2d2e87	-0.1691228
72	0xbc0bea5e	-0.008539764
73	0xbdafdea7	-0.085873894
74	0x3e1657c3	0.14681916
75	0xbe025375	-0.12727149
76	0x3e7239f1	0.23654915
77	0x3e151acf	0.14561008
78	0x3d7da9e4	0.0619296
79	0x3df9c920	0.12196565
80	0x3e0a34f6	0.13496765
81	0xbc219c55	-0.009863933
82	0x3d101327	0.035174515
83	0x3e2bd611	0.16780879
84	0xbdffa08a	-0.12481792
85	0xbc914392	-0.017732415
86	0x3d385912	0.04500682
87	0xbe244414	-0.16041595
88	0x3cd7e5b8	0.026354656
89	0xbcfdb490	-0.030969888
90	0xbe2d3f17	-0.16918598
91	0xbe5b072e	-0.21389458
92	0xbe2a7dbb	-0.16649525
93	0xbcd85934	-0.026409723
94	0xbe816626	-0.25273246
95	0x3de2a76e	0.11067091
96	0x3e17209b	0.14758532
97	0x3df586cb	0.119886
98	0xbdc6559d	-0.09684298
99	0xbd8483c4	-0.06470445
100	0x3e4c01f5	0.19922622
101	0x3e29e31c	0.16590542
102	0x3db32d44	0.08748868
103	0xbd7f74a4	-0.062367097
104	0x3de8a0e5	0.11358813
105	0x3e8c133a	0.2735842
106	0xbd8fadde	-0.070155844
107	0x3deb0090	0.11474717
108	0xbdbd24c9	-0.09235532
109	0xbe0c259a	-0.13686219
110	0xbc126dd9	-0.008937323
111	0x3dc65e2f	0.09685933
112	0x3e3b1bdd	0.18272348
113	0xbe54ec78	-0.2079333
114	0x3d76340d	0.060108233
115	0x3e6e2afa	0.23258582
116	0xbd2bf61b	-0.04198275
117	0x3d23bb72	0.039973684
118	0x3e455eab	0.19274394
119	0xbd8c7cbb	-0.06859728
120	0xbd9c992e	-0.07646404
121	0xbdce2eeb	-0.10067543
122	0x3d6894dc	0.05678259
123	0x3e1e7c8e	0.15477201
124	0x3abae7d3	0.0014259763
125	0xbd43163c	-0.047628626
126	0x3dabe1d9	0.083926864
127	0xbe81a701	-0.25322726
128	0xbcbc2364	-0.022966094
129	0xbd864827	-0.06556731
130	0xbdddfe39	-0.10839505
131	0x3ba11e52	0.0049169445
132	0x3e3ed5f9	0.18636312
133	0xbd4a1ecc	-0.049345776
134	0xbdc1ee17	-0.0946924
135	0xbe0ecaa1	-0.13944484
136	0xbcf3d602	-0.029765133
137	0x3c299c5c	0.01035222
138	0x3de352bd	0.110997654
139	0x3d5b1381	0.053485397
140	0xbdf58b97	-0.11989515
141	0xbd32d79b	-0.04366265
142	0x3be10add	0.00686775
143	0x3d6ee130	0.058320224
144	0xbce132a5	-0.02748997
145	0x3de604c3	0.11231377
146	0xbce29e0b	-0.027663251
147	0xbd6ccdcb	-0.057813447
148	0xbde1dfa2	-0.11028983
149	0xbd12312a	-0.035691418
150	0xbde96f27	-0.11398154
151	0x3b87c62f	0.0041434984
152	0xbe3ec745	-0.18630703
153	0x3dc93db3	0.09826221
154	0xbade1046	-0.0016942106
155	0x3d680499	0.05664501
156	0xbd6f08d4	-0.05835803
157	0xbdfb7e15	-0.122799076
158	0x3c19989c	0.009374764
159	0x3e18e09a	0.14929429
160	0x3d9ded73	0.077113055
161	0xbc07b09f	-0.008281856
162	0x3cfca658	0.030841038
163	0x3da700ff	0.08154487
164	0x3d82a400	0.06378937
165	0xbd963b4d	-0.073355295
166	0xbe2d3301	-0.16913988
167	0x3d9ed730	0.077558875
168	0xbdef0e2c	-0.11672625
169	0x3d71eef2	0.059065767
170	0xbd9d7036	-0.07687418
171	0xbd1e6065	-0.038666148
172	0xbba4967b	-0.0050228215
173	0xbd508320	-0.0509063
174	0xbe41124e	-0.18854639
175	0x3aa1a98a	0.0012333852
176	0xbd2c7b3e	-0.04210972
177	0xbbb348b0	-0.0054713115
178	0x3c7de70f	0.015496983
179	0xbe4d0df7	-0.20024858
180	0xbd802315	-0.06256691
181	0xbd396085	-0.045258064
182	0xbdbd4c12	-0.09243025
183	0xbda34086	-0.07971291
184	0xbdef3ba4	-0.116812974
185	0x3da82f21	0.08212114
186	0xbcca5938	-0.024700746
187	0x3d854c42	0.06508686
188	0x3d20d2e4	0.03926362
189	0x3d1aea0f	0.037820872
190	0x3d53bdc3	0.051694643
191	0xbe236142	-0.1595507
192	0x3cff30a7	0.031151129
193	0x39c530bc	0.00037611078
194	0x3e48a356	0.19593558
195	0x3d01bf91	0.031676833
196	0x3db87cac	0.09008154
197	0x3d5bac67	0.053631213
198	0xbe0ecb52	-0.13944748
199	0xbe733b17	-0.2375301
200	0x3df761df	0.12079214
201	0xbdc18077	-0.09448331
202	0x3e000548	0.12502015
203	0xbbff78a9	-0.0077963662
204	0x3df52df4	0.119716555
205	0xbd5e8941	-0.054330114
206	0x3d01bd05	0.031674404
207	0x3d3c2939	0.04593775
208	0xbd01be41	-0.03167558
209	0xbdadafd2	-0.08480801
210	0x3c357a54	0.011076529
211	0x3d823cdf	0.063592665
212	0x3d96b438	0.07358593
213	0x3de70834	0.112808615
214	0x3d092102	0.033478744
215	0xbc41c690	-0.011827126
216	0xbd70055a	-0.058598854
217	0xbcf76e06	-0.03020383
218	0xbdc7caa3	-0.09755447
219	0xbd27a3fe	-0.04092788
220	0xbd332442	-0.04373575
221	0xbd382706	-0.04495909
222	0xbb92070d	-0.004456407
223	0x3d28e167	0.041230585
224	0xbc437858	-0.011930548
225	0xbdd1b4e7	-0.102395825
226	0xbda79488	-0.08182627
227	0x3c2e030a	0.010620842
228	0x3e1b5c27	0.15171872
229	0xbc7202d3	-0.014771181
230	0x3dab4541	0.083628185
231	0xbe1accf1	-0.15117241
232	0xbc8b6854	-0.017017521
233	0xbcb63f4b	-0.022246977
234	0xbcfe23e1	-0.031022968
235	0x3d488f85	0.048964996
236	0x3d845d20	0.06463075
237	0xbdb418a7	-0.087937646
238	0x3db5101a	0.08840962
239	0x3dd39f7b	0.10333153
240	0x3d41dad6	0.04732784
241	0xbd4ac0d9	-0.04950032
242	0x3d487030	0.048935115
243	0x3d2ac935	0.041695792
244	0x3d81d1e1	0.06338859
245	0xbd5b53d9	-0.05354676
246	0x3cf1d2eb	0.029519519
247	0x3c9ba10c	0.018997692
248	0xbd0615b9	-0.03273556
249	0xbd022a70	-0.031778753
250	0x3cac1b13	0.021009004
251	0xbd0fee32	-0.03513927
252	0x3cd0b3a0	0.025476277
253	0xbe34b8fb	-0.1764869
254	0x3dc09a43	0.09404423
255	0xbd9c3d88	-0.07628924

layers.2.0.weight f4 [10, 128]
0	0x3c43a412	0.011940973
1	0xbb8f72af	-0.004377685
2	0x3bf62009	0.007511143
3	0xbc554e52	-0.013019161
4	0xbc8c6605	-0.01713849
5	0x3b76de67	0.0037669183
6	0xbb895c2f	-0.0041918973
7	0x3bd57b4b	0.006514942
8	0xbd95f4e5	-0.073221005
9	0xbaf9230f	-0.0019007641
10	0xbdb3e19e	-0.087832674
11	0x3b04454d	0.0020182908
12	0x3ea1f434	0.31631625
13	0x3c1a15c0	0.0094046
14	0x3b487c84	0.0030591795
15	0x3cbbca28	0.022923544
16	0xbcafafca	-0.021446127
17	0x3c988b1a	0.018621016
18	0xbc5e4ef8	-0.013568632
19	0x3bbbf86c	0.0057364013
20	0xbb008314	-0.0019609379
21	0x3c8956da	0.016765047
22	0xbb7aae8b	-0.0038251008
23	0x3ba8ff6f	0.005157403
24	0x3b492d11	0.0030697028
25	0xbe5f8c87	-0.2183095
26	0xbb582f30	-0.003298711
27	0x3bc88740	0.0061196387
28	0xbc895f03	-0.016768938
29	0x3e49de8b	0.197138
30	0x3b80bdf7	0.0039288956
31	0x3c6502b5	0.013977696
32	0x3ccbb219	0.024865197
33	0xb8fce716	-0.000120593395
34	0xbb466f41	-0.0030278715
35	0xbc7cfd6c	-0.01544128
36	0xbbe18702	-0.0068825493
37	0x3a8d365b	0.0010773645
38	0x3c9b0f4f	0.018928198
39	0x3bcf1b10	0.006320365
40	0xbba85305	-0.00513685
41	0xba0a97ff	-0.00052869314
42	0x3e1eefdf	0.15521191
43	0x3bda41ca	0.0066606747
44	0x39d2b739	0.00040190833
45	0xbc82ff01	-0.015990736
46	0x3be61715	0.0070217946
47	0x3bb897c7	0.0056333276
48	0x3bae6693	0.0053222864
49	0xbbfa6d48	-0.007642422
50	0x3c5eea05	0.013605599
51	0x3bc0dd3c	0.005885748
52	0x3d39c107	0.0453501
53	0xb9fe1e0a	-0.00048469036
54	0xbc1acfda	-0.00944897
55	0xbb1073e4	-0.0022041732
56	0xbb905b6f	-0.004405431
57	0xbb01df20	-0.001981683
58	0xbb5487e0	-0.003242962
59	0xb99a63e2	-0.00029447587
60	0x3b83d011	0.004022606
61	0x3b67e411	0.003538374
62	0x3c070bce	0.008242561
63	0x3b09fd92	0.002105568
64	0x3b4bb927	0.0031085701
65	0x3ae3f8ee	0.0017392912
66	0xbc19b7bf	-0.009382187
67	0xbbcd2d05	-0.0062614703
68	0xbb9eccc3	-0.004846187
69	0xbd12b631	-0.035818283
70	0xbd29cdfc	-0.041456208
71	0x3bd676f3	0.0065449416
72	0xb831ca4a	-4.2388485e-05
73	0xbdeb7ef2	-0.11498822
74	0xbca2c40a	-0.01986887
75	0xbc9684a6	-0.018373799
76	0xbbc40af3	-0.0059827506
77	0x3cf92abc	0.030415885
78	0xbb318628	-0.002708802
79	0x3c4e967b	0.0126091195
80	0x3b349dd2	0.0027559889
81	0xbc237ae9	-0.0099780345
82	0x3b1bd5bf	0.0023778526
83	0xbcd94352	-0.026521359
84	0x3c8c45f5	0.017123202
85	0x3d2a0f8c	0.041518733
86	0xbbf6eb7e	-0.007535397
87	0xbcba5cd2	-0.022749338
88	0x3c230599	0.009950065
89	0x3adf5ce3	0.0017041232
90	0x3caba300	0.020951748
91	0xbc79329d	-0.015209821
92	0x3aed069a	0.0018083632
93	0x3b5a1d6a	0.0033281692
94	0x3b9656d3	0.004587987
95	0xbe8854b3	-0.2662712
96	0xbce57a86	-0.028012525
97	0xbb3771e1	-0.002799146
98	0x3c1341e0	0.008987874
99	0x3cb40e6e	0.021979537
100	0x3c07e1fc	0.008293625
101	0x3bef8a0c	0.0073101576
102	0xbe76f7ca	-0.24117962
103	0xb9941006	-0.00028240698
104	0x3c91d344	0.017800935
105	0x3b6c4182	0.0036049788
106	0x3c9ba678	0.019000277
107	0x3e2e69b0	0.17032504
108	0xbc1f4882	-0.009721877
109	0x3b903491	0.0044007977
110	0xbb1dbf8b	-0.0024070467
111	0xbbbb6635	-0.005718971
112	0x3ac3ca84	0.0014937674
113	0xbbbe73ee	-0.0058121597
114	0xbbe9e512	-0.007137903
115	0x3b8f0bbb	0.004365412
116	0xbed919e2	-0.4240256
117	0x3d9a37a8	0.07530147
118	0xbbc1b662	-0.0059116343
119	0x3c13f0b6	0.009029558
120	0xb9381392	-0.00017554898
121	0xba2bfdf0	-0.0006560972
122	0x3be379e5	0.006942021
123	0x3de6ad06	0.1126347
124	0xba7b66b1	-0.00095901923
125	0x3bd56dc1	0.006513328
126	0x3ab21f43	0.0013589639
127	0x3a811162	0.00098471
128	0xbb3eb4ff	-0.0029099581
129	0x3c7ec3ce	0.015549613
130	0x3bba08a4	0.0056772996
131	0xbae92185	-0.0017786479
132	0x3c86ec7a	0.016470183
133	0x3b96f4fc	0.004606841
134	0x3c037662	0.00802383
135	0x3cd197e6	0.025585126
136	0xbc623138	-0.01380568
137	0xbd85c3d5	-0.065314926
138	0xbb2326c0	-0.0024894923
139	0xba427a3e	-0.0007418728
140	0x3a952643	0.0011379201
141	0xbc5a9ec8	-0.01334352
142	0xbb69e1de	-0.0035687606
143	0x3c39f444	0.011349741
144	0x3b8bc9ef	0.0042660157
145	0xbc762430	-0.015023276
146	0x39f8a59c	0.00047425635
147	0x3c2ad2db	0.010426248
148	0x3db7c530	0.089731574
149	0x3d1016d7	0.03517803
150	0xbc1d19a7	-0.0095886355
151	0x3c5c0156	0.013428053
152	0xbc4de6e9	-0.01256726
153	0xbc79dc92	-0.015250342
154	0xbb5111bd	-0.0031901442
155	0xbe327549	-0.17427553
156	0xbc05fa82	-0.0081774015
157	0xbb70ae29	-0.0036724901
158	0x3bd15047	0.0063877436
159	0xbc1be985	-0.009516125
160	0x3cd78c32	0.026311968
161	0x3c511571	0.01276146
162	0xbbf5b4e1	-0.007498369
163	0x3c3249d1	0.010881857
164	0xbd01800d	-0.03161626
165	0xbb8b0d65	-0.00424354
166	0xbbe620c2	-0.007022948
167	0xbb10d289	-0.0022098145
168	0x3b835612	0.004008063
169	0x3bf3b7aa	0.007437666
170	0xbba462d3	-0.0050166636
171	0x3c535382	0.012898328
172	0xbae4b13b	-0.0017447838
173	0x3e5e24b5	0.2169369
174	0x3d07e38e	0.033175997
175	0xbd603e77	-0.05474707
176	0x3cadaf95	0.021201888
177	0xbcca873a	-0.024722684
178	0xbba09e2d	-0.0049016685
179	0x3b315e6d	0.0027064339
180	0x3c87843e	0.01654255
181	0x3b34af35	0.0027570252
182	0x3c1666c2	0.009179773
183	0x3a5942c8	0.0008287844
184	0x395835da	0.00020619427
185	0xbc5e4ebf	-0.013568579
186	0xbea3d79a	-0.32000428
187	0x3b10e599	0.0022109507
188	0x3bb5ab14	0.0055440757
189	0x3d0d2aba	0.034464575
190	0xbbddb7b8	-0.0067662857
191	0xbef334a7	-0.47501108
192	0x3c931ba4	0.017957516
193	0x3c463d9a	0.012099648
194	0xbc40c00c	-0.011764538
195	0x3bad766a	0.005293657
196	0x3cbecf1f	0.023292122
197	0x3c146f0d	0.00905968
198	0x3717d870	9.050695e-06
199	0x3e8b9f94	0.27270186
200	0x3c93cc42	0.018041734
201	0x3c8d53cf	0.017251877
202	0x3d02de6e	0.031950407
203	0x3cde1d47	0.02711357
204	0x3e84e0bb	0.25952706
205	0xbbf32f45	-0.0074214065
206	0xba93b0f5	-0.0011267947
207	0x3a914abb	0.0011084893
208	0x3cd3fe45	0.025878081
209	0xbb804ec6	-0.0039156405
210	0xbb025ff5	-0.001989362
211	0x3c95f661	0.01830596
212	0xbc6d425d	-0.014481154
213	0x3ba72476	0.005100782
214	0xbd8a2d62	-0.06746937
215	0xbd07c289	-0.033144508
216	0x3c11047f	0.00885117
217	0x3c2e8d5b	0.010653819
218	0x3c07a201	0.008278371
219	0x3c85f978	0.016354308
220	0x3d521711	0.05129153
221	0x3ea51581	0.3224297
222	0xbea75183	-0.32679376
223	0x3b26c7a6	0.002544859
224	0xbc05ab34	-0.008158494
225	0xb96139ff	-0.00021479277
226	0x3db55de2	0.08855797
227	0xbbb611f3	-0.005556339
228	0x3d912a8c	0.07088193
229	0xbc421313	-0.011845368
230	0x3ba60a9f	0.005067184
231	0x3d62a1d3	0.05533011
232	0xbb74fede	-0.0037383358
233	0x3c31cc5d	0.010851947
234	0xbb6ea912	-0.0036416692
235	0xbb21792f	-0.0024638881
236	0x3c89558c	0.016764425
237	0xb9d0ce87	-0.00039826726
238	0x3c2722e1	0.010201187
239	0x3c493cb0	0.012282535
240	0x3d5dddf2	0.05416674
241	0x3abddd16	0.0014485444
242	0xbca786c7	-0.020450009
243	0xbbf601f6	-0.007507558
244	0x3b84cc76	0.004052694
245	0x3bce146e	0.0062890565
246	0x3bdab823	0.006674783
247	0xbc230bdf	-0.009951561
248	0xbbfedaba	-0.007777539
249	0x3ae3fe2c	0.0017394475
250	0x3786dd54	1.6077109e-05
251	0x3c9dc23a	0.019257654
252	0xbb5fa042	-0.003412262
253	0x3c0ee572	0.008721696
254	0xbc89c034	-0.016815282
255	0x3b13500a	0.0022478127
