cnn/ONN/seed2/network.pth (torch, 739599 bytes, 4 tensors)

layers_conv.0.0.weight f4 [32, 1, 5, 5]
0.015217497 -0.0060427985 -0.04431606 0.1332029 0.03814672 0.01413767 -0.0070787314 -0.0077386764
0.014424118 0.086708724 0.18848005 0.08181911 -0.1463753 0.09033982 0.0393538 0.019711034
0.06680079 0.041683387 -0.0590971 -0.074113235 0.040044166 -0.018740818 0.115994215 -0.0009756945
0.023075046 0.03635879 -0.022594146 -0.021854661 -0.030466484 -0.031135323 -0.032455653 0.09752795
-0.30066618 0.037620045 0.27852666 0.15667538 0.12265112 0.071802154 -0.28989384 0.12383144
-0.060343068 -0.007164834 -0.07783718 -0.14298432 -0.11186374 -0.018133655 0.15646055 0.14245375
0.089626774 -0.19614069 0.019621627 0.021855058 -0.041966192 0.010892585 -0.1290962 -0.059022106
-0.07793099 -0.061193574 -0.045200616 0.001655254 -0.0011816649 0.08652915 -0.071819276 0.00015569283
0.017939111 -0.0048079016 -0.029439304 -0.054173056 -0.0015745301 -0.06491213 -0.15330558 0.12925771
0.010599551 -0.10936329 -0.0029640188 -8.849532e-06 -0.22652623 -0.073596396 -0.09256346 0.050712578
0.060760204 -0.053717513 0.04382566 -0.025345052 -0.020009778 0.35959125 0.15552458 0.23469485
0.18785787 0.038241085 -0.005124523 -0.082908124 -0.052291937 -0.09968155 0.0056418446 -0.062111102
0.09029393 -0.17248361 -0.032657363 -0.055785153 0.04658831 0.13446878 0.09643248 -0.0020817278
-0.14459953 -0.07613708 -0.06354129 0.13500817 0.19238174 0.04829563 -0.030178228 -0.090718076
-0.13625298 -0.11965048 0.21279795 0.27253255 0.005934792 -0.06786679 -0.1005675 0.09132025
0.0819036 -0.1978556 0.12730315 0.14140674 -0.07367882 0.012886124 -0.1250132 -0.01234477
-0.078083605 -0.25709867 -0.019002967 -0.11704719 0.036989424 -0.04356678 0.20007132 -0.06564233
0.17574866 0.023732647 0.052811667 -0.109733246 0.025008744 -0.027314268 -0.0466931 -0.012227312
-0.06986121 0.04793034 0.033789326 -0.0031282522 0.0020773131 0.081727594 -0.2678255 -0.0660511
-0.05179265 -0.03177916 0.008057718 0.053922016 0.051946823 0.23679835 -0.0028920274 0.053950634
-0.12411419 -0.14382517 0.24146318 -0.23724096 0.02901776 0.016381174 -0.05253766 0.09098865
-0.124430194 -0.08092681 -0.17100014 0.3266306 0.123691596 0.07279388 -0.0842167 -0.0040371004
-0.13594359 -0.022201542 0.2253286 -0.22880393 0.07952577 0.24209163 0.037846915 -0.16651611
-0.063028164 0.10301904 -0.026394218 -0.033782974 0.17231697 -0.10436953 -0.07691363 -0.028767025
-0.045907985 0.103618205 -0.052270606 0.011203924 -0.0549531 0.07553695 0.07956072 0.17195931
-0.047796413 0.09875912 0.056726567 -0.18774594 -0.12793806 -0.073273815 -0.05851134 0.016422344
-0.029682036 -0.053056914 -0.0061810957 -0.1249867 0.10127626 0.012582497 0.20742704 -0.18772613
0.09853737 -0.06773982 -0.017954346 -0.030010927 0.10210305 -0.14988603 -0.008971908 -0.061789162
0.018126158 0.2444141 -0.11853813 0.14155696 0.009826836 0.031238403 -0.11069221 -0.09436334
0.076067045 0.01077072 -0.03346278 0.018480755 0.06932347 0.10436257 0.0020037903 0.002908815
0.118528284 0.05933741 -0.0870608 0.025544817 0.184155 0.077112645 -0.29630354 -0.26853976
-0.20233576 -0.08631121 -0.18244272 0.020113427 -0.040303666 -0.12888263 0.06089024 -0.046457533
00000000: cf52 793c ab02 c6bb c284 35bd 5766 083e
00000010: bc3f 1c3d b0a1 673c b4f4 e7bb b994 fdbb
00000020: 2353 6c3c 5894 b13d ea00 413e c790 a73d
00000030: 68e3 15be 1504 b93d 7331 213d 0979 a13c
00000040: dace 883d 33bc 2a3d cd0f 72bd aec8 97bd
00000050: 5a05 243d 5886 99bc 608e ed3d c0c5 7fba
00000060: e107 bd3c f4ec 143d 5c17 b9bc 8c08 b3bc
00000070: d994 f9bc 810f ffbc 38f0 04bd bcbc c73d
00000080: ebf0 99be 7a17 1a3d 0c9b 8e3e 836f 203e
00000090: 8330 fb3d 020d 933d f76c 94be 579b fd3d
000000a0: 4b2a 77bd fcc6 eabb 1969 9fbd 7b6a 12be
000000b0: d118 e5bd 088d 94bc 3237 203e 65df 113e
000000c0: 3e8e b73d 1bd9 48be 89bd a03c 6109 b33c
000000d0: bee4 2bbd d076 323c cb31 04be 2ac1 71bd
000000e0: 489a 9fbd 1da6 7abd 4824 39bd 1cf5 d83a
000000f0: 18e2 9aba 3236 b13d fc15 93bd 7a41 2339
00000100: 0bf5 923c 9a8b 9dbb b22a f1bc 91e4 5dbd
00000110: 7760 ceba a7f0 84bd 23fc 1cbe 225c 043e
00000120: bda9 2d3c dcf9 dfbd fc3f 42bb 7378 14b7
00000130: 7ef6 67be b5b9 96bd e991 bdbd feb7 4f3d
00000140: b1df 783d e506 5cbd 8982 333d 6da0 cfbc
00000150: 8ceb a3bc 581c b83e d641 1f3e d953 703e
00000160: d05d 403e afa2 1c3d 9deb a7bb bccb a9bd
00000170: 1230 56bd d725 ccbd 39df b83b 3668 7ebd
00000180: 06ec b83d 8b9f 30be bac3 05bd f97e 64bd
00000190: 62d3 3e3d 2fb2 093e 647e c53d 996d 08bb
000001a0: e611 14be c2ed 9bbd f021 82bd 953f 0a3e
000001b0: b8ff 443e a3d1 453d 5538 f7bc 66ca b9bd
000001c0: e785 0bbe 500b f5bd b5e7 593e 6389 8b3e
000001d0: a578 c23b befd 8abd 55f6 cdbd 1c06 bb3d
000001e0: 13bd a73d a99a 4abe c25b 023e eecc 103e
000001f0: ece4 96bd 5220 533c 7603 00be b841 4abc
00000200: 4cea 9fbd 70a2 83be 1cac 9bbc 70b6 efbd
00000210: 3982 173d 1473 32bd 7fdf 4c3e 7c6f 86bd
00000220: 75f7 333e f86a c23c 0c51 583d d3bb e0bd
00000230: 23df cc3c 2cc2 dfbc 4441 3fbd 1055 48bc
00000240: 6513 8fbd 9b52 443d ad66 0a3d 5d03 4dbb
00000250: 8823 083b cc60 a73d 6d20 89be cd45 87bd
00000260: 8824 54bd dd2a 02bd 8504 043c 55dd 5c3d
00000270: 31c6 543d 447b 723e 2b88 3dbb 57fb 5c3d
00000280: 952f febd e846 13be 2042 773e 4bef 72be
00000290: a7b6 ed3c d031 863c bb31 57bd 4258 ba3d
000002a0: 42d5 febd f5bc a5bd a91a 2fbe 203c a73e
000002b0: 0552 fd3d f514 953d ce79 acbd a749 84bb
000002c0: cc34 0bbe 02e0 b5bc 8abc 663e 944b 6abe
000002d0: 68de a23d dee6 773e 5e05 1b3d 3383 2abe
000002e0: e914 81bd a5fb d23d b038 d8bc 0460 0abd
000002f0: dc73 303e b1bf d5bd e584 9dbd d3a8 ebbc
00000300: 030a 3cbd c835 d43d b419 56bd aa90 373c
00000310: 8016 61bd 1eb3 9a3d bbf0 a23d 1a16 303e
00000320: 2cc6 43bd 3942 ca3d 1e5a 683d 7940 40be
00000330: 3202 03be 9510 96bd 96a9 6fbd 2788 863c
00000340: be27 f3bc 3552 59bd ca8a cabb 07f9 ffbd
00000350: ee69 cf3d d126 4e3c c167 543e 473b 40be
00000360: f6cd c93d 2dbb 8abd fe14 93bc 7ad9 f5bc
00000370: 671b d13d b97b 19be e9fe 12bc a216 7dbd
00000380: 4f7d 943c b147 7a3e 1ec4 f2bd 4ff4 103e
00000390: bd00 213c aee7 ff3c 99b2 e2bd 9141 c1bd
000003a0: 0ac9 9b3d ad77 303c 4510 09bd f464 973c
000003b0: 77f9 8d3d 0bbc d53d 0652 033b d1a1 3e3b
000003c0: f5be f23d c90b 733d ef4c b2bd 5d43 d13c
000003d0: 2193 3c3e 3ced 9d3d 19b5 97be 0b7e 89be
000003e0: 1b31 4fbe efc3 b0bd 44d2 3abe eac4 a43c
000003f0: 7515 25bd cff9 03be 0b68 793d 414a 3ebd

layers_conv.1.0.weight f4 [64, 32, 5, 5]
-0.0264292 -0.036494713 0.04086836 0.11752557 -0.13644706 0.09356682 0.062150653 -0.040644117
0.11340077 -0.09945092 0.019742642 -0.13232365 -0.08037564 0.003821422 0.0506691 -0.0053594834
0.07201376 -0.14230575 -0.031081894 -0.043796364 -0.15688612 0.1314628 -0.17280003 -0.04014008
-0.00061256904 0.05871822 -0.09619053 -0.21022029 -0.015572767 0.1454937 0.13207485 0.035411824
-0.20346604 -0.01768559 -0.03808672 -0.007539018 0.13156064 0.07855788 -0.29619136 0.14730674
-0.11270057 0.0787002 0.041831385 -0.07530248 -0.2248892 -0.113485545 -0.12128019 -0.047411487
0.07388628 -0.21608742 0.040325884 0.08398609 -0.028276326 -0.01876678 0.036863264 -0.18024643
0.06728866 -0.08231206 -0.041845452 0.009254348 -0.18826224 -0.039781652 -0.080243215 0.27688706
0.11931383 0.20715444 0.019354016 -0.019434659 0.08284146 -0.0044970615 -0.19387136 0.050268147
0.1857577 0.06090905 -0.06675815 0.06294 -0.12735224 -0.011860507 -0.06428292 -0.012345012
0.024615683 0.23941475 -0.030898131 0.02236423 0.06783865 0.0025791356 0.08362713 0.093494765
0.12502825 0.056961715 0.021622477 -0.12714912 -0.12608685 0.018578544 -0.116932794 0.03793933
0.034328304 0.010393252 -0.0937252 0.013878809 -0.0031321992 0.07612731 0.096979626 -0.060153883
-0.005262003 0.104926184 0.10321442 0.17489983 -0.014353889 0.032132782 -0.08766239 0.01033797
0.05888185 0.057703517 0.08411901 0.052064665 -0.08194595 -0.0040399157 0.16985855 0.05057153
0.13627636 0.016994847 -0.11595588 0.045831326 0.09177206 -0.005052971 -0.008006577 0.076212704
-0.043408114 -0.08834787 0.011099111 -0.042611912 -0.13735224 -0.08143414 0.07951689 -0.15993771
-0.25227317 -0.03798158 0.030901782 -0.040862788 0.05457313 -0.20476817 0.1347211 0.04698052
-0.16230989 -0.021190563 -0.079470195 -0.1157281 0.10183041 0.010815192 0.09272739 -0.19388305
0.17857827 -0.019287156 0.010924641 -0.0004700723 0.1474033 -0.014753885 0.14774242 -0.04346201
-0.0045434223 -0.020791491 0.15426458 0.17333451 0.030894153 0.06097921 0.054494698 0.19517837
0.24654257 -0.032909412 -0.11598713 0.40778002 -0.21257791 0.13143305 0.124481454 -0.041987684
0.009187462 -0.009205363 0.11322035 -0.06979804 0.057308488 0.005093959 0.03852561 0.055384412
-0.0486651 -0.0056998734 -0.21033101 -0.110418886 0.062365253 -0.07956587 0.024650507 0.01873334
-0.05875721 -0.029118719 -0.06544415 -0.100521356 0.103727765 -0.11364602 -0.023978945 0.18236728
-0.0069339285 0.054356515 -0.02262615 0.021387765 -0.032304194 0.04705353 -0.058401138 -0.009981577
0.12777017 -0.061237443 0.061762717 0.00563233 0.10143344 0.04244622 -0.047431443 -0.13584182
-0.05866402 -0.0019382788 0.100293376 -0.07961922 -0.0645639 0.08243175 -0.055920612 -0.106467225
-0.11598174 -0.22306114 0.09554386 0.055237234 -0.13975435 0.073430255 0.06795873 -0.0014098759
0.012515436 -0.04424492 0.10224777 -0.18857418 -0.078539506 -0.05898086 -0.089150414 0.123822115
0.051257893 0.11109909 0.039151765 0.0267138 0.105367035 -0.09017523 0.023494199 0.18285646
0.033220436 -0.10533214 0.020408785 0.13014106 -0.07823006 0.005404296 -0.019974884 -0.024117552
00000000: 0d82 d8bc 7b7b 15bd 9565 273d 3fb1 f03d
00000010: c7b8 0bbe f69f bf3d af91 7e3d 727a 26bd
00000020: aa3e e83d edac cbbd 52bb a13c da7f 07be
00000030: fc9b a4bd d370 7a3b 678a 4f3d 9b9e afbb
00000040: f37b 933d 99b8 11be 759f febc d163 33bd
00000050: c1a6 20be 2f9e 063e 7ef2 30be ed69 24bd
00000060: d094 20ba 8482 703d 8aff c4bd fd43 57be
00000070: eb24 7fbc 4dfc 143e a13e 073e fd0b 113d
00000080: 6759 50be 5fe1 90bc d200 1cbd de09 f7bb
00000090: d5b7 063e f4e2 a03d 65a6 97be 94d7 163e
000000a0: 8ecf e6bd 922d a13d 6357 2b3d 3038 9abd
000000b0: 5b49 66be 1c6b e8bd c061 f8bd 8c32 42bd
000000c0: b151 973d 0546 5dbe c12c 253d e600 ac3d
000000d0: c1a3 e7bc cabc 99bc effd 163d 8592 38be
000000e0: a3ce 893d 3a93 a8bd 2366 2bbd 8d9f 173c
000000f0: d1c7 40be 16f2 22bd 8e56 a4bd 24c4 8d3e
00000100: cf5a f43d 4b20 543e 508c 9e3c 6f35 9fbc
00000110: c9a8 a93d 165c 93bb 3786 46be f9e5 4d3d
00000120: 4437 3e3e c57b 793d 7fb8 88bd b0e6 803d
00000130: a068 02be 9252 42bc c3a6 83bd bc42 4abc
00000140: d4a6 c93c 2429 753e 141e fdbc 3135 b73c
00000150: fdee 8a3d b706 293b b344 ab3d 2f7a bf3d
00000160: 6807 003e b050 693d 9f21 b13c 6133 02be
00000170: e91c 01be 0832 983c 767a efbd 4566 1b3d
00000180: d69b 0c3d 7548 2a3c fff2 bfbd f263 633c
00000190: 9545 4dbb a3e8 9b3d 419d c63d eb63 76bd
000001a0: e16c acbb 8ae3 d63d 1562 d33d f118 333e
000001b0: 932c 6bbc aa9d 033d 5788 b3bd 9760 293c
000001c0: 182e 713d 865a 6c3d 9646 ac3d c241 553d
000001d0: 47d3 a7bd 4561 84bb 66ef 2d3e 1824 4f3d
000001e0: 088c 0b3e c738 8b3c 477a edbd a1b9 3b3d
000001f0: fdf2 bb3d 6593 a5bb 052e 03bc 6815 9c3d
00000200: b5cc 31bd baef b4bd 0cd9 353c d489 2ebd
00000210: 11a6 0cbe f1c6 a6bd c0d9 a23d b6c6 23be
00000220: f329 81be 9392 1bbd bc25 fd3c bd5f 27bd
00000230: 1388 5f3d bfae 51be 54f4 093e a56e 403d
00000240: 9034 26be d597 adbc 45c1 a2bd db02 edbd
00000250: 768c d03d 3432 313c dce7 bd3d 4789 46be
00000260: 39dd 363e 1900 9ebc 44fd 323c 0974 f6b9
00000270: e4f0 163e 47ba 71bc ca49 173e 3805 32bd
00000280: fde0 94bb eb52 aabc 89f7 1d3e 9a7e 313e
00000290: bc15 fd3c 56c5 793d d535 5f3d d7dc 473e
000002a0: a875 7c3e 05cc 06bd a98a edbd 8bc8 d03e
000002b0: 06ae 59be 6396 063e 22f0 fe3d 47fb 2bbd
000002c0: 0287 163c 17d2 16bc 12e0 e73d 46f2 8ebd
000002d0: 4ebc 6a3d 3aeb a63b 08cd 1d3d c4da 623d
000002e0: 0e55 47bd 01c6 babb 0361 57be 4c23 e2bd
000002f0: b572 7f3d 6ef3 a2bd dcef c93c a976 993c
00000300: 66ab 70bd 618a eebc 9507 86bd 24de cdbd
00000310: 396f d43d 3fbf e8bd 7e6f c4bc 7dbe 3a3e
00000320: 0236 e3bb f0a4 5e3d 7a5a b9bc 6535 af3c
00000330: 6751 04bd 34bb 403d 0836 6fbd c589 23bc
00000340: 2fd6 023e 1dd4 7abd e7fa 7c3d 698f b83b
00000350: 56bc cf3d 16dc 2d3d 7947 42bd 1e1a 0bbe
00000360: af49 70bd d80d feba 9d66 cd3d 670f a3bd
00000370: 143a 84bd fad1 a83d 030d 65bd 7d0b dabd
00000380: d687 edbd 246a 64be 80ac c33d 7040 623d
00000390: c41b 0fbe 9a62 963d f22d 8b3d 96cb b8ba
000003a0: 8b0d 4d3c 293a 35bd 4767 d13d 9719 41be
000003b0: 52d9 a0bd ea95 71bd 7e94 b6bd 7396 fd3d
000003c0: ccf3 513d eb87 e33d 9a5d 203d e6d6 da3c
000003d0: acca d73d caad b8bd e876 c03c b93e 3b3e
000003e0: 2712 083d 61b8 d7bd 5330 a73c b343 053e
000003f0: 1537 a0bd 8516 b13b 5ea2 a3bc 2c92 c5bc

layers_fc.0.0.weight f4 [128, 1024]
0.014549542 -0.0045734057 -0.001671328 -0.0033652943 -0.0041063605 0.0014739548 0.010063892 -0.005193079
-0.004324344 0.020664845 -0.02311392 0.005200154 0.0067101712 0.009224354 -0.0025869515 -0.013276171
0.004844635 -0.0009386017 -0.021912076 0.0057735997 0.011262664 -0.00069107197 -0.016920881 -0.017888552
0.010795803 0.0122151505 -0.0024931883 0.012825848 0.0013078578 -0.0055352636 -0.009072935 -0.01524277
-0.010212042 -0.01479185 -0.013806575 -0.024279466 0.00095902267 -0.009143267 0.008215512 0.014863494
0.0032983585 -0.007798019 -0.019468652 -0.018484643 0.004020981 -0.01680192 -0.0010976077 -0.012390881
0.0053406707 -0.019196894 -0.015736923 -0.017019905 0.004885329 0.0012275595 -0.008943068 -0.022915034
0.0067369156 0.006723512 0.023270538 -0.0005155953 0.013912814 0.009706818 -0.015539791 -0.011788847
-0.0025495254 -0.012148491 0.0136955315 0.01081968 -0.004723167 -0.009446268 -0.0069939457 -0.010614524
0.009080637 0.019438595 -0.012870303 -0.0068096486 -0.020198483 -0.006765401 0.0072944616 0.0038362101
0.00045986142 -0.004799795 -0.0053126407 -0.005884758 -0.0099754855 -0.0019857446 -0.009889121 -0.013825723
-0.006899752 0.0025806231 -0.005284961 0.0030172304 -0.0056786197 0.006404492 0.0036594272 0.009330862
-0.03367873 0.0044335066 0.004433163 -0.0065536345 0.014804252 0.009938882 -0.0021512194 -0.0065231035
0.0015169049 0.013451993 0.005571425 0.010024793 -0.013201161 0.005724599 -0.0069321324 -0.0008316649
-0.008481016 -0.0005276746 0.0042836224 0.011776296 0.007087204 0.0024142265 0.026683189 0.0038617947
0.0051226853 -0.0077003893 -0.009193217 0.003983083 -0.0019348172 0.0012719476 -0.01701338 -0.008519774
0.008020404 -0.007932484 -0.0015489045 0.0027569716 0.0022653718 0.0008158054 0.0030146646 -0.0066565825
0.005979538 -0.009409064 -0.011515869 -0.0083987145 -0.0057021603 -0.011184513 0.0013914704 0.0041556465
-0.012622714 -0.006082987 0.025978021 0.0062846644 0.010581361 0.007951977 0.0036797568 -0.008908251
-0.0027148465 0.008224796 -0.001010541 0.017905558 0.0037978117 0.007936594 -0.006180228 -0.011482359
0.001461318 0.0067010685 0.0017265235 -0.018070687 -0.014997289 0.0029246393 -0.0024347454 -0.0026378883
-0.009012055 0.0003861515 0.00016545039 -0.0009831542 0.011601961 0.01674818 0.004384428 0.0063289474
-0.016771635 0.00319433 0.008699069 -0.010738036 -0.004954554 0.0077414885 0.007035913 -0.01004481
0.005682459 0.00529381 -0.012348552 0.0029679714 0.018129874 -0.019574666 -0.011097465 -0.0062608053
0.00086594693 0.0029972063 -0.007729517 0.008707633 -0.0053220545 -0.006049365 0.0012125574 -0.020243706
-0.009461943 -0.00042858737 -0.002137342 0.007548686 0.0049890303 0.007145006 -0.019498829 -0.015319582
0.007916849 0.011466134 0.005668525 -0.0025702564 0.021102438 0.0069105974 0.015491747 -0.00826979
-0.006952571 0.009257713 0.00079700054 0.00913531 -0.016151877 0.009926545 -0.011969503 -0.00051992456
0.012671038 -0.00992764 -0.0050594443 -0.001901264 0.0075652627 0.003008844 -0.007116081 0.008291305
-0.0037448087 -0.014570434 0.0107320035 0.0026544207 -0.0036551387 0.0059851087 0.002782305 -0.00043999043
-0.009534747 0.014260059 -0.0078027 0.0022405146 -0.027855035 0.015849134 0.018359557 -0.0019331318
-0.0111158695 -0.00026276265 0.011642746 0.020079743 -0.020934308 0.007576548 -0.0038991414 -0.0012355255
00000000: 3461 6e3c 82dc 95bb 7610 dbba 458c 5cbb
00000010: a68e 86bb b731 c13a 06e3 243c b42a aabb
00000020: 3ab3 8dbb 5249 a93c 6759 bdbc 0e66 aa3b
00000030: ffe0 db3b bf21 173c d889 29bb 4c84 59bc
00000040: bebf 9e3b 7e0c 76ba f480 b3bc 7730 bd3b
00000050: 0987 383c 0e29 35ba a99d 8abc 038b 92bc
00000060: e1e0 303c 0e22 483c c264 23bb 8123 523c
00000070: 6d6c ab3a 2861 b5bb a6a6 14bc d0bc 79bc
00000080: 6950 27bc 8459 72bc f934 62bc bbe5 c6bc
00000090: ec66 7b3a a4cd 15bc 5b9a 063c 0386 733c
000000a0: 4629 583b 8686 ffbb b97c 9fbc 1b6d 97bc
000000b0: 6fc2 833b 2ea4 89bc 9add 8fba 1f03 4bbc
000000c0: cb00 af3b ce42 9dbc b8ea 80bc 546d 8bbc
000000d0: 1c15 a03b 10e6 a03a f285 12bc 4fb8 bbbc
000000e0: 58c1 dc3b e850 dc3b dba1 be3c 0429 07ba
000000f0: 92f2 633c 5809 1f3c 9c9a 7ebc 0226 41bc
00000100: f015 27bb 770a 47bc 3963 603c 0745 313c
00000110: ccc4 9abb 85c4 1abc 782d e5bb 8ae8 2dbc
00000120: f4c6 143c b03d 9f3c f7dd 52bc 7923 dfbb
00000130: 4a77 a5bc 4cb0 ddbb 6106 ef3b ed68 7b3b
00000140: 8e19 f139 9947 9dbb a915 aebb eed4 c0bb
00000150: 3870 23bc 4423 02bb fb05 22bc 4985 62bc
00000160: 5117 e2bb ac1f 293b 772d adbb babc 453b
00000170: b713 babb c6dc d13b 00d3 6f3b 79e0 183c
00000180: b5f2 09bd f346 913b 1144 913b dfbf d6bb
00000190: 898d 723c b1d6 223c 79fb 0cbb c2bf d5bb
000001a0: e2d2 c63a c065 5c3c 8090 b63b 083f 243c
000001b0: af49 58bc 6b95 bb3b f126 e3bb 1604 5aba
000001c0: f6f3 0abc a553 0aba a15d 8c3b 5ef1 403c
000001d0: c73b e83b 0038 1e3b b496 da3c 2a16 7d3b
000001e0: 33dc a73b 8c53 fcbb 269f 16bc 8684 823b
000001f0: b199 fdba 7bb7 a63a a55f 8bbc 8696 0bbc
00000200: 0368 033c 40f7 01bc 9c04 cbba 4fae 343b
00000210: a276 143b c6db 553a ae91 453b 761f dabb
00000220: 00f0 c33b 7a28 1abc 0ead 3cbc c39a 09bc
00000230: 30d9 babb 3f3f 37bc 0062 b63a 172c 883b
00000240: 80cf 4ebc cb53 c7bb dccf d43c 96ef cd3b
00000250: 725d 2d3c 0249 023c 1328 713b eaf3 11bc
00000260: 91eb 31bb 4bc1 063c 2174 84ba adae 923c
00000270: b5e4 783b 7d08 023c 8383 cabb 8120 3cbc
00000280: b289 bf3a a394 db3b 844c e23a fa08 94bc
00000290: 30b7 75bc 4eab 3f3b 4090 1fbb 6ce0 2cbb
000002a0: 4ca7 13bc 6174 ca39 c07c 2d39 2edd 80ba
000002b0: 2716 3e3c 7b33 893c 3fab 8f3b 0f63 cf3b
000002c0: ab64 89bc f757 513b 8a86 0e3c 96ee 2fbc
000002d0: d059 a2bb 50ac fd3b 848d e63b fd92 24bc
000002e0: ec33 ba3b b277 ad3b 9551 4abc 4c82 423b
000002f0: 1a85 943c 0d5b a0bc 24d2 35bc 7127 cdbb
00000300: b700 633a c76c 443b e347 fdbb 76aa 0e3c
00000310: a164 aebb c039 c6bb adee 9e3a 21d6 a5bc
00000320: 4406 1bbc 06b4 e0b9 a612 0cbb f85a f73b
00000330: 057b a33b a820 ea3b 02bc 9fbc fcfe 7abc
00000340: acb5 013c 74dc 3b3c 09bf b93b bf71 28bb
00000350: 05df ac3c 4b72 e23b 19d1 7d3c 037e 07bc
00000360: 65d2 e3bb aaad 173c cded 503a 44ac 153c
00000370: f150 84bc f3a2 223c bc1b 44bc 8c4b 08ba
00000380: 2f9a 4f3c 8aa7 22bc b2c9 a5bb d533 f9ba
00000390: 06e6 f73b 0730 453b 042e e9bb 41d8 073c
000003a0: 776b 75bb d4b8 6ebc 49d5 2f3c caf5 2d3b
000003b0: 0d8b 6fbb bb1e c43b 5557 363b 84ae e6b9
000003c0: a137 1cbc 06a3 693c cbad ffbb 99d5 123b
000003d0: 3e30 e4bc 0bd6 813c c866 963c 2461 fdba
000003e0: 561f 36bc 68c3 89b9 37c1 3e3c 467e a43c
000003f0: 6d7e abbc b144 f83b bd88 7fbb 5bf1 a1ba

layers_fc.1.0.weight f4 [10, 128]
0.009513482 0.010318035 -0.00031119815 -0.003155547 0.002485775 0.0019912042 -0.0013930693 -5.1073555e-05
-0.0035289216 0.0015536558 -0.04835021 -0.0018638137 0.0012812803 -0.0002682363 -0.00049161934 0.0009967572
-0.00034812264 -0.0005091231 0.0020304658 -0.025639175 0.00057765463 -0.016989628 0.0055854367 -9.222398e-05
-0.004814008 -0.0009071212 -0.0009303801 -0.005504341 0.00403832 0.0015443774 0.0027697366 -0.002860324
0.03173889 0.00051817915 0.0001857384 0.017952204 -0.004466972 -0.0010431902 0.041846126 0.0037403686
0.0651646 -0.0064252145 -0.0015762775 0.0015395582 0.001071124 -0.0048795063 -0.0022252635 0.007567945
-0.00085210125 3.6688692e-05 0.03816826 -0.008493222 -0.0042016227 0.030247798 0.0038905 -0.032713745
0.000844677 0.0027629342 -0.0056561907 -0.0010438794 0.002738211 0.0032212352 -0.0023508286 -0.002479636
-0.00053651293 -0.0009962287 -0.0045374692 4.9143102e-05 -0.003688873 -0.0020232494 -0.014297414 -0.001384906
-0.0014285957 -0.004695465 0.0020158796 0.0051360424 0.00919044 0.014783937 -0.0004543019 -0.0016519452
-0.001089979 0.0038594378 -0.0019687775 -0.00093627855 0.007285899 -0.01219163 0.00889864 0.0007511185
-0.014790206 -0.003549957 0.003008889 -0.007503849 -0.0016081771 -0.0050809816 0.014656243 -0.0004628784
-0.001782248 0.0056015127 0.0011458286 -0.022676958 -0.0016844429 -0.00052984455 -0.0024123464 -0.007713627
-0.0009235443 0.012183153 0.056253456 0.022607416 -0.050880034 0.013174435 0.0012190363 0.001450167
0.0116025265 0.00044657846 -0.008463164 -0.009099803 0.004675936 -0.00041903582 -0.013625643 -0.0060527413
-0.0011861656 0.0036099562 0.0011020114 0.0010230346 0.034079984 0.0013024987 -0.000585116 0.037866153
-0.0026315423 0.0061332355 0.046675526 0.0024161253 -0.0017036076 0.004038984 0.0014227617 -0.014881278
-4.654557e-05 0.0012384524 -0.0021280772 -0.0008866474 0.003159162 0.0002527498 0.0016036397 -0.0017344031
-0.0371577 -0.0011492324 -0.00024963764 -0.0048031365 0.010026328 0.0037411328 -0.007738508 -0.0035799632
0.004997421 0.0044632424 -0.0058393106 0.0058034207 0.00837447 -0.023754457 -0.0048719146 0.013586091
-0.0031610813 -0.00034790786 -0.008307749 -0.0045200563 -0.037743732 0.0004609375 0.0010480286 0.000946522
0.00013056534 -0.0024935168 -0.0069924104 -0.0017215778 0.00034998156 -0.019628309 -0.0057767024 0.008571959
-0.023474265 0.0042824917 0.0010870422 0.0055251513 0.002075724 -0.00550625 0.0034526498 0.0002933875
-0.0027321598 -0.0051066047 0.015670814 0.0035961445 -0.003026225 -0.0005653315 0.00045235825 0.00515785
-0.0068282182 -0.0008206988 0.0023309642 -0.0036361476 -0.015763933 -0.00047689048 -0.0033325246 0.011578442
0.017725077 -0.011750303 0.0019291631 0.008620143 -0.0015668751 -0.0042088744 0.004678927 0.0037411847
0.035823647 -0.0051009534 0.055488598 0.0049936534 0.005295732 0.0054456126 0.0066397544 0.00088510534
-0.0016569314 -0.0014804421 0.0032689008 0.00074192346 0.04624735 0.016810283 -0.0047946163 -0.089100584
-0.0030686078 -0.011325683 -0.004788062 -0.006846111 0.014437561 -0.0009781999 -0.019862983 -0.00019771718
-0.0036913701 -0.0038254 -0.00030266843 -0.0016958594 0.0010906116 -0.0064503346 0.00013738673 -0.0015028906
-0.010409214 -0.06363543 -0.024680985 0.0037992836 0.010234139 0.00074678054 0.007952936 -0.0015216863
-0.0021250388 0.006346953 0.0008415164 0.029163241 0.003130148 0.0006762165 -0.00033619796 -0.002099309
00000000: 70de 1b3c fa0c 293c 4f28 a3b9 4bcd 4ebb
00000010: 62e8 223b dd7e 023b a697 b6ba d037 56b8
00000020: 7b45 67bb 0aa4 cb3a df0a 46bd 364b f4ba
00000030: a2f0 a73a 11a2 8cb9 04e0 00ba 9fa5 823a
00000040: 3b84 b6b9 ac76 05ba 9011 053b 3f09 d2bc
00000050: bf6d 173a d52d 8bbc 0a06 b73b 5f68 c1b8
00000060: d3be 9dbb e0cb 6dba c0e4 73ba c25d b4bb
00000070: e253 843b b56c ca3a 7884 353b 4674 3bbb
00000080: a300 023d 6ad6 073a c6c2 4239 8010 933c
00000090: ad5f 92bb a8bb 88ba d866 2b3d f920 753b
000000a0: 0575 853d 9b8a d2bb 199b ceba 00cb c93a
000000b0: f564 8c3a 44e4 9fbb bad5 11bb 86fc f73b
000000c0: 8c5f 5fba 2fe2 1938 5256 1c3d 2827 0bbc
000000d0: c4ad 89bb 3bca f73c c2f7 7e3b d9fe 05bd
000000e0: 506d 5d3a 5812 353b 9157 b9bb c8d2 88ba
000000f0: 8f73 333b 5c1b 533b 5c10 1abb 6481 22bb
00000100: c6a4 0cba e393 82ba 0daf 94bb 011f 4e38
00000110: 05c1 71bb 7e98 04bb b33f 6abc bc85 b5ba
00000120: b83f bbba 6adc 99bb d91c 043b 3f4c a83b
00000130: 8093 163c 5338 723c 5e2f eeb9 1586 d8ba
00000140: a0dd 8eba 9fee 7c3b 9b06 01bb 9770 75ba
00000150: 8dbe ee3b 67bf 47bc 9acb 113c b6e6 443a
00000160: 9f52 72bc 65a6 68bb c830 453b d9e2 f5bb
00000170: 78c9 d2ba 5d7e a6bb bd20 703c 7dae f2b9
00000180: 529a e9ba e58c b73b a12f 963a 07c5 b9bc
00000190: 86c8 dcba 44e5 0aba 7518 1ebb 98c2 fcbb
000001a0: 021a 72ba d99b 473c 066a 663d 3033 b93c
000001b0: 9567 50bd 96d9 573c 12c8 9f3a 8813 be3a
000001c0: 8618 3e3c bf22 ea39 15a9 0abc 5717 15bc
000001d0: 9838 993b 09b2 dbb9 173e 5fbc 1356 c6bb
000001e0: 1d79 9bba 0495 6c3b 5e71 903a 5817 863a
000001f0: 7497 0b3d 9bb8 aa3a 7862 19ba 8a19 1b3d
00000200: f475 2cbb 4ff9 c83b d62e 3f3d db57 1e3b
00000210: 964b dfba 7459 843b f67b ba3a 9bd0 73bc
00000220: ed39 43b8 9153 a23a 3677 0bbb e66d 68ba
00000230: f109 4f3b 8183 8439 3831 d23a e954 e3ba
00000240: ac32 18bd d7a1 96ba cce1 82b9 a163 9dbb
00000250: 7845 243c cb2d 753b 4f93 fdbb d19d 6abb
00000260: 68c1 a33b 6440 923b b057 bfbb 9f2a be3b
00000270: 1335 093c b598 c2bc 95a4 9fbb 3298 5e3c
00000280: 252a 4fbb 6767 b6b9 3a1d 08bc fb1c 94bb
00000290: 2c99 1abd fca9 f139 015e 893a 0420 783a
000002a0: 5ee8 0839 456a 23bb 9720 e5bb 91a6 e1ba
000002b0: bb7d b739 8ccb a0bc 7e4a bdbb 6771 0c3c
000002c0: 1a4d c0bc 2554 8c3b 157b 8e3a 540c b53b
000002d0: df08 083b c66d b4bb da45 623b ced1 9939
000002e0: 090e 33bb 4e55 a7bb 1460 803c 4bad 6b3b
000002f0: a153 46bb c132 14ba 7f2a ed39 2f03 a93b
00000300: 3fbf dfbb 2a24 57ba 17c3 183b 6f4c 6ebb
00000310: 5d23 81bc 2807 fab9 7c66 5abb 81b3 3d3c
00000320: 2e34 913c 5884 40bc f9db fc3a 803b 0d3c
00000330: 9b5f cdba 99ea 89bb af51 993b aa2e 753b
00000340: d1bb 123d e625 a7bb 0348 633d cda1 a33b
00000350: d287 ad3b 1c71 b23b 4c92 d93b 6a06 683a
00000360: 642d d9ba 650b c2ba 0e3b 563b a47d 423a
00000370: dc6d 3d3d b8b5 893c 281c 9dbb 5e7a b6bd
00000380: b21a 49bb 5c8f 39bc 2de5 9cbb 5755 e0bb
00000390: 858b 6c3c f136 80ba b2b7 a2bc 4d52 4fb9
000003a0: eaea 71bb 90b3 7abb 78af 9eb9 9947 deba
000003b0: daf2 8e3a 545d d3bb 780f 1039 a4fc c4ba
000003c0: 688b 2abc 4b53 82bd c72f cabc 67fd 783b
000003d0: 17ad 273c 98c3 433a 084d 023c 5273 c7ba
000003e0: 3c44 0bbb 1afa cf3b 3699 5c3a c0e7 ee3c
000003f0: 2b23 4d3b 1f44 313a ba43 b0b9 8f94 09bb
