cnn/ANN/seed4/network.pth (torch, 739663 bytes, 4 tensors)

layers_conv.0.0.weight f4 [32, 1, 5, 5]
0.25051984 0.18080102 0.20136118 -0.08227952 -0.17424196 0.16317049 -0.18524468 -0.21167971
-0.25649446 0.18067054 -0.39616582 -0.42367116 -0.068314716 0.04771564 0.44812107 -0.3168078
0.16662978 0.15296878 0.11797205 0.041637354 0.27868563 0.36558878 -0.10541589 -0.28891045
-0.17830017 -0.07431063 0.15504202 0.021693202 0.042785555 0.29896656 0.014793295 0.017690431
-0.06044961 0.058531847 0.0067176083 0.011444535 0.19219123 0.0015712981 0.19520792 -0.13541812
-0.043455485 0.027176253 -0.0113209495 -0.05689795 -0.10571646 -0.016653266 -0.07187389 -0.16404408
-0.1106126 -0.08432262 0.08156336 0.043175984 -0.11485288 -0.2907947 0.15371308 0.13150302
0.13040406 -0.026655827 -0.34516504 -0.101597756 0.035640962 0.06317901 0.023795644 -0.06650105
-0.13944323 0.07133889 0.0007718925 0.12727912 -0.15536761 -0.11022792 -0.05724472 0.20162833
0.24097882 0.06333399 -0.050151713 -0.061657548 -0.24908014 -0.030264135 -0.06223285 0.2427715
-0.15871917 0.018154763 0.24112411 0.29086035 0.04547522 0.31587335 0.111571684 0.13351542
0.036933515 0.12265899 0.0987303 0.1643001 0.22524405 -0.046880487 -0.08102316 -0.1280794
-0.3337277 -0.40378326 -0.18823573 -0.23438384 -0.121610306 -0.1537671 -0.06833405 0.13678786
0.123874016 -0.11499438 -0.26148775 -0.18287818 0.21495123 0.45700696 -0.18993922 -0.5927206
-0.21118902 0.18890275 0.13769506 -0.20021223 -0.24922688 -0.14028324 0.13421649 0.07631075
0.044947367 -0.19674957 -0.09020012 0.056766193 0.029460002 -0.07935929 0.15882026 0.059599414
-0.10901995 -0.22990644 -0.15155299 0.008155735 0.08687103 -0.14413685 -0.0037467757 -0.36612794
-0.027186768 0.07724657 -0.06082458 0.08378662 -0.22740234 -0.08705918 0.13273332 0.18840323
0.059369005 -0.038857188 -0.11667369 -0.011943033 -0.04505269 0.15058245 0.03005098 0.048213627
-0.27539775 -0.07022852 -0.11905424 -0.0071468633 0.14307696 -0.034767523 -0.2908626 -0.5643232
0.10405839 0.45947656 0.5700803 0.26237485 -0.49107692 -0.3086127 -0.15330704 0.37747446
0.17962538 -0.15934625 -0.3770692 -0.17993711 0.17645226 0.28408325 -0.08321816 -0.0066881394
0.27825543 -0.055431426 -0.2883765 -0.20819105 -0.12006907 0.109078944 -0.0956927 0.037421063
-0.018799137 -0.27547047 0.077235594 0.0718127 0.32048085 0.351242 0.058050293 0.011121304
0.005471159 0.057125553 0.1656567 -0.010427512 0.04412052 -0.13695721 -0.27340263 -0.391666
0.27005973 -0.058988817 -0.044520877 -0.16253002 -0.016360087 0.020394508 -0.3454414 -0.46283093
-0.086397015 0.08257066 -0.29115507 -0.44864395 -0.10198777 0.17039806 0.13194303 -0.33587486
-0.24370801 -0.098101795 0.2825635 0.34427088 -0.38152063 -0.07350754 0.14786322 0.37341428
0.23207638 -0.36865485 -0.18040086 0.29537788 0.45916522 0.061226796 -0.4444875 -0.0603834
0.064355426 0.50188273 0.20317094 -0.22479083 -0.3144102 -0.12933931 0.24083099 0.07670259
-0.25444114 -0.28081164 0.09594535 0.09697997 -0.048378427 -0.21276125 -0.36354885 -0.12037829
0.14540844 0.09713838 -0.16962081 -0.12703422 -0.0046100216 0.036986653 0.2816312 -0.17282577
00000000: 2344 803e e723 393e a031 4e3e 2a82 a8bd
00000010: 7c6c 32be 2a16 273e c8b0 3dbe 91c2 58be
00000020: 3e53 83be b301 393e 3fd6 cabe 6deb d8be
00000030: 96e8 8bbd 7a71 433d 2070 e53e a234 a2be
00000040: ffa0 2a3e d9a3 1c3e 559b f13d ee8b 2a3d
00000050: e2af 8e3e 742e bb3e 49e4 d7bd 12ec 93be
00000060: 5294 36be 2c30 98bd 56c3 1e3e f1b5 b13c
00000070: e83f 2f3d 2512 993e 945f 723c 86eb 903c
00000080: 039a 77bd 17bf 6f3d 621f dc3b dc81 3b3c
00000090: c7cd 443e 04f4 cd3a 96e4 473e 0cab 0abe
000000a0: 61fe 31bd bca0 de3c 817b 39bc d30d 69bd
000000b0: df81 d8bd 6e6c 88bc 9e32 93bd 2cfb 27be
000000c0: dc88 e2bd 56b1 acbd b10a a73d 4dd9 303d
000000d0: fd37 ebbd 0be3 94be f666 1d3e baa8 063e
000000e0: a488 053e 525d dabc 79b9 b0be 7c12 d0bd
000000f0: 42fc 113d ff63 813d 15ef c23c b431 88bd
00000100: 35ca 0ebe 201a 923d d458 4a3a 7555 023e
00000110: b018 1fbe 2dbf e1bd 7179 6abd a877 4e3e
00000120: 27c3 763e 40b5 813d e26b 4dbd a08c 7cbd
00000130: dd0e 7fbe 7eec f7bc dfe7 7ebd 1899 783e
00000140: 4787 22be 4cb9 943c 3de9 763e a6eb 943e
00000150: 3944 3a3d 27ba a13e b27f e43d 44b8 083e
00000160: 9947 173d a334 fb3d 1d33 ca3d 493e 283e
00000170: 60a6 663e c105 40bd 78ef a5bd 3f27 03be
00000180: 5bde aabe aebc cebe dec0 40be 5102 70be
00000190: d30e f9bd 1f75 1dbe b9f2 8bbd 1e12 0c3e
000001a0: a9b1 fd3d 2c82 ebbd b9e1 85be 6b44 3bbe
000001b0: 2d1c 5c3e d1fc e93e 6d7f 42be 8abc 17bf
000001c0: ef41 58be b96f 413e efff 0c3e 6f04 4dbe
000001d0: 5535 7fbe 69a6 0fbe 0c70 093e cf48 9c3d
000001e0: bb1a 383d b878 49be d7ba b8bd ab83 683d
000001f0: 1a56 f13c 2087 a2bd c7a1 223e 841e 743d
00000200: da45 dfbd 986c 6bbe b530 1bbe a29f 053c
00000210: 70e9 b13d 9c98 13be 778c 75bb 1f75 bbbe
00000220: c9b6 debc 7333 9e3d 3223 79bd 5298 ab3d
00000230: 29dc 68be 154c b2bd 3eeb 073e c7ec 403e
00000240: ea2c 733d b728 1fbd 9ef2 eebd b6ac 43bc
00000250: 2b89 38bd 4932 1a3e 792d f63c a77b 453d
00000260: ef00 8dbe f8d3 8fbd b6d2 f3bd 3c30 eabb
00000270: c482 123e 6468 0ebd f1eb 94be 7c77 10bf
00000280: 911c d53d 8340 eb3e c8f0 113f ff55 863e
00000290: 6f6e fbbe 7c02 9ebe 85fc 1cbe 5544 c13e
000002a0: b7ef 373e aa2b 23be 370f c1be 6f41 38be
000002b0: e7af 343e 5c73 913e 486e aabd 2e28 dbbb
000002c0: 7f77 8e3e 100c 63bd 16a6 93be 0930 55be
000002d0: c6e6 f5bd c864 df3d 89fa c3bd d446 193d
000002e0: a600 9abc 770a 8dbe b22d 9e3d 8912 933d
000002f0: 1116 a43e fed5 b33e 25c6 6d3d 2136 363c
00000300: 6847 b33b 7cfc 693d e9a1 293e 28d8 2abc
00000310: b8b7 343d 833e 0cbe 6efb 8bbe 7288 c8be
00000320: 4545 8a3e 429e 71bd 865b 36bd 456e 26be
00000330: 9705 86bc 6212 a73c b2dd b0be 2df8 ecbe
00000340: ebf0 b0bd ce1a a93d 4712 95be a9b4 e5be
00000350: f7de d0bd d47c 2e3e 131c 073e caf7 abbe
00000360: 988e 79be 98e9 c8bd 2aac 903e 4644 b03e
00000370: ac56 c3be 1f8b 96bd 7569 173e 2830 bf3e
00000380: 6ea5 6d3e 54c0 bcbe 01bb 38be c53b 973e
00000390: b417 eb3e f3c8 7a3d de93 e3be 9654 77bd
000003a0: c7cc 833d 637b 003f 0b0c 503e 912f 66be
000003b0: 60fa a0be 8671 04be 669c 763e 3f16 9d3d
000003c0: 1c46 82be 8bc6 8fbe ff7e c43d 6f9d c63d
000003d0: 7528 46bd 16de 59be 1323 babe e588 f6bd
000003e0: f3e5 143e 7df0 c63d 14b1 2dbe 4215 02be
000003f0: aa0f 97bb 517f 173d f731 903e 3df9 30be

layers_conv.1.0.weight f4 [64, 32, 5, 5]
0.110348746 -0.071995825 0.05985466 0.1547683 0.114977375 0.05234978 0.23347603 0.20803165
0.26065034 0.30969173 0.24753231 0.15348564 0.103716 0.170894 0.11847806 0.13663155
0.09132397 0.07442299 0.06597265 0.33823848 0.09719016 0.023152137 0.046290763 -0.06324699
-0.16833411 0.036013193 -0.10291176 -0.19359264 0.14858352 -0.09117851 0.0036623434 -0.10940157
0.06551189 -0.034608763 -0.08569668 0.08104674 0.06667052 0.016457368 0.24474697 -0.12743564
0.13985105 0.115396336 0.08474112 0.028720409 0.20931248 0.1938314 0.10008476 -0.05199555
0.25349146 0.10053107 0.038900293 0.12243313 0.058942024 -0.0164799 0.0024595996 0.04947412
-0.07735242 -0.03864346 0.01156604 -0.06809948 0.02289783 -0.07606478 -0.07626141 0.022838902
0.15750225 -0.10398033 0.24083464 -0.18958713 0.14012277 -0.16331281 0.036147144 0.16475432
0.10793589 0.20451692 0.055637583 0.16046505 -0.25328407 -0.024050983 0.059362236 0.24528061
-0.0103243515 -0.026672918 0.029268257 0.16481838 -0.019446379 0.0893682 -0.11099705 -0.23338562
-0.060618106 0.06362549 0.04035657 0.1415408 0.012733714 0.14211464 0.17256916 0.040629577
0.18862352 0.08035611 0.104065716 0.11063799 0.15588357 -0.041696835 -0.29271 -0.090024464
-0.045596417 0.09675357 0.10179324 -0.09751074 -0.24520242 -0.08049865 0.10828188 -0.32997403
0.09957778 -0.22780912 0.038690362 0.029384218 0.0685525 0.050227832 -0.13929561 -0.21797746
-0.1802938 -0.104017176 -0.05299475 -0.028394103 0.06474976 -0.15044469 0.03731782 -0.02661249
-0.031932313 0.09194368 -0.015935695 -0.027270576 0.005060443 0.018781943 0.17748496 0.24722412
-0.12696849 -0.052494098 -0.16526301 -0.19818921 -0.23389582 -0.25126034 -0.044340953 -0.036588747
0.16733459 -0.08035436 -0.081539765 -0.056779407 -0.04926692 0.11169329 0.17728795 0.04209398
0.2558647 -0.0035270548 0.18340904 0.09207151 -0.03271327 -0.12999485 0.06358746 0.369105
-0.019758716 0.03784465 0.05537139 -0.053365935 0.20010278 -0.027090097 0.15893564 0.10901285
0.24238724 -0.028789762 0.18398751 0.15815042 0.3894555 -0.03868147 0.12942317 0.0672133
-0.12728697 0.33405706 0.07668206 -0.035902042 0.20452997 0.09718556 -0.05490302 0.32203913
0.19218697 -0.1247617 -0.3197785 0.14595181 0.067226544 0.19730127 -0.0049822154 -0.14955622
0.108230904 0.022823393 -0.04986242 -0.01602948 -0.07677097 0.07042189 -0.036166403 0.1896239
-0.10504523 0.047821965 -0.0018979395 -0.04330182 0.02338696 -0.007852287 0.10450332 0.12114355
0.10023674 0.21126713 -0.013146436 0.09751264 0.04193285 -0.09064294 -0.02327607 -0.069455296
-0.21191323 -0.22729635 -0.11974659 -0.07346268 -0.24308573 -0.16044104 -0.2094769 -0.5090954
-0.5262644 0.18629847 -0.004844564 0.0045758677 -0.04613981 -0.087408386 -0.08124727 0.0773975
0.013455485 -0.079966545 -0.14631663 -0.05473104 -0.20686886 -0.04724728 -0.1500003 -0.037247572
-0.082211174 0.11816026 0.094166666 0.20582514 -0.15943924 -0.019415269 0.046623208 0.091201745
-0.20867823 -0.089119814 0.052997652 -0.18386017 -0.019881709 -0.12986143 -0.06705285 -0.014214114
00000000: 86fe e13d 8c72 93bd 292a 753d 957b 1e3e
00000010: 4279 eb3d b96c 563d 5714 6f3e 4006 553e
00000020: f673 853e ea8f 9e3e 1c79 7d3e 572b 1d3e
00000030: 0e69 d43d d6fe 2e3e a0a4 f23d 24e9 0b3e
00000040: 1008 bb3d 156b 983d ab1c 873d 982d ad3e
00000050: a20b c73d 8da9 bd3c 629b 3d3d a387 81bd
00000060: c75f 2cbe 9282 133d 67c3 d2bd 263d 46be
00000070: 4726 183e ccbb babd ed03 703b ee0d e0bd
00000080: 192b 863d ebc1 0dbd be81 afbd d5fb a53d
00000090: 8e8a 883d 9ad1 863c f39e 7a3e 7d7e 02be
000000a0: 1d35 0f3e ea54 ec3d c18c ad3d 1047 eb3c
000000b0: 0356 563e bd7b 463e 3df9 cc3d 49f9 54bd
000000c0: a2c9 813e 3ce3 cd3d ea55 1f3d 39be fa3d
000000d0: 316d 713d db00 87bc 3c31 213b 60a5 4a3d
000000e0: f26a 9ebd 9b48 1ebd 7d7f 3d3c bd77 8bbd
000000f0: 3b94 bb3c dac7 9bbd f12e 9cbd a618 bb3c
00000100: 4548 213e a4f3 d4bd 5b9d 763e 2123 42be
00000110: 587c 0f3e 793b 27be 070f 143d 5bb5 283e
00000120: 7e0d dd3d e26c 513e 3ce4 633d f350 243e
00000130: 73ae 81be 9106 c5bc d125 733d d72a 7b3e
00000140: 7827 29bc 2a81 dabc fcc3 ef3c 26c6 283e
00000150: 034e 9fbc ad06 b73d 6c52 e3bd a4fc 6ebe
00000160: b14a 78bd 154e 823d ee4c 253d 12f0 103e
00000170: 11a1 503c 8086 113e f8b5 303e 336b 263d
00000180: 8626 413e bf91 a43d 6820 d53d 2c96 e23d
00000190: f19f 1f3e 4dca 2abd 16de 95be bf5e b8bd
000001a0: 4fc3 3abd bc26 c63d f978 d03d b6b3 c7bd
000001b0: 5816 7bbe 7adc a4bd e4c2 dd3d 5bf2 a8be
000001c0: 6fef cb3d cb46 69be c979 1e3d 2cb7 f03c
000001d0: 4165 8c3d b3bb 4d3d 82a3 0ebe 7c35 5fbe
000001e0: f09e 38be f506 d5bd 0611 59bd c09a e8bc
000001f0: 869b 843d 2c0e 1abe 92da 183d 7002 dabc
00000200: 75cb 02bd f84c bc3d 938b 82bc 8b66 dfbc
00000210: 13d2 a53b 97dc 993c 9ebe 353e 5228 7d3e
00000220: 0704 02be 0d04 57bd b53a 29be 1df2 4abe
00000230: 6382 6fbe 32a5 80be dc9e 35bd 15de 15bd
00000240: c259 2b3e d490 a4bd 52fe a6bd 8691 68bd
00000250: 1ccc 49bd 74bf e43d f98a 353e bd6a 2c3d
00000260: b300 833e 2926 67bb 94cf 3b3e fd8f bc3d
00000270: 5afe 05bd 5f1d 05be 243a 823d 55fb bc3e
00000280: 08dd a1bc fe02 1b3d 1ccd 623d 3d96 5abd
00000290: bee7 4c3e 0dec ddbc 06c0 223e 2142 df3d
000002a0: 5c34 783e 82d8 ebbc 3967 3c3e 2ff2 213e
000002b0: b666 c73e 7670 1ebd 8287 043e 20a7 893d
000002c0: 8457 02be 8709 ab3e 7c0b 9d3d 050e 13bd
000002d0: 4e70 513e 3909 c73d fde1 60bd 50e2 a43e
000002e0: a9cc 443e 1083 ffbd 02ba a3be 6474 153e
000002f0: 12ae 893d 5809 4a3e da41 a3bb 4425 19be
00000300: 2aa8 dd3d 20f8 ba3c 893c 4cbd 4250 83bc
00000310: 193a 9dbd 5a39 903d 3923 14bd c52c 423e
00000320: f421 d7bd f7e0 433d 48c4 f8ba 405d 31bd
00000330: 0396 bf3c e1a6 00bc d605 d63d 1c1a f83d
00000340: ec48 cd3d 6956 583e 2664 57bc b5b4 c73d
00000350: c8c1 2b3d 01a3 b9bd 75ad bebc 943e 8ebd
00000360: c8ff 58be 60c0 68be b33d f5bd 9a73 96bd
00000370: 77eb 78be a84a 24be 1d81 56be 1354 02bf
00000380: 44b9 06bf 07c5 3e3e 26bf 9ebb 29f1 953b
00000390: 19fd 3cbd 2b03 b3bd f864 a6bd 9582 9e3d
000003a0: 6574 5c3c 80c5 a3bd 07d4 15be a82d 60bd
000003b0: 6ed5 53be 5d86 41bd ae99 19be e990 18bd
000003c0: 555e a8bd 02fe f13d 74da c03d d3c3 523e
000003d0: 0a44 23be c50c 9fbc faf7 3e3d fbc7 ba3d
000003e0: bfaf 55be 7384 b6bd 1114 593d d745 3cbe
000003f0: f7de a2bc 65fa 04be 0153 89bd 51e2 68bc

layers_fc.0.0.weight f4 [128, 1024]
-0.028461719 0.045682576 0.09573888 -0.0064942967 0.07643197 0.094682336 -0.07240328 0.0040541864
0.03535299 0.07225354 -0.12121434 -0.015544033 -0.21300189 -0.2229721 -0.09183573 -0.042929392
-0.026283346 -0.103826106 -0.023931377 -0.095326595 -0.07698741 0.06482528 -0.13567641 -0.12519106
-0.011115641 -0.046925202 -0.06914952 -0.026920259 -0.06389045 -0.24887498 -0.0045278138 0.067619696
0.021709105 0.048163913 0.042927437 0.01864215 -0.173424 -0.092713505 -0.028300926 0.056636862
-0.15798941 -0.15552178 0.0065635955 0.0801627 -0.059247956 -0.08013043 -0.16204977 -0.42338097
-0.16165103 -0.08637148 -0.019338032 0.05227395 -0.065784514 -0.052615903 0.043677893 0.13249214
-0.010417531 -0.02784676 -0.20654836 -0.19692764 0.029607257 0.022104701 -0.058129314 0.022374146
-0.0034217036 0.09989517 0.12570676 -0.072594345 0.06603441 0.026790379 0.15031578 -0.15582338
-0.107898004 -0.10451257 -0.05940383 0.14682834 -0.22147094 0.059999328 0.110447176 0.081048936
0.087274484 -0.016737908 0.07473567 0.18260422 -0.11986624 -0.03423975 0.030530022 -0.059711445
-0.033588972 0.019946605 -0.17179239 -0.35571492 -0.045939196 -0.40968737 -0.27850384 -0.24519376
-0.10165255 -0.14277324 0.04890315 0.06445727 0.05000677 0.016425913 0.044170525 0.12398994
-0.044556025 -0.061793137 0.08392068 -0.11304212 -0.013032224 -0.00405706 -0.05697972 -0.16647196
-0.058506057 -0.3727923 -0.29025933 -0.096062034 -0.129602 -0.0083302315 -0.09259081 -0.0035079592
0.023486787 0.047938753 -0.012848587 0.036826 -0.024754807 -0.031351373 -0.012432896 0.022853358
0.004335255 -0.011083622 0.06293993 0.09758793 -0.09685494 -0.12294922 -0.019751266 0.04522716
-0.07932496 0.00032020645 -0.123319894 0.044119224 0.06697251 -0.0005618272 -0.24336097 -0.21407443
-0.14352176 0.19289038 -0.004439637 0.15556185 0.036994744 -0.07299079 -0.05712738 0.035128925
-0.0723947 -0.033332504 -0.02218709 -0.18809974 -0.016479634 -0.05314116 -0.044350598 -0.29215154
0.040876213 -0.018893322 -0.14205661 -0.13068438 0.051221523 -0.1274384 -0.07976386 0.0843438
-0.005366157 -0.124249674 0.011162357 0.16338511 -0.109865576 -0.0066121616 0.07950283 -0.09005867
0.08173214 0.09176046 0.111274585 0.061425813 -0.029603235 -0.06259972 -0.019417211 0.026092133
0.11319124 -0.039968606 -0.2151617 0.0074334797 0.11944027 -0.046862334 -0.1307754 -0.26225942
-0.0889607 0.029787375 0.06431505 0.03980526 0.07063993 0.02448204 0.12874718 -0.04380782
0.118017524 0.05407702 0.062237747 -0.021328414 0.026077798 -0.04698795 0.03129434 -0.03623175
-0.18318738 -0.03799774 -0.07253684 -0.11060546 -0.16343099 -0.04931533 -0.09363423 -0.09815956
-0.016139869 0.036801763 -0.017382963 -0.036516063 0.04025073 0.14147791 0.010491263 0.1560792
0.1396672 -0.1691964 -0.25191513 -0.15685488 -0.14884019 -0.11421722 -0.04204212 -0.045508217
-0.08543687 0.013362455 -0.020265969 0.007991881 -0.00508761 0.04297437 0.008999255 -0.0038791192
-0.13359658 0.012260262 0.013935204 0.045768905 0.067440644 0.032464266 0.122066535 -0.05521376
-0.03089174 -0.081704736 -0.048247613 0.028670236 -0.25652453 -0.004083251 -0.019404184 -0.06402868
00000000: 8d28 e9bc a71d 3b3d bf12 c43d 1cce d4bb
00000010: 5d88 9c3d d0e8 c13d 2c48 94bd fbd8 843b
00000020: 4cce 103d aaf9 933d 393f f8bd 66ac 7ebc
00000030: 2b1d 5abe cc52 64be 5f14 bcbd bbd6 2fbd
00000040: 2c50 d7bc c8a2 d4bd bc0b c4bc 973a c3bd
00000050: 93ab 9dbd 1ec3 843d c2ee 0abe 1632 00be
00000060: 611e 36bc a434 40bd 439e 8dbd e087 dcbc
00000070: ffd8 82bd 15d9 7ebe 0e5e 94bb 327c 8a3d
00000080: 4bd7 b13c 8647 453d aed4 2f3d 6cb7 983c
00000090: 1096 31be 94e0 bdbd 58d7 e7bc 0efc 673d
000000a0: fac7 21be 1a41 1fbe 6e13 d73b 572c a43d
000000b0: fcad 72bd 6c1b a4bd 60f0 25be 64c5 d8be
000000c0: d987 25be 88e3 b0bd cb6a 9ebc 361d 563d
000000d0: 08ba 86bd c683 57bd 97e7 323d 05ac 073e
000000e0: 4bae 2abc e31e e4bc 6a81 53be 66a7 49be
000000f0: eb8a f23c eb14 b53c 0119 6ebd fc49 b73c
00000100: a93e 60bb d795 cc3d 46b9 003e 58ac 94bd
00000110: 0c3d 873d 7f77 db3c 61ec 193e 2a90 1fbe
00000120: a1f9 dcbd b00a d6bd 6e51 73bd 2b5a 163e
00000130: 47c9 62be dbc1 753d 2132 e23d fcfc a53d
00000140: f7bc b23d f01d 89bc 040f 993d 9afc 3a3e
00000150: 6e7c f5bd fb3e 0cbd 191a fa3c fd93 74bd
00000160: 9794 09bd 1067 a33c 58ea 2fbe 4420 b6be
00000170: bd2a 3cbd 8bc2 d1be 0e98 8ebe 1314 7bbe
00000180: 362f d0bd 2633 12be ab4e 483d 2c02 843d
00000190: e6d3 4c3d a38f 863c 27ec 343d 70ee fd3d
000001a0: 6180 36bd cd1a 7dbd 9bde ab3d a182 e7bd
000001b0: 1c85 55bc 16f1 84bb 9163 69bd a077 2abe
000001c0: 0ca4 6fbd a2de bebe df9c 94be 2cbc c4bd
000001d0: 63b6 04be 867b 08bc 40a0 bdbd cae5 65bb
000001e0: 5d67 c03c 6d5b 443d e182 52bc dcd6 163d
000001f0: 98ca cabc 4c6a 00bd 58b3 4bbc f736 bb3c
00000200: c10e 8e3b 1598 35bc a6e6 803d 2edc c73d
00000210: e25b c6bd cdcc fbbd 68cd a1bc 1d40 393d
00000220: 2075 a2bd 62e1 a739 248f fcbd 5cb6 343d
00000230: e228 893d 9647 13ba 9e33 79be 5436 5bbe
00000240: 5ef7 12be 0e85 453e 607a 91bb 9b4b 1f3e
00000250: cd87 173d 327c 95bd 66fe 69bd 59e3 0f3d
00000260: ac43 94bd aa87 08bd b3c1 b5bc 389d 40be
00000270: 4c00 87bc 8caa 59bd f9a8 35bd e394 95be
00000280: d16d 273d 2bc6 9abc 4a77 11be 20d2 05be
00000290: a9cd 513d 367f 02be 3c5b a3bd 71bc ac3d
000002a0: 96d6 afbb 9d76 febd 52e2 363c 6d4e 273e
000002b0: 3401 e1bd d5aa d8bb 61d2 a23d ae70 b8bd
000002c0: 2e63 a73d e8ec bb3d eee3 e33d a299 7b3d
000002d0: 7c82 f2bc 4834 80bd d810 9fbc 2bbf d53c
000002e0: cfd0 e73d 1fb6 23bd 5953 5cbe 8c94 f33b
000002f0: 1a9d f43d b8f2 3fbd fde9 05be de46 86be
00000300: 0731 b6bd a704 f43c 9cb7 833d d70a 233d
00000310: abab 903d 8f8e c83c 4dd6 033e d46f 33bd
00000320: 2cb3 f13d de7f 5d3d 02ed 7e3d edb8 aebc
00000330: 1ba1 d53c 7076 40bd 7e2e 003d be67 14bd
00000340: 7995 3bbe 85a3 1bbd 328e 94bd 1e85 e2bd
00000350: 745a 27be dffe 49bd 4ec3 bfbd e107 c9bd
00000360: c237 84bc 72bd 163d b766 8ebc de91 15bd
00000370: f3dd 243d 96df 103e 8ce3 2b3c 3ad3 1f3e
00000380: eb04 0f3e d241 2dbe 05fb 80be 919e 20be
00000390: 9069 18be b8ea e9bd 5c34 2cbd d366 3abd
000003a0: 87f9 aebd 33ee 5a3c d104 a6bc 61f0 023c
000003b0: f7b5 a6bb e505 303d 9c71 133c d238 7ebb
000003c0: 8bcd 08be 44df 483c 7b50 643c 2d78 3b3d
000003d0: 521e 8a3d 40f9 043d 05fe f93d d327 62bd
000003e0: ad10 fdbc d054 a7bd 4a9f 45bd d8dd ea3c
000003f0: 2f57 83be cbcc 85bb 86f5 9ebc 7821 83bd

layers_fc.1.0.weight f4 [10, 128]
-0.119354576 -0.03432128 -0.23330183 -0.15794866 0.01317459 0.09623428 0.013595378 0.07882023
0.054653917 0.022503493 0.0027110486 -0.023411643 -0.21815789 -0.12437022 0.03608066 -0.02340186
-0.0013527307 0.014574129 -0.015364143 -0.1874051 0.028909795 0.054210912 -0.14302607 0.036298186
0.04103087 -0.009280401 -0.17370792 -0.16149727 -0.02357255 0.16844217 -0.3574211 -0.29071015
0.13028812 -0.1992922 -0.06919652 -0.19029415 0.06585125 -0.011087353 -0.08990845 -0.0062583596
0.059702124 0.1619917 -0.10649848 0.079505086 0.13437407 0.060262665 0.04024783 0.033391684
-0.29963416 -0.019621072 -0.17135726 -0.019919306 -0.20339233 -0.251047 0.11786096 -0.29768825
0.084118746 -0.3867981 -0.14232177 0.04592715 -0.10674924 0.07891859 -0.012275398 0.05910306
-0.14858226 -0.12035323 0.06400865 0.0027048816 0.02715081 0.009120582 0.057292223 -0.075784005
-0.03324269 0.04276434 0.002519451 -0.014398246 0.016642215 -0.005264264 -0.22502166 -0.09177406
0.02545945 0.12010381 0.12954222 0.06947819 0.03561372 0.037523195 -0.17973283 -0.00091184356
0.025134698 1.5995247e-05 -0.18132398 0.04357511 -0.013497122 -0.03971513 -0.30548865 -0.24514557
-0.02117781 0.04647829 0.0823375 0.003998474 -0.018186988 0.05125772 0.044529952 -0.13391127
-0.19299722 -0.25232106 0.024536127 -0.17424646 -0.0037765738 -0.03639909 -0.0024703091 -0.12730895
0.23132591 -0.08428521 0.00812377 0.08584144 -0.19711675 0.07950628 0.010291407 -0.17403029
-0.25095513 0.04185156 0.076444894 0.09724033 0.030097215 -0.037193365 0.17370978 -0.013226649
-0.04094742 -0.06880798 -0.05259985 0.020203922 -0.016417455 0.12228753 -0.04714156 -0.03780717
-0.018218426 0.008390046 -0.0043237763 -0.14683686 -0.07177831 0.004615464 0.028741328 -0.060463633
0.00101605 0.07877092 0.005425881 0.0387144 -0.2063545 0.009691474 -0.24148315 -0.1545327
-0.06388367 -0.01161161 -0.084386095 0.034069072 0.13944077 0.17874035 0.0107212 -0.06285401
-0.07431105 0.037371952 0.04796722 -0.02046513 -0.021204663 -0.021358958 -0.037282836 -0.2675587
-0.12289871 -0.037265856 0.054831848 -0.14226496 0.010284908 0.0077624866 -0.0051972945 -0.08824412
-0.04433436 -0.0055909688 -0.21765831 0.06988311 0.0865329 -0.0982049 0.04664745 0.11248847
-0.08786021 -0.05291518 0.043825652 0.026001774 0.034751836 -0.18147345 0.25612992 -0.030206533
0.063384555 0.06853804 -0.071196824 -0.015368874 -0.18792783 -0.013552328 0.00688454 0.04127999
-0.14563976 -0.029318672 -0.022014657 -0.09365133 0.107996084 0.04942315 -0.12970817 -0.0058955685
-0.06858156 -0.04890415 0.05736294 -0.013022081 0.015576811 -0.31586286 0.13009487 -0.0073827524
-0.24742332 0.0009609391 0.075923294 -0.010331876 -0.44076183 0.08160893 0.03462986 -0.20211051
-0.0044963732 -0.12539156 0.006246967 -0.053026605 -0.13978432 -0.028198862 0.0057101278 -0.09627381
0.06028057 0.0058800257 0.020481775 0.04759142 -0.12936184 -0.16505775 -0.05057003 -0.060988706
-0.2783354 -0.02205095 0.008419265 -0.1174706 0.03221247 -0.04567014 0.030263966 0.014276835
0.0155266225 -0.26382902 -0.27649325 -0.17949334 -0.025363758 -0.122045055 0.21467406 0.27835107
00000000: 2c70 f4bd 7894 0cbd ade6 6ebe 4bbd 21be
00000010: 3cda 573c 7a16 c53d 26bf 5e3c 806c a13d
00000020: c9dc 5f3d 3f59 b83c d9ab 313b c6c9 bfbc
00000030: c864 5fbe d0b5 febd 50c9 133d 42b5 bfbc
00000040: 1c4e b1ba 54c8 6e3c e3b9 7bbc 1fe7 3fbe
00000050: 3cd4 ec3c 430c 5e3d 6d75 12be 68ad 143d
00000060: fc0f 283d d30c 18bc 7de0 31be 8a5f 25be
00000070: 381b c1bc 1b7c 2c3e e6ff b6be f6d7 94be
00000080: 406a 053e 4113 4cbe e8b6 8dbd 78dc 42be
00000090: 05dd 863d bba7 35bc ec21 b8bd ed12 cdbb
000000a0: 378a 743d 27e1 253e e01b dabd 90d3 a23d
000000b0: 5b99 093e fcd5 763d e9da 243d b8c5 083d
000000c0: a669 99be 5fbc a0bc 4778 2fbe d02d a3bc
000000d0: 1446 50be 3b89 80be 1661 f13d 986a 98be
000000e0: 7346 ac3d 670a c6be ccbc 11be 1b1e 3c3d
000000f0: 589f dabd 12a0 a13d c01e 49bc 0d16 723d
00000100: f325 18be c17b f6bd f816 833d 6244 313b
00000110: 606b de3c 7e6e 153c 40ab 6a3d a534 9bbd
00000120: 7d29 08bd a929 2f3d 601d 253b 9fe6 6bbc
00000130: 4155 883c d97f acbb 146c 66be 0af4 bbbd
00000140: 5690 d03c fdf8 f53d b7a6 043e 954a 8e3d
00000150: b1df 113d ecb1 193d e20b 38be c908 6fba
00000160: 48e7 cd3c 882d 8637 feac 39be d17b 323d
00000170: 0823 5dbc 55ac 22bd 0269 9cbe 7107 7bbe
00000180: 167d adbc 0560 3e3d 90a0 a83d a205 833b
00000190: e1fc 94bc 9df3 513d 0a65 363d 0920 09be
000001a0: 10a1 45be 3a30 81be fdff c83c aa6d 32be
000001b0: 6580 77bb 3617 15bd e9e4 21bb 475d 02be
000001c0: b3e0 6c3e b99d acbd 9019 053c a3cd af3d
000001d0: f9d8 49be 30d4 a23d 4a9d 283c ff34 32be
000001e0: 317d 80be 8b6c 2b3d 248f 9c3d f025 c73d
000001f0: 6f8e f63c 1258 18bd fae0 313e 96b4 58bc
00000200: 7bb8 27bd 33eb 8cbd f172 57bd b282 a53c
00000210: e67d 86bc e271 fa3d 8217 41bd b1db 1abd
00000220: cf3e 95bc 6776 093c 77ae 8dbb 675c 16be
00000230: 8200 93bd 513d 973b ef72 eb3c b7a8 77bd
00000240: fb2c 853a a652 a13d 97cb b13b fe92 1e3d
00000250: 984e 53be fdc8 1e3c 5c47 77be d23d 1ebe
00000260: 71d5 82bd 9f3e 3ebc 9ed2 acbd 038c 0b3d
00000270: 90c9 0e3e b607 373e f9a7 2f3c 9ab9 80bd
00000280: 6430 98bd 5513 193d 4779 443d 7da6 a7bc
00000290: 67b5 adbc fbf8 aebc e3b5 18bd 74fd 88be
000002a0: 52b2 fbbd 15a4 18bd 5c97 603d e8ad 11be
000002b0: 0882 283c 755c fe3b 114e aabb 55b9 b4bd
000002c0: f297 35bd 7234 b7bb d2e1 5ebe e01e 8f3d
000002d0: 2938 b13d a71f c9bd 6611 3f3d 5b60 e63d
000002e0: 0ef0 b3bd 96bd 58bd 8782 333d ac01 d53c
000002f0: f157 0e3d 2dd4 39be 7623 833e b173 f7bc
00000300: c3cf 813d ac5d 8c3d a4cf 91bd bbcd 7bbc
00000310: 2770 40be 950a 5ebc b597 e13b 3515 293d
00000320: 9722 15be b62d f0bc 1558 b4bc 45cc bfbd
00000330: 0d2d dd3d ee6f 4a3d 38d2 04be 9d2f c1bb
00000340: 7d74 8cbd b84f 48bd 67f5 6a3d 915a 55bc
00000350: e135 7f3c c7b8 a1be 9737 053e 04eb f1bb
00000360: 8a5c 7dbe 88e7 7b3a ac7d 9b3d 0747 29bc
00000370: 89ab e1be 9522 a73d 0ad8 0d3d 0ff6 4ebe
00000380: 5056 93bb a566 00be 5bb3 cc3b 6d32 59bd
00000390: 9f23 0fbe 4d01 e7bc 061c bb3b 342b c5bd
000003a0: c2e8 763d 3bad c03b 65c9 a73c 39ef 423d
000003b0: 6e77 04be e604 29be 8522 4fbd 4bcf 79bd
000003c0: fa81 8ebe 32a4 b4bc f5f0 093c 6d94 f0bd
000003d0: 39f1 033d 9d10 3bbd 23ec f73c 63e9 693c
000003e0: 6063 7e3c 9914 87be 8690 8dbe 1acd 37be
000003f0: a8c7 cfbc c2f2 f9bd 84d3 5b3e 0884 8e3e
